weights/tests/agent_dqn_test.pt (torch, 42638 bytes, 6 tensors)

fc1.weight f4 [128, 11]
00000000: 2f78 983e 3baa 72bd aae0 86be 98e6 cd3c
00000010: a88c 513e b667 01be 83f6 0f3e ae2b 58be
00000020: f246 9d3d d58d acbd 908a 8ebe 477b 54be
00000030: 7341 32be 6e7e adbb b568 803e 10ee 08be
00000040: 4944 51be 1405 95be d92e 573e 4a1d 5d3e
00000050: 1525 84be dd96 25bd dc81 97bd 93f0 9bbd
00000060: bf79 9e3d b864 04bd c153 33bd 7862 28be
00000070: 6110 6dbe 3508 a1bd 3e3c d93d 798b 903e
00000080: 3c29 7e3d c870 d13d 62d0 443e 31e1 783d
00000090: ff43 4abe 8bd0 953e 859a b9bc 3731 723e
000000a0: c631 a0bc 5d97 863e c763 f8bd 6e2e a1bd
000000b0: d343 17bd c4a5 813e 1aa4 81be 519f 153e
000000c0: 3428 9cbd 917f 1b3e 6e23 823e 1519 bfbd
000000d0: 9564 323e 38ab 08be f90a 96be 0ee5 56be
000000e0: e5e5 663e d5f2 c93d 56d1 2fbe 24b1 75be
000000f0: 9339 07bd 7c66 0abe 9e65 13bd b4a7 4c3d
00000100: 4340 60be 175a 3cbe a9fa 853e 0b45 5c3e
00000110: 79bb 72be eca8 903e 70fa 49be 1cdb 943e
00000120: 828b 0e3e 1f0f 91be 8c0e f73d 24cd 8e3e
00000130: 63bf 19be 89c9 4f3c 196c 7d3e 3a26 31be
00000140: 2161 3abe bd22 4abe b3a2 463e b311 88be
00000150: ad04 173d 977a 87be 9f6d b43d 76c3 33be
00000160: 6503 0fbe 2cc3 4dbe a73e 91be e2ce 1ebe
00000170: 252e 4dbe c113 753e 1467 103c e8f0 a93d
00000180: e420 373d d0bc 86bd f8ad 963d d9b1 93be
00000190: 8c3a 753e db98 8f3e 5cb0 3d3e 13d7 413e
000001a0: 8a23 89be 17ed 69be 14e7 0e3e eeba 2f3e
000001b0: 3c27 2a3e 128b 1a3e 65db 253d c55f 0f3d
000001c0: 9015 7abe 1ada 973e 6f1d 443e ceaf e7bd
000001d0: 74c2 67be 8a6e 21be f061 f0bb 780d 1fbe
000001e0: a071 803e 97a5 37be b123 3abe 0304 20bd
000001f0: 5163 a63c 5220 1ebe ec69 c3bb 041b f33c
00000200: eeac 9abd d818 6dbe cc90 2d3e f30d 1a3d
00000210: e305 6dbe ec58 8c3e 57c3 51be c515 7ebe
00000220: 591e ba3d ab24 cbbc ef78 9f3d b288 273e
00000230: fe4b d3bd 2231 823d 182e 463e ef2b 6ebe
00000240: f99c 303e 6aca 883e a142 5a3c 7273 d1bd
00000250: 771c 1cbd 0025 b6bd 00c6 64bd 8b3a 403d
00000260: 97c8 5f3d 5cf3 28be 8b37 1abe b5a1 a63d
00000270: 9772 d93d dd3e 5a3e ed85 8cbe fdb4 2bbe
00000280: faf7 e8bd 4fc4 7abe 1641 843e 71e8 2a3d
00000290: 800e b3bd f6af 7fbe 30e7 2dbe 6e92 653e
000002a0: 5d3e 6a3d 2fde 8abe 72da 8dbd 99b2 1bbd
000002b0: 7379 5ebe f03d 593e 8516 033e 44c9 6fbe
000002c0: dfdd e4bd 0fdd 013e 3516 723e f84f cbbd
000002d0: 0e81 26be 5109 913e 89d4 20bd d817 c23d
000002e0: a447 833e fcc2 3ebd a1f8 1f3e 9421 63be
000002f0: c8d5 2cbe 0759 943e 09b8 2a3e 7460 8a3e
00000300: 0881 3e3e ed5b 5e3d 090c 323e 9ba2 4b3e
00000310: 9363 04be cf36 b3bd 4303 6cbd a760 6e3d
00000320: c6c8 e6bd bba6 33be af7f 4fbe 4552 363e
00000330: 4ef2 613e 0454 43be 50da 7e3d 237b 0e3e
00000340: 15a6 3b3d a85a 32be 7e26 d8bd 371f cdba
00000350: ca48 92be 46bd 8fbc 0863 813e 8abd 65be
00000360: b6eb 253c 7b59 68bd 6cc0 5cbe 0f39 4c3e
00000370: b9b8 39be 8c57 9e3d e584 3cbe 09f6 fd3d
00000380: c237 713e befb 00bd e7e6 413b a7db b7bb
00000390: 66f9 b73c e1e4 8a3e bceb 913e dede 253e
000003a0: 1db7 873e 054c eebd 7b30 75be e1c5 173e
000003b0: 6c17 d0bd 0df2 243e d67d 5cbe db64 0c3e
000003c0: 341e e9bd 8b27 12be b828 54bc b105 efbd
000003d0: 4455 33be 41d2 6c3e aa4e ba3d 49a9 c53d
000003e0: 751f 8a3e 3f69 8bbe 55ac 393c 6b68 793e
000003f0: d7bc 15be 185d 8fbe aa42 e13d d4c6 26be
0.29779193 -0.059244376 -0.2634328 0.02513437 0.20463812 -0.12637219 0.1405888 -0.21110412
0.07679547 -0.0842549 -0.2784009 -0.20750152 -0.1740778 -0.0052946126 0.25079885 -0.13372064
-0.20436205 -0.29105437 0.21013965 0.21593204 -0.2580954 -0.040427078 -0.073978156 -0.07614245
0.07738065 -0.032322615 -0.043781046 -0.16443813 -0.2315078 -0.078628935 0.106071934 0.2823141
0.062051043 0.102265894 0.19220117 0.060761634 -0.19752501 0.29260668 -0.022656688 0.23651586
-0.019554984 0.26287356 -0.12128406 -0.07870184 -0.036929917 0.25321782 -0.25320512 0.14611556
-0.07624856 0.15185381 0.25417656 -0.09330956 0.17421181 -0.13346565 -0.29305246 -0.20985815
0.22548635 0.0986077 -0.17169699 -0.23993355 -0.03301389 -0.13515657 -0.03598558 0.04996462
-0.21899514 -0.18393742 0.261678 0.21510713 -0.23704328 0.28253877 -0.1972444 0.29073417
0.13920406 -0.2833185 0.120633215 0.27890885 -0.15014414 0.012682327 0.24748267 -0.17299739
-0.18201114 -0.19739814 0.19398002 -0.26576003 0.036869694 -0.26460716 0.08809971 -0.17555031
-0.13966139 -0.20093983 -0.28368112 -0.15508607 -0.20037134 0.23933317 0.008813638 0.08297902
0.0447091 -0.06578982 0.07357401 -0.28846624 0.23948115 0.28046307 0.18524307 0.189297
-0.26784927 -0.22844349 0.13955337 0.17161152 0.16616529 0.15092114 0.040492434 0.035003442
-0.24422288 0.29658586 0.19151853 -0.11312829 -0.22632772 -0.15764824 -0.007335894 -0.15532482
0.2508669 -0.17934261 -0.18177678 -0.039066326 0.02031103 -0.15442017 -0.0059635546 0.029675968
-0.07552515 -0.23154008 0.16949767 0.03761096 -0.23146777 0.27411592 -0.20484672 -0.24812992
0.090878196 -0.024797758 0.07786738 0.16360739 -0.10317229 0.063570276 0.19353521 -0.23258947
0.1724738 0.2671693 0.01332155 -0.102270976 -0.038113084 -0.08893776 -0.05585289 0.04693083
0.054634657 -0.16499084 -0.1506025 0.08136312 0.106175594 0.21313043 -0.27445927 -0.1676826
-0.11375423 -0.24488948 0.25830907 0.04172558 -0.08743 -0.24969468 -0.16982722 0.2241914
0.05718838 -0.27122638 -0.06926431 -0.03801212 -0.21726017 0.21215034 0.1280156 -0.2341662
-0.11175131 0.12681983 0.23641284 -0.09927362 -0.16260168 0.2832742 -0.03926519 0.09477204
0.25640595 -0.04657267 0.15622188 -0.22180778 -0.16878426 0.28974172 0.16671766 0.27026713
0.18603909 0.054286886 0.17387404 0.19886248 -0.1292861 -0.08750688 -0.057620298 0.058197644
-0.11268763 -0.17544071 -0.20263551 0.17804821 0.22065088 -0.19075018 0.062219918 0.1391416
0.045812685 -0.17417395 -0.10554217 -0.0015649562 -0.2857116 -0.017546307 0.25270867 -0.22435585
0.010126999 -0.05672596 -0.21557778 0.19943641 -0.18136872 0.07731542 -0.1841007 0.12400443
0.23556426 -0.03149008 0.0029587091 -0.0056109014 0.02245779 0.27127746 0.28500164 0.16198298
0.26506892 -0.11635593 -0.23944275 0.14821579 -0.10160717 0.1610796 -0.21532378 0.13710348
-0.11382714 -0.14272897 -0.012949161 -0.116710074 -0.17512995 0.2312708 0.09097035 0.09651429
0.26977125 -0.27228734 0.011332591 0.24356239 -0.14622818 -0.28000712 0.10999043 -0.16286784

fc1.bias f4 [128]
00000000: e40d 813e eb10 813c d718 333e aa77 93bc
00000010: 835b 953e e2ea 033e 07d6 983e aabd 563e
00000020: 7f50 363e 76c3 483e a09d 27be ce53 ee3d
00000030: 2317 a0bd 6448 883e 2ef5 853e 4b7d 943c
00000040: 63ee 173e 7696 1abe f59f 72be 020a 09be
00000050: 2c7b 32bd 5e0b 53be 9f1b 6abd eb84 c43d
00000060: 1a36 503c 9134 143a c481 c5bd c2d7 b13d
00000070: bc0d 4bbe bbfc 2dbe 3d5d 3c3e 9ef4 683e
00000080: 5321 603d 8958 ebbc 6747 61bd b4d2 40be
00000090: 5a52 2dbe b435 c73d 6e31 ee3d c836 d63d
000000a0: 509a 2abe 6113 883e 3b9b 2fbe 5e11 76be
000000b0: 4eb4 d43d a9f9 2f3e e2fb 363e 580f 65be
000000c0: bbe5 383e baee 0bbe 2c1a 303e 3fd0 953d
000000d0: f755 4ebe 5cc8 993e 39c4 b0bd db22 afbd
000000e0: ada9 30be 408b b83d 4794 313e eccc 36be
000000f0: f7eb a33c 5ef8 0bbe c845 3dbd e6bc 873e
00000100: 686f 52be 79e6 263e b170 8cbe fdd8 ce3c
00000110: 5f7d c43d 342a 1f3d 6ea6 2ebe 69b8 4f3d
00000120: 2723 eebd a02a 1c3e 45b0 043d aae4 2fbe
00000130: 0f99 3ebe be10 d83d 7f20 053e 63a6 153e
00000140: b121 f2bb 3850 b83d a970 913e c446 433d
00000150: ad63 59be a9b4 4d3d 7871 0a3e 9561 46be
00000160: 3e28 323e 6ad0 1bbe 7aaa 573e ba8d 5dbd
00000170: 9c3f 72be a39e 873e 18fd 2f3e 521d 40be
00000180: fe9e 2fbe 1a28 36be 41e6 3b3e fee8 633e
00000190: eb71 6c3e 0876 f6bd e0d3 963d 2afb c03b
000001a0: 8c7b 32be 941d 65bd 648a 97be efd5 163d
000001b0: 537a 57be 1832 41be b704 8f3e f74a 803e
000001c0: 1cb4 a9bd 16c5 d3bb d4fa fd3c b65a 34bd
000001d0: 16df 91be 7831 103e 27d9 593e 1b4e 3c3e
000001e0: cd3c a6bd ef42 37be 4c97 45be 562d 47bc
000001f0: 0a2b 93be c0f6 173e eff9 503e ef6f 6bbb
0.2520591 0.015755137 0.17489944 -0.018001396 0.2917138 0.1288257 0.2985079 0.20970789
0.17804144 0.19605812 -0.16368723 0.11637078 -0.07816913 0.2661773 0.2616362 0.01812615
0.14837031 -0.15096459 -0.23693831 -0.13382724 -0.043574497 -0.20609805 -0.057155248 0.095956646
0.012708211 0.0005653585 -0.096438915 0.08683731 -0.19829458 -0.1699094 0.18394943 0.22749564
0.05471928 -0.02872874 -0.054999735 -0.18830377 -0.16925946 0.0972704 0.11630522 0.104596674
-0.16660428 0.26577285 -0.1714906 -0.24030063 0.10385953 0.17185082 0.17869523 -0.22369134
0.18056385 -0.13665286 0.17197484 0.073151104 -0.2014998 0.30035675 -0.086311765 -0.0855157
-0.17252226 0.09010935 0.1734172 -0.17851609 0.020009978 -0.13668963 -0.046209127 0.26511306
-0.2055031 0.16298856 -0.27429727 0.025249952 0.09594225 0.038858607 -0.17055675 0.050712977
-0.116277985 0.15250635 0.032394666 -0.17177072 -0.18613075 0.10550068 0.13000678 0.14614253
-0.0073892702 0.089996755 0.28406265 0.04767491 -0.2122943 0.05022112 0.13519847 -0.19373162
0.17398164 -0.15216222 0.21061125 -0.05409024 -0.23657078 0.26488218 0.17186391 -0.18761185
-0.17150494 -0.17788735 0.18349554 0.22256848 0.23090331 -0.120342314 0.07364631 0.005889316
-0.17429942 -0.05593641 -0.2959777 0.036825117 -0.21042757 -0.18866765 0.27933285 0.25057194
-0.08286306 -0.0064627035 0.031003393 -0.04403182 -0.28490514 0.14081371 0.21274243 0.1838917
-0.081170656 -0.17896627 -0.19295996 -0.012156805 -0.28743774 0.14840221 0.20407842 -0.0035924872

fc2.weight f4 [64, 128]
00000000: 6dab 8bbd 06fa 43bd 59a5 973d 984d b73c
00000010: 3177 683d 7e53 5c3c 0c30 e23b 1aea c3bc
00000020: 34fe 2bbd 3906 2c3d 7ad8 0ebd 0a5f 7dbc
00000030: 930c 94bd 7c7f abbc 96e6 673d 04a5 d13c
00000040: 2d0e 0a3d 9036 52bd 9486 a8bd babf 91bd
00000050: b345 9d3d 3f27 6f3d d085 c73b 59c6 a83d
00000060: b6ba 543d 9a9e ec3c bac3 12bd 6541 6bbd
00000070: 50dd 873d 2a17 423d c40a cbbb 4d6d 913d
00000080: 91a2 87bd 6b49 febc c266 75bb 635a 833d
00000090: 14bb 07bc c7cd a73d 27eb f53c aef6 84bd
000000a0: b437 d339 addb 443c daf0 9d3d 936b 543d
000000b0: a882 213c 4398 593d d658 c33c d5e5 a0bc
000000c0: b22f 0a3c a9f0 843d be4b 5a3d 0411 3a3c
000000d0: ef8f 6f3b fbd9 46bd fc23 3ebb fa2b 2d3d
000000e0: 8168 c4bc f9dc 853d f64d 7abb 9078 163d
000000f0: d86f 463d d948 99bc 8c51 c4bb f8e7 313d
00000100: 232f 4c3d 1067 abbc 7e14 2d3d dfe2 d0bc
00000110: bb51 8cbd a189 773d 0f95 b93c 67bc 78bd
00000120: ba89 803d e3f8 a1bd 429c 943d fbb0 b43c
00000130: 8206 bf3c 0c14 a43d cfa6 303d 4fe7 603d
00000140: 972b e73b fe98 1abd ba1a 12bb 89ed a83d
00000150: 7d9b 453c ea4c 803c 8955 283d e5ea 263c
00000160: 6fe7 8c3d fe79 29bd bcec 8ebd e008 95bb
00000170: f865 743d 8db7 babc 328b 8e3c 5609 f8bc
00000180: a0e8 ff3c 2a49 82bd 6797 51bd 2210 74bd
00000190: 0e6d 533c 5b60 08bd fa7c 88bd 5cf7 8c3c
000001a0: 197a 22bc 6599 543c 88c1 623d 2d04 afbd
000001b0: 3cf2 9b3d 84ae 85bd 23df a3bc 5181 b43d
000001c0: d7e1 03bc 73b4 b73d b474 50bd 8552 a2bb
000001d0: 1178 af3d 93a9 773d 5c9b e53c 20fd b73d
000001e0: 4012 ecbc f7ff 49bd 7a1b a33d 2d6b 9f3c
000001f0: ecda 71bc 1613 253c 8a90 9f3d 64d2 fb3c
00000200: fdfc aabd 4409 27bc 93ac dc3c 11e9 95bd
00000210: 4da1 51bd 1761 93bd 8441 efbc 16a4 9e3d
00000220: 03ab ae3c d8cb f0bc 756c 813d 6600 5b3c
00000230: d59c 463c 1fc1 7cbd fec8 b43d bc59 853b
00000240: b447 8abd 8a0f 98bd aaa5 923c f7e0 a9bc
00000250: 593f 12bd a9e3 5d3d cf4f 53bd 0af1 e13c
00000260: a46b c3bc acf4 613d 0e45 1a3d 036c 433d
00000270: 378c a7bd 5c53 833c 8c93 97bd b1f9 a2bd
00000280: c9db 2dbd 73cb 01bd 64c1 5f3c 6f13 223b
00000290: 03af 46bc 964f 0f3d e8a6 363d 671a 183d
000002a0: 52d2 fdbc cab3 65bd 3444 133d df62 003d
000002b0: 4864 0d3d 041f a83d d3ee 14bd 72ca 64bd
000002c0: 50ed d0b9 6792 013d 221b 91bc e9f4 9f3d
000002d0: 4e61 71bd 7d33 8abd 9600 ed3c aeeb 24bc
000002e0: 9bb1 9b3c 008c 18bd 9d5f 903d 51d1 e9bc
000002f0: 7993 adbd 3d5f 8c3c ccbe a5bd 9bf7 1fbd
00000300: 34c0 653d 09d2 3fbd ba2c f23b e173 3fbd
00000310: 6432 edbc f573 04bd 53f0 683c b657 fa3c
00000320: 702c adbd 86ba df3c cdc2 c03b 4524 013d
00000330: 7f49 ef3c 0c39 603c 3bd1 373d 0974 15bd
00000340: 0566 363d df09 693d 8897 a33d 301a ae3d
00000350: c569 7c3d 2b07 023d bc73 32bd bb27 163c
00000360: 15fa 673d 85a8 0c3d bc08 acbd 7cbe a4bd
00000370: 6705 ed3b 8ea1 5a3d b23a a6bc 6fd7 9bbd
00000380: 2294 c9bc 3422 98bd bde9 40bc c56b 933d
00000390: 58bb a6bd b4fc 023d 725f 7d3d 6761 d5bc
000003a0: 352b 60bd be8a 85bd f324 fc39 eae7 5cbd
000003b0: 509d 843d 68e1 2cbd 4c14 c23c 7592 a1bd
000003c0: a7c1 58bc 4294 b03d b131 3e3d 9878 853d
000003d0: 8866 fc3c d61f ae3d 83eb 8a3d 4f70 6cbd
000003e0: c05a 9ebb 3cd6 ab3d f52a 46bd caf7 5c3d
000003f0: b112 903d e33e 5bbd 65fd 343d cbaf 053d
-0.06819806 -0.047845863 0.074045844 0.022375867 0.056754295 0.01344764 0.0069027003 -0.02391534
-0.041990474 0.041998122 -0.034874417 -0.015464554 -0.07228961 -0.020934813 0.05661639 0.02559138
0.033704925 -0.051321566 -0.08228794 -0.07116647 0.0767931 0.058387037 0.0060889497 0.08240957
0.051935874 0.02888422 -0.03583119 -0.057435412 0.06634009 0.047385372 -0.0061963517 0.071009256
-0.06622804 -0.031040868 -0.0037445282 0.06413724 -0.008284349 0.08193546 0.030019356 -0.06492363
0.00040286558 0.012015265 0.077119544 0.051860403 0.009857811 0.053123724 0.023846071 -0.019640842
0.008434223 0.06491215 0.05329489 0.011356596 0.0036554297 -0.048547726 -0.0029013148 0.042278267
-0.023975613 0.06536288 -0.003819344 0.03673607 0.048446506 -0.018711494 -0.0059911665 0.043434113
0.04984964 -0.020923167 0.04225587 -0.025498806 -0.06851526 0.060433988 0.022654084 -0.06072655
0.06276269 -0.079087995 0.07256366 0.022057047 0.023318533 0.08011636 0.04312783 0.054908093
0.007054757 -0.03774356 -0.0022293762 0.08248431 0.012060997 0.015661675 0.041097198 0.010187839
0.0688008 -0.041376106 -0.06978747 -0.004548177 0.059667557 -0.022792602 0.017400358 -0.03027789
0.031238854 -0.06361611 -0.05116978 -0.059585698 0.012904419 -0.033295017 -0.066644624 0.017207794
-0.009916806 0.012976025 0.055360347 -0.08545718 0.07614562 -0.06527427 -0.02000386 0.08813728
-0.00804945 0.08969965 -0.050892547 -0.0049536848 0.08567823 0.060464453 0.028028183 0.08983827
-0.028817296 -0.049316373 0.07964225 0.019460285 -0.014761668 0.010075351 0.077912405 0.03073997
-0.08349035 -0.01019508 0.026937759 -0.073198445 -0.05117922 -0.07196253 -0.029206045 0.07746141
0.02132178 -0.029394075 0.06319515 0.013366794 0.012122353 -0.061707612 0.08827399 0.004069535
-0.067519575 -0.07424839 0.01790126 -0.020737154 -0.035704944 0.05417219 -0.051589783 0.027580757
-0.023855038 0.055164978 0.037663512 0.04771043 -0.08181041 0.01603096 -0.07401189 -0.07957781
-0.04244593 -0.031688165 0.013656948 0.0024730822 -0.012126687 0.03498801 0.044592768 0.037134554
-0.030984078 -0.056079663 0.035953715 0.03134429 0.034519464 0.08209041 -0.036360573 -0.05585713
-0.00039849663 0.03163376 -0.017713133 0.07810385 -0.058930688 -0.06748102 0.028930943 -0.010065956
0.019005587 -0.03724289 0.07049487 -0.028542193 -0.08475394 0.017135257 -0.08093032 -0.039054494
0.056091502 -0.046831165 0.0073905857 -0.04674137 -0.028954692 -0.032337148 0.014217454 0.030559402
-0.084557414 0.027310621 0.005882597 0.03152873 0.02920985 0.013685476 0.044877272 -0.036487613
0.044530887 0.05689418 0.07987887 0.085010886 0.061624307 0.031745117 -0.043567404 0.009164746
0.05663498 0.0343404 -0.084001034 -0.080441445 0.00723331 0.053376727 -0.02029166 -0.0760945
-0.024606768 -0.07428399 -0.011774478 0.0719829 -0.08141202 0.031979278 0.061858602 -0.026047422
-0.054728705 -0.065206036 0.00048092715 -0.053932108 0.064753175 -0.04220715 0.023691319 -0.078892626
-0.013229764 0.08622028 0.04643411 0.06517142 0.03081061 0.08502166 0.067832015 -0.057724293
-0.0048325956 0.08390471 -0.04838081 0.053947248 0.07034815 -0.05352677 0.04418697 0.032638352

fc2.bias f4 [64]
00000000: 75e4 ab3d bd2a ab3d 73e6 02bd 2b30 873d
00000010: 2260 fc3c 28c4 39bd cc76 f2bb 08d6 0dbb
00000020: 7fc2 2f3d 7e72 633c 9e3d e0bb 0cc6 b73c
00000030: 124c 03bd 9fdf b33d 7663 053d 229f 8e3d
00000040: 540d af3d aa2f 33bd 50b9 74bd cc09 593c
00000050: 554e b33d 1d55 5a3c 4548 703d c159 2fbd
00000060: e731 0a3d 738f a5bb 3706 f13c 0ec2 a8bd
00000070: 5111 9abd 56ae 703d 2780 92bd 3e8b 033c
00000080: 0cf8 12bc 2035 91bd b023 763c 6891 44bd
00000090: 36bd 10bc d61a ca3c fe29 173d 4d71 05bd
000000a0: 390b 143d 9056 80bd 0d70 9e3d fa2a c03c
000000b0: 112e bebc e5da 8f3d a834 e83c 54b6 8e3d
000000c0: c4ea 743d 9e4a 0fbd 4dfa 9cbd b219 a93d
000000d0: bc66 8cbd 9079 f63c 46c2 5b3c 89c6 0abd
000000e0: 9a92 983d 1a54 3abd e052 643c 8555 7cbc
000000f0: 52c7 0a3d dffa a83d 5538 24bd 69a8 40bd
0.08393184 0.08357761 -0.031958055 0.06600984 0.030807558 -0.045353085 -0.0073994156 -0.0021642465
0.042910095 0.0138822775 -0.006843283 0.022433303 -0.03205497 0.08782887 0.032565556 0.06963946
0.08547464 -0.043746628 -0.05974704 0.013246965 0.08755175 0.013325957 0.05866267 -0.042810205
0.033738997 -0.005052501 0.029421909 -0.08240138 -0.07522834 0.05876001 -0.07153349 0.008028803
-0.008970272 -0.07090211 0.015023157 -0.047990233 -0.008834174 0.024671 0.03690528 -0.032578755
0.036143515 -0.062665105 0.07736216 0.023457993 -0.023215326 0.07024173 0.028345421 0.0696837
0.059794202 -0.03498327 -0.076649286 0.08256854 -0.068555325 0.030087262 0.013413018 -0.033880744
0.07449837 -0.04549036 0.013935775 -0.015401249 0.033881493 0.08250975 -0.040092785 -0.04703561

fc3.weight f4 [3, 64]
00000000: 723d 5fbd d236 00be 843c 493d 0f13 903d
00000010: 01b8 19bc 401b c5bd 1b61 a3bd c11c 943d
00000020: c1dd 933d 5b31 e43d c1e6 74bd e0d7 c4bc
00000030: 8467 00be 6bf8 f6bd 7ce4 cc3c dcf4 db3d
00000040: cab3 78bc 1892 aebd 2457 35bd fa75 813c
00000050: b444 193d 9bc6 01bd 40d6 78bd da80 003c
00000060: d91e 44bd 98b5 8fbd 8c7e d3bd 2e44 ea3c
00000070: 7f8f be3d c327 e23d 3ca8 b83d 4642 553c
00000080: 8129 a3bd 27d9 9ebd 383d 913d a55a 213d
00000090: 21aa 4d3d 7d91 c1bd 7ae4 8dbd bc10 c6bc
000000a0: fe4a afbd 0728 85bc 8d8b f5bd ef2b 89bd
000000b0: 66b2 7b3d 47cc e8bd cbae 163c 1e0c b03d
000000c0: 1320 8abb 99f5 ac3d 431d 833b 6595 e13d
000000d0: b9fc 193d 9c99 06bc 712f 9b3b a76b 25bd
000000e0: 224f 893d 351a cb3c b445 eb3d 56dd b3bc
000000f0: ed1e e33d 159a bebc 591d d53d 039d f53d
00000100: 5c74 a93d d831 a93c 1a5b c4bd 54cd f2bd
00000110: 2c41 e5bd 5043 f6bd e83c 2ebd 2165 98bd
00000120: e8c6 dc3d f1e7 1f3c f5e0 bcbd 9c42 e9bd
00000130: d911 043d 61ee 913c b9ad 763d 97a2 5dbc
00000140: bed8 82bd 2084 c73b 30c6 953d 5a2b a13d
00000150: 1ef2 bbbd 0776 b43c b822 fbbd 263d f8bd
00000160: d0a2 dd3c 1895 9c3c a7fd dd3c bf03 40bd
00000170: c1b4 db3d 279e c83d 7046 53bc 0737 943c
00000180: f2bd bb3d 4811 33bb c06e 2b3d dae0 49bd
00000190: a805 97bd f248 babd b820 8ebc 6d2f 9b3c
000001a0: 7c71 e0bd 71ed 90bc c0e8 e0bd 3a6a 203a
000001b0: 4bc5 61bd 78e8 873d ca93 bc3d 21d9 743d
000001c0: 3981 003c e1a9 513c 94e8 2dbd 6bbf e1bd
000001d0: d964 993d 1595 f23d b930 793d 1a85 b33d
000001e0: 8ad7 f03d 8ee8 a33b c318 9dbc 9aa3 b93d
000001f0: d42b 6fbc 24af dfbd e955 a2bc 3c21 003d
00000200: e593 9f3d b8d4 e0bc 83a4 57bc 5668 f73d
00000210: f981 86bd 70a8 473c d88c ebbd dea9 b0bd
00000220: 6f22 4c3d e154 ec3d defa b7bd bc6a 93bd
00000230: b1f3 58bc 83db 833d f24e d0bc 17f9 eb3d
00000240: 8227 c3bd 6e4c c5bd 0301 bfbd 54ba a4bd
00000250: d69d 883d 2440 a63d f533 ea3d 6a05 e63d
00000260: ada4 3abd 221a 8c3d 16b9 c43a db57 08bd
00000270: fbc8 17bd d294 d23d 0245 a43d f3a1 6f3d
00000280: 40e7 ca3d eedb aebd 5c27 e7bc 2e6f 1b3d
00000290: 84b9 f03d b9d1 ba3c ed36 db3d a5bc f7bd
000002a0: 6291 be3d a6a1 eb3c 8ce2 dfbd 2b2f febd
000002b0: d473 12bd e61a bdbd 2db0 9cbd 27db c13d
000002c0: 5d54 a1bd 6d38 bb3c c272 113d 77b9 a73d
000002d0: c50b a9bd 48cc 8abd 55d3 563c 3922 313d
000002e0: b3a2 afbd b5c5 72bd 0ae4 803d 1417 58bd
000002f0: b631 c2bd 8fe6 abbc f2ff 93bd 3ecd 95bd
-0.05450196 -0.12520912 0.049129978 0.07034885 -0.009382249 -0.09624338 -0.07977506 0.07232047
0.072200306 0.11142226 -0.059790377 -0.024028718 -0.12539488 -0.12059101 0.025011294 0.107400626
-0.015179584 -0.08523959 -0.044272557 0.015803326 0.037419036 -0.031683546 -0.0607512 0.007843221
-0.04788098 -0.07017058 -0.10326871 0.028596964 0.093047135 0.1104274 0.09016463 0.013016289
-0.079669006 -0.07756262 0.07091755 0.039393086 0.050211076 -0.09451578 -0.06928344 -0.024177901
-0.085592255 -0.016254438 -0.11989508 -0.06697833 0.06144943 -0.11367088 0.009196947 0.08596061
-0.0042152493 0.084452815 0.004001291 0.11014823 0.03759453 -0.008215334 0.00473588 -0.04038587
0.067045465 0.02479277 0.11487904 -0.021956127 0.11089883 -0.023266831 0.10405988 0.11992838
0.08274147 0.02065365 -0.09587689 -0.118555695 -0.11194071 -0.120245576 -0.042538553 -0.07441164
0.10780126 0.009759889 -0.09222595 -0.11389658 0.032243583 0.017813863 0.06022427 -0.013527534
-0.063889965 0.0060887486 0.07313192 0.07869597 -0.091770396 0.022028936 -0.122624815 -0.12121038
0.027055174 0.019114062 0.02709849 -0.046878573 0.107278354 0.0979579 -0.012895212 0.018092645
0.091670886 -0.0027323533 0.041853666 -0.0492867 -0.07374126 -0.090959445 -0.017349586 0.018943513
-0.109591454 -0.017691346 -0.109818935 0.00061193446 -0.055119794 0.06636137 0.09207876 0.059777383
0.007843309 0.01279685 -0.042458132 -0.11022838 0.07489938 0.118448414 0.06083748 0.087656215
0.11759861 0.005002088 -0.019176846 0.09064408 -0.014597852 -0.10922077 -0.019816356 0.031281695
0.077918805 -0.027445182 -0.013161781 0.120804474 -0.06567759 0.012186155 -0.11501473 -0.086261496
0.049837526 0.11539627 -0.08983396 -0.07198092 -0.013241694 0.06438353 -0.025428269 0.115221195
-0.0952902 -0.096337184 -0.09326365 -0.08043352 0.0667073 0.081177026 0.11435691 0.112315014
-0.045567203 0.06840922 0.0015008773 -0.03328691 -0.037056904 0.102822915 0.08020975 0.058504056
0.09907389 -0.08538042 -0.02821701 0.037947826 0.11754134 0.022805082 0.10703836 -0.12096528
0.09305073 0.028763603 -0.10931882 -0.1241134 -0.035754994 -0.09233646 -0.0765079 0.09465628
-0.07877419 0.022854054 0.035509832 0.081896715 -0.08254198 -0.06777245 0.013111909 0.043245528
-0.08575954 -0.05927058 0.06293495 -0.052756384 -0.09482138 -0.020983962 -0.07226552 -0.073145375

fc3.bias f4 [3]
00000000: db44 74bc 0f23 0a3d c28a 4e3a
-0.014908995 0.03372484 0.0007878953
