weights/tests/agent_pgm_test.pt (torch, 42638 bytes, 6 tensors)

fc1.weight f4 [128, 11]
-0.20132029 0.24217072 -0.24171571 0.076322064 0.26822886 -0.0036253142 0.03240764 0.1746256
0.22635609 -0.21290638 -0.096494 0.17967467 -0.062680915 -0.13547805 -0.11028153 -0.20335124
0.20642208 -0.16033705 -0.11176419 0.27131766 0.12022287 0.2430626 -0.048267253 -0.04155735
-0.009964222 -0.14910395 0.23393996 0.07574689 0.13955641 0.18172103 0.025867175 0.13333012
-0.041486524 0.09211159 -0.023616461 0.07256016 -0.24873343 -0.06746913 0.11971726 0.08523432
-0.19006252 -0.28123462 0.16620456 0.05030397 0.12805116 -0.14468904 0.1581019 0.18127093
-0.11723402 -0.28203332 0.28546077 -0.037165795 -0.25376096 -0.10745121 0.2746475 0.106853664
-0.15702502 -0.033790268 -0.049487602 0.1415046 -0.13361844 0.28675026 -0.020783806 -0.28307498
0.24412706 -0.12682861 -0.28449085 0.26328936 0.17230962 -0.21231854 -0.297039 -0.2564017
0.023556665 -0.048683822 0.28156328 -0.12596484 0.2784554 -0.121065356 -0.25785008 -0.08342114
0.23979641 0.2903528 -0.18244596 -0.019531582 -0.07529821 -0.19620568 0.03454442 0.20343544
0.13510211 0.2708008 -0.22908461 -0.21803999 0.010962709 0.22634715 -0.027809028 -0.11101171
-0.070433676 0.011422346 -0.15764879 0.20536564 -0.033765815 -0.22458585 0.015115857 -0.27014732
-0.15141374 -0.08355946 -0.046535604 -0.032264233 0.07140524 -0.005006619 -0.28473276 0.2840889
-0.21206076 0.15709394 0.042085353 -0.1778071 0.15523545 -0.03177925 0.2992742 -0.14768457
-0.07176764 0.11009513 -0.054608524 -0.21459323 -0.28965214 0.09806306 0.02489692 -0.20377731
0.12689121 -0.09182307 -0.13395867 0.090539895 -0.20369993 -0.03637107 -0.13400339 -0.17479223
-0.29226857 -0.0334144 0.09071358 -0.0443306 -0.037603196 0.02174049 0.05910337 -0.1959196
-0.18841134 -0.13440047 -0.17320007 0.2004945 0.12575018 0.29867056 0.22115171 0.17899628
-0.28075764 -0.15595427 -0.056717727 0.24326971 0.11149547 -0.1537922 0.0753805 0.033735625
0.14451966 -0.091160744 0.104145095 -0.2606607 -0.23264396 0.27154726 0.118813746 -0.033213697
-0.006503596 0.04998262 0.19340777 -0.09312639 0.2067331 -0.06956711 -0.19433063 -0.16810416
-0.17455627 0.041826528 -0.23402555 0.07787398 0.26032838 -0.061328314 -0.25301906 -0.048766654
0.075035505 -0.15958048 -0.083337374 -0.12806591 -0.21886455 0.08278434 -0.047937024 -0.14666347
0.09491991 0.16905443 0.099031456 0.021035573 -0.3007103 0.22636263 -0.15444922 -0.2124574
0.18020679 0.18241778 0.2556295 0.04342559 -0.14441083 0.1996136 0.20841123 0.16163974
-0.023215 0.20495613 0.073407985 0.1637361 0.011360772 -0.28441584 0.23295756 0.13502404
-0.11802653 0.28297907 0.06480641 0.03291872 0.09791813 -0.21793416 0.017578522 0.004199269
0.0051876847 -0.22331092 0.054251347 0.21324599 -0.124919325 0.19199058 -0.048144676 -0.19766773
-0.0023966401 0.23325306 0.068642735 -0.010193206 -0.031126238 -0.11264878 -0.26100546 -0.08587314
-0.17124772 0.17671378 0.2506919 0.29284117 0.036735505 0.2672491 -0.09137056 0.012226709
0.04351845 0.22614673 0.23205644 -0.25338605 0.2511176 -0.1692021 0.19040884 -0.19338568
00000000: e826 4ebe 9afb 773e 5384 77be be4e 9c3d
00000010: 4b55 893e ae96 6dbb e0bd 043d 0ed1 323e
00000020: e4c9 673e 2104 5abe a59e c5bd a3fc 373e
00000030: da5e 80bd c2ba 0abe 48db e1bd 4f3b 50be
00000040: 4f60 533e 652f 24be a0e4 e4bd 26ea 8a3e
00000050: 6837 f63d 67e5 783e e2b3 45bd 0a38 2abd
00000060: fa40 23bc b5ae 18be f58d 6f3e 2f21 9b3d
00000070: e0e7 0e3e 1415 3a3e 66e7 d33c b187 083e
00000080: c6ed 29bd 00a5 bc3d 4f77 c1bc 6c9a 943d
00000090: fab3 7ebe 412d 8abd 532e f53d 558f ae3d
000000a0: c09f 42be fcfd 8fbe 8731 2a3e 890b 4e3d
000000b0: d81f 033e 5d29 14be 77e5 213e 169f 393e
000000c0: 6418 f0bd ac66 90be ea27 923e 293b 18bd
000000d0: f5ec 81be 610f dcbd 999e 8c3e 18d6 da3d
000000e0: 2bcb 20be aa67 0abd 83b3 4abd 95e6 103e
000000f0: 46d3 08be eed0 923e cd42 aabc 34ef 90be
00000100: 72fc 793e 5cdf 01be c9a8 91be ddcd 863e
00000110: ef71 303e 086a 59be 7f15 98be 1547 83be
00000120: e8f9 c03c b068 47bd 1029 903e edfc 00be
00000130: b591 8e3e 1df1 f7bd ed04 84be b4d8 aabd
00000140: 318d 753e 1fa9 943e 1dd3 3abe b200 a0bc
00000150: f335 9abd 24ea 48be 737e 0d3d 6151 503e
00000160: 3558 0a3e 67a6 8a3e 2895 6abe e045 5fbe
00000170: ef9c 333c 8cc7 673e c2cf e3bc 1b5a e3bd
00000180: 883f 90bd cb24 3b3c af6e 21be 5f4b 523e
00000190: 064e 0abd d5f9 65be 80a8 773c c050 8abe
000001a0: 340c 1bbe 3921 abbd 1e9c 3ebd 8027 04bd
000001b0: e93c 923d 900e a4bb 7ec8 91be 1a74 913e
000001c0: 7526 59be 3cdd 203e b161 2c3d 1013 36be
000001d0: 0bf6 1e3e f52a 02bd 783a 993e a03a 17be
000001e0: eafa 92bd 8e79 e13d 30ad 5fbd 54be 5bbe
000001f0: 494d 94be 49d5 c83d a0f4 cb3c 00ab 50be
00000200: c5ef 013e bc0d bcbd 762c 09be fb6c b93d
00000210: b796 50be d5f9 14bd 2f38 09be bcfc 32be
00000220: 3aa4 95be 8add 08bd 0bc8 b93d 0194 35bd
00000230: cf05 1abd 1d19 b23c 6016 723d 269f 48be
00000240: e7ee 40be 47a0 09be 5c5b 31be 6e4e 4d3e
00000250: a8c4 003e 59eb 983e 9875 623e cd4a 373e
00000260: 77bf 8fbe 7ab2 1fbe d950 68bd b21b 793e
00000270: bd57 e43d b47b 1dbe 1761 9a3d 5e2e 0a3d
00000280: f6fc 133e 7cb2 babd 064a d53d 5275 85be
00000290: 383a 6ebe 3e08 8b3e 9f54 f33d 160b 08bd
000002a0: 1e1c d5bb 93ba 4c3d b00c 463e 0cb9 bebd
000002b0: d7b1 533e 3379 8ebd 9cfe 46be 7f23 2cbe
000002c0: e1be 32be 4b52 2b3d 65a4 6fbe 657c 9f3d
000002d0: c349 853e 6633 7bbd b78b 81be 8bbf 47bd
000002e0: 37ac 993d 1169 23be c9ac aabd b623 03be
000002f0: 071e 60be d68a a93d 9d59 44bd f32e 16be
00000300: 5f65 c23d 9b1c 2d3e 01d1 ca3d cb52 ac3c
00000310: b3f6 99be 9bcb 673e f027 1ebe 6f8e 59be
00000320: 2188 383e bacb 3a3e dfe1 823e 08df 313d
00000330: 6fe0 13be 8267 4c3e c169 553e e384 253e
00000340: 622d bebc 05e0 513e ed56 963d 70aa 273e
00000350: 8822 3a3c f49e 91be 6d8c 6e3e be43 0a3e
00000360: e5b7 f1bd a2e2 903e 39b9 843d c8d5 063d
00000370: 4d89 c83d 222a 5fbe d500 903c 069a 893b
00000380: 74fd a93b 9eab 64be a936 5e3d 285d 5a3e
00000390: b4d5 ffbd 2e99 443e 5a33 45bd 6969 4abe
000003a0: f310 1dbb e4d9 6e3e 9094 8c3d 6801 27bc
000003b0: 74fc febc 67b4 e6bd 82a2 85be 42de afbd
000003c0: 905b 2fbe 75f4 343e b05a 803e 47ef 953e
000003d0: f877 163d e0d4 883e 7d20 bbbd 8952 483c
000003e0: 6740 323d 0293 673e 34a0 6d3e d1bb 81be
000003f0: 7c92 803e 5143 2dbe 89fa 423e e506 46be

fc1.bias f4 [128]
-0.22734353 -0.10020856 -0.21059364 -0.008346501 -0.2487445 0.2537166 0.12028289 -0.15650289
0.0195167 0.21645579 -0.21345215 -0.14854431 -0.1956958 0.28726572 -0.17975326 -0.08375277
0.21534394 0.011528201 -0.058558173 -0.20256186 -0.06391349 -0.2599814 0.25543553 -0.100528836
0.027837124 0.089069106 -0.23282558 -0.293039 -0.056879614 0.10991549 0.07399307 -0.002873461
0.12754467 -0.26685038 0.04051309 0.07310801 0.1430845 0.123022795 -0.288114 0.10002238
-0.19850552 0.20231313 -0.2192588 0.061496034 -0.06878253 -0.06876688 0.2335723 0.27606177
0.22320676 -0.22839138 -0.14089979 0.120492965 0.09783466 0.23541227 -0.19593748 -0.27580297
0.14102557 -0.2660539 0.19495215 0.09203291 0.21190389 0.052232854 -0.29885736 0.29670843
0.22880086 0.26999727 0.20874968 -0.13845392 -0.29710525 -0.18388152 0.11494955 0.27900925
-0.011417107 0.037287865 0.026850456 -0.28230473 -0.26678595 -0.22926849 -0.032241814 -0.1563589
0.22661665 0.0007858945 0.05986633 0.055114593 -0.159015 0.1848942 -0.054394294 0.0313337
0.29822204 -0.0036365965 0.23797432 -0.03847781 0.23074734 -0.19183911 -0.24577545 0.25929213
-0.16353354 -0.19951905 -0.14650626 0.11222247 0.103825495 -0.24191053 0.20673794 -0.16414212
-0.007997763 0.26593384 -0.14624567 0.28937897 -0.043545537 -0.20766212 0.01346262 -0.07754899
-0.02235339 -0.09813802 -0.08747606 0.029407363 0.21018302 -0.22406952 -0.26024798 -0.28466433
0.10755183 -0.16201498 0.2456259 -0.1751853 0.031971253 0.25619006 -0.03836321 -0.23989508
00000000: becc 68be 253a cdbd dca5 57be c3bf 08bc
00000010: e1b6 7ebe 24e7 813e e056 f63d 4b42 20be
00000020: 7de1 9f3c 96a6 5d3e 3393 5abe 001c 18be
00000030: 7b64 48be 7e14 933e 3d11 38be 9386 abbd
00000040: 1f83 5c3e c8e0 3c3c b2da 6fbd 606c 4fbe
00000050: 13e5 82bd 481c 85be 72c8 823e 10e2 cdbd
00000060: ae0a e43c dd69 b63d d469 6ebe 3509 96be
00000070: 99fa 68bd 5f1b e13d ae89 973d ad50 3cbb
00000080: 129b 023e 9da0 88be 0ef1 253d a7b9 953d
00000090: be84 123e 60f3 fb3d ae83 93be 89d8 cc3d
000000a0: 0845 4bbe 2c2b 4f3e 6185 60be 44e3 7b3d
000000b0: dbdd 8cbd a6d5 8cbd 942d 6f3e f857 8d3e
000000c0: 5090 643e 6edf 69be 0948 10be 04c5 f63d
000000d0: 8a5d c83d ea0f 713e d6a3 48be 0c36 8dbe
000000e0: 0269 103e 3738 88be 89a1 473e c07b bc3d
000000f0: 55fd 583e 1ef2 553d d503 99be 2bea 973e
00000100: c64a 6a3e 153d 8a3e 7ac2 553e ddc6 0dbe
00000110: 2e1e 98be 704b 3cbe ab6a eb3d 4dda 8e3e
00000120: d10e 3bbc 29bb 183d 7df5 db3c 3f8a 90be
00000130: 2b98 88be 5cc5 6abe fe0f 04bd 8c1c 20be
00000140: 320e 683e 7d04 4e3a 6636 753d d7bf 613d
00000150: d4d4 22be e854 3d3e 8dcc 5ebd c457 003d
00000160: 8fb0 983e f753 6ebb 8aaf 733e e89a 1dbd
00000170: 0849 6c3e 7971 44be 8fac 7bbe f0c1 843e
00000180: 5675 27be b94e 4cbe bd05 16be e5d4 e53d
00000190: 76a2 d43d 65b7 77be 1cb3 533e df14 28be
000001a0: 0d09 03bc 7b28 883e 6dc1 15be 7b29 943e
000001b0: ce5c 32bd 61a5 54be 5292 5c3c 01d2 9ebd
000001c0: 751e b7bc 96fc c8bd a626 b3bd b6e7 f03c
000001d0: 383a 573e 7b72 65be 393f 85be 86bf 91be
000001e0: 2244 dc3d 41e7 25be 5b85 7b3e c663 33be
000001f0: 4af4 023d 582b 833e be22 1dbd 0ea7 75be

fc2.weight f4 [64, 128]
0.0050854282 0.08135714 0.016550034 0.0074111326 0.022524467 -0.06304622 0.03843592 -0.06059894
-0.006122242 0.04031429 -0.013588976 -0.014585097 -0.04381148 -0.05064075 0.07537408 -0.019883977
-0.027508562 -0.07515619 -0.058460098 0.0040283534 -0.043735594 0.08040651 -0.013817709 0.07970353
-0.013789582 0.043048054 -0.03470949 -0.018612511 -0.0033567364 -0.069160074 0.04404725 -0.037116017
0.066998534 -0.008632416 -0.072239555 0.08055316 0.011445461 0.031453904 0.047468193 0.028768245
0.05248664 0.01967625 0.048967145 -0.0020608122 -0.055383176 -0.071040764 -0.014207956 0.0069886637
-0.08195761 0.07033429 -0.015263639 -0.03184994 -0.05812664 -0.04390253 -0.05198325 0.03162542
0.077150166 0.0018714676 -0.0029724874 0.019665118 -0.082068525 0.038831145 0.040040463 -0.049952235
0.051747195 -0.06606316 0.03448082 -0.056799952 -0.049831778 -0.010802827 0.041543208 -0.010945968
0.03640614 0.006413209 -0.086721756 -0.08791034 0.044038136 0.029002668 -0.056770816 0.05049446
-0.022597706 0.014976217 0.039777838 0.03147201 0.017704247 -0.04307468 -0.05551195 -0.082063146
0.009879957 -0.0065476918 0.041478194 0.044174563 0.029809726 -0.009326055 -0.07638691 -0.020962493
-0.08616797 -0.083774656 0.017605275 0.070510946 -0.06793603 -0.025626242 0.089648746 0.04761751
-0.028293632 -0.06337388 0.07361227 -0.035732612 0.0037463068 -0.063508786 -0.059158716 -0.06392602
0.0065400316 -0.050410308 -0.009548862 0.04537013 -0.045162693 0.075935274 0.06204228 0.005349847
-0.053174403 0.007963278 0.05287257 0.07925007 -0.003006608 0.04277717 0.039896898 0.06516402
0.011561424 0.009124202 -0.003492647 -0.06932771 0.06597366 -0.023549736 -0.045785677 -0.025927886
0.05534461 -0.041399732 -0.00028501754 0.008507678 -0.034461677 0.03227431 0.08785847 0.038686708
-0.033669125 -0.057692412 0.033137515 -0.076957755 -0.046667244 -0.049879268 0.056237046 -0.016765518
0.08461927 0.08474185 0.05193612 0.018349547 0.062419455 0.05982073 0.06207646 -0.004239311
0.015156582 -0.007339705 -0.081775494 0.009942665 0.019114465 -0.06979183 -0.079853795 0.029419092
-0.086658575 0.05469888 -0.041871026 0.041963097 -0.083034955 -0.077442646 -0.024703618 -0.030504223
-0.026451763 0.07242761 -0.014263937 0.05242171 0.00081398914 -0.015324596 -0.08510137 0.026191972
-0.05626074 0.038473953 0.032700505 0.01294739 0.026851099 0.0423962 -0.061907407 -0.051079724
-0.051548682 -0.02682391 0.07713067 0.010602186 0.040768847 0.03762192 0.038225707 -0.05733441
-0.0018336921 0.0165401 -0.033322982 0.062463168 0.039556347 0.046773244 0.0029552109 0.01690002
-0.06494107 -0.010610445 0.08752396 0.0046453853 0.07349931 0.027102673 -0.04270385 0.08205134
-0.0667113 -0.0559477 0.0038155268 -0.022215882 -0.007470791 0.03192135 0.00056011055 0.035565104
0.03345493 -0.08750776 0.067661025 -0.06788611 -0.048826195 0.08233371 -0.08716395 -0.070893705
-0.031761434 0.06459115 0.027947512 -0.09004433 -0.0059903306 -0.045607176 0.07745905 0.010885572
-0.0774746 -0.030495832 0.00041755073 0.061469436 0.023492888 0.024411306 0.08750125 -0.0091228895
-0.08140814 0.021606434 0.013355534 0.060219493 -0.0036444499 -0.060619377 0.041309554 -0.04138401
00000000: aaa3 a63b 929e a63d f093 873c 16d9 f23b
00000010: 3b85 b83c 601e 81bd fc6e 1d3d 9836 78bd
00000020: 179d c8bb 9920 253d 4ca4 5ebc 55f6 6ebc
00000030: ab73 33bd ad6c 4fbd ba5d 9a3d b9e3 a2bc
00000040: a359 e1bc 7deb 99bd db73 6fbd 4700 843b
00000050: 1824 33bd 2bac a43d ac63 62bc 9b3b a33d
00000060: b3ed 61bc 2853 303d 8a2b 0ebd 4479 98bc
00000070: b1fc 5bbb cca3 8dbd e46a 343d f706 18bd
00000080: 8736 893d fa6e 0dbc 55f2 93bd 0ef9 a43d
00000090: be85 3b3c cfd5 003d 026e 423d 62ab eb3c
000000a0: 3bfc 563d 1630 a13c c691 483d b10e 07bb
000000b0: 78d9 62bd d27d 91bd 7dc8 68bc 2901 e53b
000000c0: 64d9 a7bd 6d0b 903d 5814 7abc 1575 02bd
000000d0: 3316 6ebd 24d3 33bd 63ec 54bd a889 013d
000000e0: e800 9e3d 084c f53a 10ce 42bb be18 a13c
000000f0: 8b13 a8bd 680d 1f3d 7801 243d b79a 4cbd
00000100: def4 533d 1f4c 87bd c33b 0d3d 11a7 68bd
00000110: 681c 4cbd 57fe 30bc 3629 2a3d b856 33bc
00000120: 9b1e 153d e525 d23b 2d9b b1bd 560a b4bd
00000130: 5561 343d 0197 ed3c 8488 68bd 47d3 4e3d
00000140: d31e b9bc cf5e 753c 16ee 223d cbe8 003d
00000150: 7f08 913c 136f 30bd 8060 63bd b910 a8bd
00000160: 8bdf 213c 058e d6bb 0ae5 293d 63f0 343d
00000170: 8733 f43c 4fcc 18bc be70 9cbd 89b9 abbc
00000180: d578 b0bd 0c92 abbd f038 903c 0b68 903d
00000190: 0c22 8bbd 20ee d1bc c399 b73d 940a 433d
000001a0: 0cc8 e7bc 2aca 81bd 08c2 963d 5c5c 12bd
000001b0: 9984 753b e510 82bd 6950 72bd a5eb 82bd
000001c0: c34d d63b 0a7b 4ebd d572 1cbc 08d6 393d
000001d0: 84fc 38bd f483 9b3d 0c20 7e3d c54d af3b
000001e0: 67cd 59bd 6978 023c e890 583d dc4d a23d
000001f0: 830a 45bb 1d37 2f3d ee6a 233d b774 853d
00000200: 206c 3d3c ad7d 153c e5e4 64bb b0fb 8dbd
00000210: 331d 873d 60eb c0bc c389 3bbd b866 d4bc
00000220: 08b1 623d c492 29bd 686e 95b9 ca63 0b3c
00000230: b027 0dbd 1132 043d 24ef b33d f475 1e3d
00000240: a3e8 09bd e14e 6cbd 34bb 073d 079c 9dbd
00000250: 2726 3fbd 344e 4cbd d158 663d d757 89bc
00000260: de4c ad3d 238d ad3d f8ba 543d ca51 963c
00000270: 8bab 7f3d 9506 753d e343 7e3d ebe9 8abb
00000280: 5053 783c e881 f0bb e979 a7bd 8fe6 223c
00000290: f095 9c3c 05ef 8ebd 638a a3bd 4f00 f13c
000002a0: 0d7a b1bd ef0b 603d f480 2bbd 7fe1 2b3d
000002b0: 3b0e aabd 409a 9ebd 3e5f cabc fee3 f9bc
000002c0: 5eb1 d8bc ed54 943d 4ab3 69bc 26b8 563d
000002d0: e361 553a 0414 7bbc a149 aebd 8c90 d63c
000002e0: a971 66bd dd96 1d3d f7f0 053d 4a21 543c
000002f0: d6f6 db3c a3a7 2d3d 9f92 7dbd f938 51bd
00000300: b624 53bd d1bd dbbc aff6 9d3d cbb4 2d3c
00000310: 3cfd 263d 7119 1a3d 8f92 1c3d 7cd7 6abd
00000320: 7f58 f0ba 1b7f 873c ae7d 08bd 61d9 7f3d
00000330: d605 223d 4d95 3f3d 36ac 413b e971 8a3c
00000340: d3ff 84bd 6fd7 2dbc c33f b33d 5138 983b
00000350: ce86 963d 6d06 de3c 3bea 2ebd 880a a83d
00000360: ef9f 88bd 6a29 65bd eb0d 7a3b 15fe b5bc
00000370: 8acd f4bb f6bf 023d 62d4 123a b7ac 113d
00000380: 0908 093d 4537 b3bd dd91 8a3d df07 8bbd
00000390: fafd 47bd 939e a83d 0383 b2bd b830 91bd
000003a0: 4718 02bd 5d48 843d 2ef2 e43c 2969 b8bd
000003b0: 894a c4bb 97ce 3abd daa2 9e3d 6659 323c
000003c0: 01ab 9ebd 65d2 f9bc b6ea da39 60c7 7b3d
000003d0: 2874 c03c 38fa c73c db33 b33d 2c78 15bc
000003e0: 50b9 a6bd faff b03c 2bd1 5a3c b7a8 763d
000003f0: b9d7 6ebb 064c 78bd 3534 293d 4882 29bd

fc2.bias f4 [64]
-0.011583839 0.0031941128 0.026240632 -0.068496175 -0.0111523755 0.00036355254 -0.03233682 0.016340712
-0.07301685 0.037919227 0.085685894 -0.074219555 -0.026450047 0.054567404 -0.012763724 0.07705265
0.03826135 -0.02404596 -0.024016107 0.019517088 -0.08080419 -0.08943763 0.029376617 0.085308306
0.042061575 -0.029901609 -0.029895134 -0.061926123 0.061048333 -0.053871226 0.06426637 -0.033089682
0.081698336 -0.050740737 0.05614236 -0.059705127 0.046153422 0.052443843 -0.0038025302 0.045461517
-0.06263281 -0.032756135 -0.061693143 -0.030511513 -0.08759745 0.051342987 0.06380617 0.048735783
0.0764953 -0.061187807 0.081597365 0.041257594 -0.010803153 0.031665534 0.07785641 0.08053724
0.056716014 0.034871474 -0.064223066 -0.027338274 -0.019282598 0.069715895 -0.023078531 -0.0022165778
00000000: 24ca 3dbc 5254 513b 98f6 d63c b947 8cbd
00000010: 74b8 36bc 329b be39 9d73 04bd f5dc 853c
00000020: dc89 95bd 3151 1b3d 167c af3d 6c00 98bd
00000030: c5ad d8bc 1282 5f3d f01e 51bc c8cd 9d3d
00000040: efb7 1c3d 08fc c4bc 6dbd c4bc 4de2 9f3c
00000050: ab7c a5bd 132b b7bd 3ba7 f03c 1fb6 ae3d
00000060: c248 2c3d 38f4 f4bc a4e6 f4bc 3fa6 7dbd
00000070: d10d 7a3d 13a8 5cbd 169e 833d 0c89 07bd
00000080: 7551 a73d 85d5 4fbd 88f5 653d 5d8d 74bd
00000090: 5f0b 3d3d 5bcf 563d df33 79bb db35 3a3d
000000a0: a145 80bd 4c2b 06bd f3b1 7cbd 48f3 f9bc
000000b0: 4b66 b3bd 064d 523d cfac 823d 2c9f 473d
000000c0: 91a9 9c3d 11a0 7abd 851c a73d b9fd 283d
000000d0: b5ff 30bc b8b3 013d 2e73 9f3d b5f0 a43d
000000e0: 0d4f 683d 64d5 0e3d 6287 83bd 84f4 dfbc
000000f0: 8af6 9dbc 35c7 8e3d 300f bdbc 0144 11bb

fc3.weight f4 [3, 64]
-0.12334602 0.09365585 0.101438046 -0.05502323 -0.10392774 -0.079138495 0.021320913 0.10803781
-0.073358625 -0.0006057975 -0.02036925 0.050832342 0.05892486 0.0726195 -0.050579432 -0.019072164
0.09195722 0.12516172 -0.09174549 -0.09858474 0.06759098 0.07342276 -0.04902563 0.039236713
0.09017386 -0.077818535 -0.020122897 -0.113202855 0.08766778 0.013577107 0.10406059 -0.099103555
-0.03405487 0.10072701 0.07644902 -0.09557045 -0.067043416 -0.0430322 -0.050130792 -0.10342127
-0.08882415 0.05031077 -0.06512461 0.113651864 0.07398713 -0.05270628 0.0077264803 -0.08931183
-0.121795155 0.027125245 0.054774724 -0.03523898 0.101147935 -0.11758616 0.05986268 -0.043356575
0.0658143 -0.12316813 -0.039305247 0.00325987 -0.047305405 -0.10523962 -0.1007596 -0.03587631
0.050854936 -0.1223595 0.06321173 0.0870788 0.02234592 -0.08333801 0.09599566 0.0725675
0.0065317303 0.110310905 0.063847065 -0.024914844 -0.0020514173 -0.09273714 0.124779426 0.04375554
-0.028217314 -0.051729776 0.014168254 0.10879281 -0.086030945 -0.044325683 -0.120405436 0.034102008
0.0067081125 0.0018355829 -0.055185903 -0.08964728 -0.12382011 -0.09517266 0.11208232 0.12481891
0.003246602 -0.031898957 -0.11740068 0.0766753 0.07251551 -0.028236927 0.111996956 -0.006752863
-0.056494277 0.087821156 0.10877179 -0.052193683 -0.06704447 0.05866785 0.09068556 -0.027664848
0.019743938 0.012983321 0.0043380456 0.09767582 0.08555991 -0.10382598 -0.11537007 -0.029111866
0.113092124 -0.06417467 -0.06808814 -0.12140002 -0.013909308 -0.041984666 -0.00017393206 0.015917305
0.10728457 0.03306246 -0.08449409 0.03853848 0.07815156 0.040692106 -0.05371578 0.039069235
0.03294164 -0.11401963 -0.106134176 0.05746454 -0.10924696 0.104949735 -0.032343604 0.090959534
0.033078674 -0.033157468 0.050843667 0.081932664 -0.009631975 -0.017928533 -0.060307004 -0.065737434
0.024438333 -0.03608605 -0.037660867 -0.080255896 0.04662019 0.0014864639 0.051683355 -0.047631253
0.09154907 0.08943578 -0.114743374 0.11754777 -0.06897633 0.11249221 0.020585386 -0.11246633
-0.069188915 0.06765078 0.10755305 0.08184824 0.07004264 -0.08031077 0.09081619 -0.049171943
-0.107849434 -0.022465726 0.05680129 -0.037908684 0.06677944 -0.09320502 0.07670493 0.0675184
0.015305185 0.11066478 -0.083465815 0.11595556 0.04714654 -0.10939355 0.11439057 -0.1022195
00000000: d79c fcbd a3ce bf3d c0be cf3d 0a60 61bd
00000010: 11d8 d4bd 5d13 a2bd 32a9 ae3c ed42 dd3d
00000020: 0c3d 96bd 62ce 1eba 6add a6bc 9335 503d
00000030: 325b 713d 88b9 943d 612c 4fbd 3a3d 9cbc
00000040: 1154 bc3d 652a 003e 0fe5 bbbd cce6 c9bd
00000050: 246d 8a3d ac5e 963d 19cf 48bd adb6 203d
00000060: 13ad b83d 535f 9fbd c6d8 a4bc e6d6 e7bd
00000070: 2a8b b33d 8472 5e3c b81d d53d cef6 cabd
00000080: 1f7d 0bbd f649 ce3d 4e91 9c3d 71ba c3bd
00000090: 0f4e 89bd 8842 30bd f255 4dbd 88ce d3bd
000000a0: 70e9 b5bd aa12 4e3d 0d60 85bd 4fc2 e83d
000000b0: 9086 973d 8ae2 57bd 6a2e fd3b 1fe9 b6bd
000000c0: bd6f f9bd c335 de3c 765b 603d c056 10bd
000000d0: a626 cf3d 03d1 f0bd 9232 753d aa96 31bd
000000e0: a6c9 863d 933f fcbd 8afe 20bd 8ba3 553b
000000f0: 50c3 41bd df87 d7bd 0d5b cebd 0af3 12bd
00000100: 444d 503d 9e97 fabd 2775 813d 5f56 b23d
00000110: ca0e b73c 1ead aabd 5f99 c43d 459e 943d
00000120: 2008 d63b afea e13d 40c2 823d 371a ccbc
00000130: 1271 06bb f8ec bdbd 5b8c ff3d 0239 333d
00000140: ff27 e7bc 9ae2 53bd f721 683c c4ce de3d
00000150: fe30 b0bd d98e 35bd 2097 f6bd 8cae 0b3d
00000160: bacf db3b f197 f03a 9d0a 62bd fe98 b7bd
00000170: 6695 fdbd e2e9 c2bd 6a8b e53d 0fa1 ff3d
00000180: f1c4 543b 7ba8 02bd c56f f0bd f107 9d3d
00000190: 0383 943d 2151 e7bc a95e e53d 1f47 ddbb
000001a0: 8b66 67bd 94db b33d bfc3 de3d 0bc9 55bd
000001b0: 9c4e 89bd b34d 703d 5ab9 b93d 64a1 e2bc
000001c0: 0abe a13c ffb7 543c 2a26 8e3b 430a c83d
000001d0: 093a af3d b7a2 d4bd 2547 ecbd 027c eebc
000001e0: d89c e73d 026e 83bd cb71 8bbd 93a0 f8bd
000001f0: dee3 63bc 1df8 2bbd 8861 36b9 0265 823c
00000200: 03b8 db3d 816c 073d 3d0b adbd 86da 1d3d
00000210: ed0d a03d c4ac 263d 1405 5cbd 1007 203d
00000220: d0ed 063d 2083 e9bd e05c d9bd f05f 6b3d
00000230: dfbc dfbd e3ef d63d ba7a 04bd fe48 ba3d
00000240: 817d 073d 20d0 07bd 7341 503d 50cc a73d
00000250: 6ecf 1dbc dcde 92bc 7a04 77bd 59a1 86bd
00000260: e632 c83c f7ce 13bd 4842 1abd 345d a4bd
00000270: d0f4 3e3d 74d5 c23a edb1 533d fd18 43bd
00000280: 147e bb3d 1b2a b73d 93fe eabd e3bc f03d
00000290: 7643 8dbd 5162 e63d afa2 a83c bf54 e6bd
000002a0: ebb2 8dbd 7e8c 8a3d c644 dc3d 0da0 a73d
000002b0: 8472 8f3d f979 a4bd d7fd b93d 8568 49bd
000002c0: 2ae0 dcbd 0b0a b8bc 78a8 683d 2346 1bbd
000002d0: a9c3 883d 46e2 bebd 7917 9d3d 1647 8a3d
000002e0: 99c2 7a3c 37a4 e23d 20f0 aabd 1c7a ed3d
000002f0: bb1c 413d ba09 e0bd 9a45 ea3d 7558 d1bd

fc3.bias f4 [3]
-0.05889753 0.10758436 0.03586494
00000000: 893e 71bd 3055 dc3d 1ee7 123d
