weights/tests/agent_ppo_test.pt (torch, 42638 bytes, 6 tensors)

fc1.weight f4 [128, 11]
000000 cd a5 19 3e 5d 69 75 3e 27 0d 97 3e ef 45 88 3e
       0.15004654 0.23965974 0.29502222 0.26615855
000010 46 3e 75 be 3b c6 2d bd 72 83 18 3e 49 b1 75 be
       -0.23949537 -0.042425375 0.14893892 -0.2399341
000020 31 46 25 3e f8 34 c9 3d ce 23 43 be 03 53 f8 bd
       0.16140057 0.09824556 -0.19056627 -0.12125208
000030 ed 8d 90 be 19 00 37 3e b3 5e b0 3d 9e 7c c8 bc
       -0.2823328 0.17871131 0.086118124 -0.024473485
000040 a7 a2 8c 3e d9 11 97 be 81 0c a5 bd b0 43 9c bc
       0.27467844 -0.29505804 -0.080590256 -0.019075245
000050 4e 78 c0 3c 96 b3 32 be 85 e6 96 be f5 8f 70 be
       0.023494866 -0.17451319 -0.29472747 -0.23492415
000060 bc 5b ab 3d dd 37 90 be 9a 11 6d 3d 36 83 46 bd
       0.08367106 -0.2816762 0.057878114 -0.048464976
000070 fb 85 6c 3c 6e 86 24 be 5e ac 46 3e 68 8a 92 be
       0.01443624 -0.16066906 0.1940169 -0.2862122
000080 2c 69 40 be 80 08 13 be c8 31 1f 3c 61 ff c9 bd
       -0.1879012 -0.14358711 0.009716459 -0.09863163
000090 22 7e 4d 3d 46 2b 0e be 7b 77 2d be 51 61 50 be
       0.050169118 -0.13883695 -0.1694011 -0.20349623
0000a0 7b 54 f6 3d 4e 61 49 be 58 a7 c2 bd 6b 5c e5 3d
       0.12027832 -0.19666025 -0.095045745 0.11199268
0000b0 de c6 e2 3d 7d 23 25 be 75 26 ce bd a3 1d 5e bd
       0.11073087 -0.16126819 -0.10065929 -0.054227483
0000c0 4d a7 3c 3e 54 65 dc 3d 75 c5 25 3e c7 cd 99 3e
       0.18423195 0.10761514 0.16188605 0.30039808
0000d0 19 0d 1f be 27 da 9d bd 70 c6 5a 3e e7 b4 33 3d
       -0.1553234 -0.07707625 0.2136476 0.043873694
0000e0 bd 57 0f 3c 8d 6f 70 3e d2 91 f0 bd d9 eb 20 be
       0.008748946 0.23480053 -0.11746563 -0.15714969
0000f0 21 9a d2 bd a4 26 91 bb d9 15 22 3e 18 bc 94 be
       -0.10283304 -0.004429655 0.15828647 -0.29049754
000100 22 b4 48 3e 2c 6f 0a 3e e4 bc 00 bd c1 9a 8f 3e
       0.19599965 0.13518971 -0.03143014 0.28047755
000110 b1 e9 7d 3e 78 e1 ff 3d 8f 31 89 be a9 c3 6e 3e
       0.24796177 0.124941766 -0.26795623 0.23316826
000120 c6 33 26 3c 64 ca 8b 3e 66 b6 8d be 5d 1b 8a 3e
       0.01014418 0.2730285 -0.2767822 0.26974002
000130 e7 fc 0e be 52 cb e2 3d 73 52 33 be 7d 27 93 3e
       -0.13963662 0.110739365 -0.1751192 0.28741065
000140 07 88 91 3d 10 8e f7 3d e8 67 5e be 21 7b b3 bd
       0.07106023 0.12087643 -0.21719325 -0.08763719
000150 75 2a 86 be fb 41 8a 3e 54 08 9b bc 41 e4 82 be
       -0.26204267 0.27003464 -0.01892487 -0.2556477
000160 95 d0 66 be 1f 75 3c 3e 81 5d a3 bd d4 51 af 3d
       -0.22540505 0.18404053 -0.07976819 0.08560529
000170 a5 b7 8d be 2f 5c 8d be 83 2c 0c 3e a6 c1 35 3e
       -0.27679172 -0.27609393 0.13688855 0.17749652
000180 29 40 8e bd 36 28 a1 3d 8b 0e 82 3e 5e 77 2e bd
       -0.06945831 0.07868998 0.2540172 -0.042594306
000190 0e 71 f2 bd 35 c3 41 3e 41 4a 48 3e ca 8e 83 3b
       -0.1183797 0.18922122 0.19559576 0.0040148245
0001a0 90 67 15 be 81 d3 99 bc af 65 61 3d 53 e1 55 3e
       -0.14590287 -0.01877761 0.055028614 0.20886736
0001b0 5e 1f 49 be be f5 46 3b ae d5 c9 3c e0 f7 41 3e
       -0.19640872 0.0030358876 0.024638023 0.18942213
0001c0 a3 3d 2a be c8 8b e2 bd c2 54 06 3e 4e 3d 9b 3c
       -0.16625075 -0.110618174 0.1311827 0.01895013
0001d0 b0 b9 33 be db 41 f6 3d ef 57 4e bd 2a 59 94 ba
       -0.17551303 0.1202428 -0.05037683 -0.0011318077
0001e0 83 3f 0d be 48 0c 4d 3e 03 05 84 3b 0f eb 60 3e
       -0.13793759 0.20024216 0.0040289178 0.21964668
0001f0 0a f6 af 3c 7b bb 43 be cc 28 8c be 8d 2d 45 3e
       0.021479625 -0.19114487 -0.27374876 0.19255657
000200 f7 dd 99 3d 40 8e 12 bc ad 37 89 3e 74 82 0f 3e
       0.075130396 -0.008945048 0.2680029 0.14014608
000210 14 5b 31 be ef 59 84 be ad e0 51 3e 7d 10 55 be
       -0.173199 -0.25849864 0.20495863 -0.20807071
000220 43 95 2a be 59 c3 cb 3d e4 fa 02 3e 7a 73 85 3c
       -0.16658501 0.09949369 0.1279102 0.016290415
000230 d1 f3 18 be 14 53 93 bd b9 da 2f 3e 11 85 90 3e
       -0.14936759 -0.0719358 0.1717328 0.28226522
000240 d2 96 f2 bc 8c df 82 3d 1c fd 83 3e 1f 22 10 3d
       -0.029612932 0.063902944 0.25779045 0.03518879
000250 00 07 1a bd e1 d7 7a 3e d3 51 7f 3c d0 27 50 3e
       -0.037604332 0.24496414 0.015583473 0.20327687
000260 91 42 1c be 6d 3c 89 3e 2f b4 f4 bd b8 e4 41 be
       -0.15259768 0.26803914 -0.1194843 -0.18934906
000270 9e 5a 40 be f6 f4 de bd 23 d8 c7 3a 1c ac 95 be
       -0.18784568 -0.10886566 0.0015246909 -0.29232872
000280 f5 35 fe 3c e3 00 3c 3e d1 b9 28 3e b8 02 58 be
       0.031031588 0.18359713 0.16477133 -0.21094787
000290 a3 e9 1f be 6c 31 90 3e 84 a1 6f be d8 16 1f be
       -0.15616469 0.28162706 -0.23401457 -0.15536058
0002a0 c7 df 91 3e 18 5c d4 bd 96 8d 3d be b7 5a b6 bd
       0.2849104 -0.10369128 -0.18511042 -0.08904021
0002b0 cb 95 8f 3e 2d 96 41 bd d4 e9 89 3e cc ba eb bd
       0.2804397 -0.04726236 0.2693621 -0.11510238
0002c0 48 c0 60 3e f7 22 39 3e e6 15 bd 3d 1f 6f 27 3e
       0.2194835 0.18079744 0.092326924 0.16350983
0002d0 f4 0f 67 3e 17 26 1a be e1 c4 8c bd 9b f0 56 3e
       0.2256468 -0.15053593 -0.06873489 0.20990221
0002e0 89 84 48 3d ed 9d 32 be d0 56 86 be bd ac 14 3e
       0.04895452 -0.17443056 -0.26238108 0.1451902
0002f0 91 e6 4a 3c c6 04 41 3d c5 4b 8c bb 9b 9b af bd
       0.012384073 0.047123693 -0.0042814934 -0.08574601
000300 d1 3f 39 3d ea 9d 76 bd 01 eb a0 bd 73 cf 66 3e
       0.045226876 -0.060209192 -0.078573234 0.22540073
000310 e9 30 27 be 78 8e 93 be c9 ed 76 3e 91 ee 33 3d
       -0.16327251 -0.28819633 0.24114145 0.043928687
000320 b5 a7 09 3d 19 58 2f 3e 50 0c 82 bc ab 67 85 3e
       0.033607204 0.1712345 -0.015875012 0.26055655
000330 c3 2c 53 bd 63 30 1c be 88 34 ab bc 52 ff 5f 3e
       -0.05155636 -0.15252833 -0.020899072 0.2187474
000340 23 ac 64 3d cd 97 3f be c9 65 4c bc 99 ee 60 3e
       0.055828225 -0.18710251 -0.012475439 0.21966018
000350 c8 f4 2a bd cc 96 8b 3e 73 25 85 bd 0f 90 ce bd
       -0.041737348 0.27263486 -0.065012835 -0.10086071
000360 62 4a 16 3d 4a 6d 17 3e 8d 90 80 3e 15 3e a8 bd
       0.03669203 0.14787784 0.25110283 -0.08214966
000370 ac 92 df bd d2 17 b5 3d 0c 98 90 be 34 df 57 3e
       -0.10916647 0.08842434 -0.28241003 0.21081239
000380 37 f1 e0 bd d0 f1 c7 3c 6a fa 54 3e 9a b0 19 3e
       -0.10983508 0.024407297 0.2079865 0.15008774
000390 df 57 e1 3d 20 27 86 bd 8b 1d 7d be 5d 51 92 be
       0.11003088 -0.06550431 -0.24718301 -0.285777
0003a0 49 4a 80 be ca 33 1a 3e 2b f7 95 be f3 0d 99 be
       -0.25056675 0.15058818 -0.29290137 -0.29893455
0003b0 8a 4c f1 bc 05 ef 64 be 12 fa 95 bb 37 50 9b bc
       -0.029455442 -0.22356804 -0.00457693 -0.018959148
0003c0 a6 3d 99 3e dd 15 42 3e 11 0f 05 3e cb b9 c2 bd
       0.29929847 0.18953653 0.12994029 -0.095080934
0003d0 d4 56 1f bd dc c6 38 3e 00 9a 11 3e c0 e0 49 be
       -0.038901165 0.18044609 0.14218903 -0.19714642
0003e0 c9 0d 89 3e d2 16 da bd a7 b8 14 be 18 b4 1b be
       0.2676833 -0.10648884 -0.14523564 -0.15205419
0003f0 45 84 84 be f9 d5 d1 3c 3d eb dc 3c 1c 1b 91 be
       -0.25882164 0.025614725 0.02696764 -0.28340995

fc1.bias f4 [128]
000000 99 6f 10 3e 04 85 3f b9 53 df 83 3d 95 fa c1 3d
       0.14105071 -0.00018264732 0.0643908 0.09471623
000010 4b 2b 98 bd 68 f6 83 be ca 59 98 be 5e af c2 3d
       -0.074301325 -0.2577393 -0.29756004 0.09506105
000020 a2 d7 0f 3e 1d 62 42 be 5d 78 9f bd ba f0 78 bd
       0.14047101 -0.1898274 -0.07786629 -0.06077645
000030 75 72 fb 3d 99 1e 65 be b2 8a 81 3d fe 76 06 be
       0.1227769 -0.22374953 0.06325282 -0.1313133
000040 90 03 1e 3d 56 32 44 be 8a 7a a9 3d 78 37 51 3e
       0.038577616 -0.19159827 0.082753256 0.20431316
000050 0c c1 48 3e 85 31 c6 3d d8 6a f6 bb 36 34 64 3d
       0.19604892 0.09677414 -0.007520061 0.055713855
000060 f3 1e c3 bd 2e a9 94 3e e6 9f 4f 3e eb 94 9a 3e
       -0.095273875 0.29035324 0.2027584 0.3019174
000070 bb 9b 40 be 2a 3d 8c be b6 c2 ba bd 8e b9 1f be
       -0.18809406 -0.27390414 -0.091191694 -0.15598127
000080 88 be 06 be 37 ea 89 be 47 bb 2c bd 45 23 40 be
       -0.1315862 -0.26936504 -0.04217079 -0.18763454
000090 84 90 e9 bd 29 3e 45 3e 11 b3 1d 3e d1 0e c9 bd
       -0.11404517 0.19261993 0.1540034 -0.09817279
0000a0 be d7 d4 bd a6 cf 27 3e 60 7c 1b 3d b1 58 2d be
       -0.10392712 0.16387805 0.03796041 -0.16928364
0000b0 12 79 7f be 5c e4 05 bd f5 df 5b 3e 4e fd ca 3d
       -0.24948528 -0.032688484 0.21472152 0.09911595
0000c0 6b f3 50 3d 25 36 01 3e f1 4d ed bd dc 4c 16 bd
       0.05101339 0.12618311 -0.11587132 -0.036694393
0000d0 20 a0 87 3e 52 c6 5b 3d bc 72 c5 bd 08 2b b1 bd
       0.26489353 0.05365593 -0.096410245 -0.08650786
0000e0 b9 e0 26 3c a8 14 07 3e 3a e2 39 3e 32 1f 31 be
       0.010185414 0.13191473 0.18152705 -0.17297056
0000f0 bb 41 68 3e b6 bc 92 be c4 22 96 3e 09 d7 08 be
       0.22681324 -0.286596 0.293234 -0.1336328
000100 72 8f 2a be 64 e9 5d 3e 96 10 6f 3e d3 71 e3 3c
       -0.16656283 0.21671063 0.23346171 0.027764237
000110 f2 8f 8f be 9e 03 db bd ec 35 2f 3e ef fb 4d 3e
       -0.2803951 -0.10694049 0.17110413 0.20115636
000120 e2 e1 c1 3c 05 25 86 3e 9c 22 e2 bd 4d a1 88 be
       0.02366728 0.2620012 -0.110417575 -0.26685563
000130 e1 98 0d be 24 2a 7b 3e a2 8a df bc 76 15 a1 bd
       -0.1382785 0.24527794 -0.027287785 -0.078654215
000140 14 60 80 3e e3 ac d9 bd 6b 05 1d be 44 49 32 be
       0.25073302 -0.10628679 -0.15334098 -0.17410761
000150 8d 52 ca bd f0 a2 d7 3d 7e 93 09 3e af a1 bc 3d
       -0.098790266 0.10529125 0.1343517 0.09210526
000160 2a 26 94 3e 19 0a 87 bc 81 1b 88 be 68 2f 28 bd
       0.28935367 -0.016484307 -0.26583484 -0.041060835
000170 a0 de 56 bd ad 27 01 3d b7 b1 6e 3e 7b 87 70 3e
       -0.052458405 0.03153198 0.2330998 0.23489182
000180 bc 04 bb 3c b3 96 82 be da 33 e5 bd 59 b5 53 3e
       0.022829406 -0.255056 -0.111915305 0.20674647
000190 ed 85 89 3e 73 2b 22 3e 97 99 8c 3e 94 af 81 3e
       0.2685999 0.15836887 0.2746093 0.25329268
0001a0 e1 b9 48 3e e9 cd 17 be 0c c5 95 be 38 9d 15 3d
       0.19602157 -0.14824642 -0.29251897 0.03652689
0001b0 0c 8b 85 bd 32 14 2d be 73 f3 b7 bd 31 5a 76 bd
       -0.06520662 -0.16902235 -0.08981981 -0.060144607
0001c0 4c 39 96 bd 0e fb ae 3d 48 eb 13 bc 83 63 52 bd
       -0.07335147 0.08543979 -0.009028263 -0.051364433
0001d0 79 9e 39 be e8 91 3e bb 3b 28 d7 bc 5d cd 66 3e
       -0.18126859 -0.0029078666 -0.0262643 0.22539277
0001e0 25 e0 33 be 3e 7c 20 bc 2a 92 ad 3d fa 7d a4 3d
       -0.17565973 -0.009795247 0.08475144 0.080318406
0001f0 bb 4f 1a be 8c 55 e9 bd 2f ba 75 3e 73 ac 6e be
       -0.15069477 -0.1139327 0.23996805 -0.23307972

fc2.weight f4 [64, 128]
000000 85 15 11 3a 3d b9 21 bd 9e 04 19 3d 75 39 4b 3c
       0.00055345177 -0.039483298 0.03735792 0.012403836
000010 80 d7 3f 3d 5b 21 bb bc 13 25 76 bc 2a e2 ab bc
       0.046836376 -0.022843054 -0.015023488 -0.020981867
000020 47 91 80 3d 3e dc 85 3c 92 bc 59 bd 9b 45 05 3c
       0.062777095 0.016340371 -0.05315835 0.008134271
000030 ab 76 ab bd ce b3 32 3c 22 c9 85 bd 3a ab 8a bd
       -0.083722435 0.010907127 -0.06532504 -0.0677094
000040 28 1d 9b bd 00 e8 f6 3c f4 16 a1 3d de 04 ea 3c
       -0.075739205 0.030139923 0.07865706 0.028566774
000050 9a 67 b0 3d 18 ef 6d 3d 59 fa 04 bd ae dc 87 3c
       0.086135104 0.058089346 -0.032465313 0.01658472
000060 ce 2c 4d 3d 03 10 82 bc b7 ab 16 3d d2 1a 9d bb
       0.050091557 -0.015876776 0.036784854 -0.004794457
000070 db 39 af 3c a6 b2 6d bd 3f 7f c8 3c b1 35 22 bd
       0.021389892 -0.0580317 0.024474738 -0.039601985
000080 5b 92 e3 3c be 54 5f bd f5 00 30 3d 5f 44 99 bd
       0.027779749 -0.054524176 0.042969663 -0.07483744
000090 b3 15 68 3d aa a0 9e bd ab c7 5f 3d cb 24 73 bd
       0.05666132 -0.07745488 0.054633778 -0.05936126
0000a0 0b 5c f5 bc 10 75 28 3d 25 3a 13 3d 13 fb 0d 3d
       -0.029951116 0.041127264 0.035944123 0.03466327
0000b0 f0 4d b0 3d 5f 71 88 3d 02 ee 19 3d bd ea af 3b
       0.086086154 0.06662249 0.037580498 0.005368559
0000c0 3c 26 80 3d 60 87 40 3c 7b 3a 59 bd 46 2b 95 3d
       0.06257293 0.011751026 -0.053034287 0.072836444
0000d0 66 4c 11 3d c6 30 ef bb e3 5d 84 3d e2 57 0e bd
       0.03547325 -0.0072995154 0.0646322 -0.03475178
0000e0 8a a3 06 3d 1b bb 94 bd fd 30 18 3d 66 81 02 bc
       0.032870807 -0.0726225 0.037156094 -0.007965421
0000f0 8c 93 8f bd ba 8b 08 bd 0a 97 74 bd ee 58 ae bc
       -0.07010564 -0.03333638 -0.059714355 -0.02128264
000100 db 74 44 3d ec 38 26 3d 76 51 5a 3d ae fd c5 bc
       0.047963005 0.04058163 0.053300343 -0.024168815
000110 c9 e6 29 3c d1 7c 1b bd c7 61 91 bd 64 ed 96 3d
       0.010369965 -0.03796083 -0.07098728 0.073694974
000120 29 cc b1 3d a8 97 3c bd 5c 4f 19 bd 3c c6 60 3d
       0.086815186 -0.04604307 -0.0374292 0.05487655
000130 50 28 18 3d b2 10 b4 3c 58 4d 83 bb 37 14 8f 3d
       0.03714782 0.021980617 -0.004007023 0.069862776
000140 a3 df 83 bd 8b 56 8c 3d e2 f0 7c 3d 21 8a 27 bc
       -0.0643914 0.06852444 0.06175316 -0.010225804
000150 19 a6 98 bd f9 f0 85 3d a1 02 8d bb da eb 89 3d
       -0.074535556 0.065401025 -0.004303292 0.06734438
000160 42 70 58 bd 8a da 85 bd 97 ff 02 3d 28 3f a3 3b
       -0.052841432 -0.06535824 0.03198203 0.004981894
000170 00 a4 ab bd 93 a1 9b 3d 2e 67 af 3c 33 7c 80 3d
       -0.0838089 0.07599177 0.021411505 0.06273689
000180 5e ad 23 3c 3b 30 61 bd 5b d0 08 3d 8d 71 dc 3a
       0.009990064 -0.054977637 0.03340183 0.0016818509
000190 77 0f 9a bc bb a4 87 3c 12 e6 a2 bc 4d c2 2b bd
       -0.018806202 0.016558042 -0.019885097 -0.041933347
0001a0 c2 25 25 3d 0b 5a 4e 3d 2d a3 38 bd 16 a0 4f 3d
       0.04031921 0.05037884 -0.04507749 0.05068978
0001b0 fe 1c 8f bd a1 f9 2b bd 9d 69 b7 3d 6a 1a db ba
       -0.06987952 -0.04198611 0.08955691 -0.0016716246
0001c0 60 cb 5a bd 08 44 28 3c f3 62 8e bd 23 a6 81 bc
       -0.05341661 0.010270126 -0.06952467 -0.01582629
0001d0 4f 1f 32 bd ef 0a a1 3d 48 99 7b 3d 97 f2 6e 3d
       -0.04348689 0.078634135 0.061425477 0.05833682
0001e0 1f 74 96 bd 2e b8 9b 3d 5b 98 48 3d 02 04 5d bd
       -0.07346367 0.07603489 0.048973422 -0.0539589
0001f0 40 22 d8 3b 8f 6c e1 3c e2 41 70 3d 7a f5 08 bc
       0.00659588 0.027517585 0.05865658 -0.008359307
000200 3a 19 58 3b b2 a8 a0 bd 7c f1 9c bd 9c 5e 69 bd
       0.003297402 -0.07844676 -0.07663247 -0.056974992
000210 53 cb 11 3d f7 92 bd 3c dd 4d 9a 3d d2 5f 82 bd
       0.035594296 0.023141367 0.075343825 -0.063659325
000220 74 80 73 39 59 c4 20 3c 85 8a 2e 3d 1e 42 00 3d
       0.00023222138 0.009812438 0.04261257 0.031313054
000230 99 f2 8d bd fc f2 85 3d eb ed 6a bc 06 8d 56 bd
       -0.069310375 0.06540486 -0.014338951 -0.052380584
000240 58 16 b8 bc 98 b0 a6 bd 0b fb bb bc 14 77 91 bd
       -0.022471592 -0.08139151 -0.022946855 -0.071027905
000250 34 54 fb bb b3 4b 6d bd f5 dc 2f 3d 12 89 b0 bd
       -0.00766995 -0.05793352 0.04293533 -0.08619894
000260 01 a1 fe 3c e5 57 29 bd 62 8b fe bc 3a 5c 02 bd
       0.031082632 -0.04134359 -0.031072322 -0.031826235
000270 e4 7e 73 bd 6c ef a2 bd 47 d1 7b 3d 50 da 8d bd
       -0.059447184 -0.07955822 0.06147888 -0.069264054
000280 e2 4a 36 bc 8e 4f 3c 3d 5d c8 ad bd 9b 7c 8e 3d
       -0.011126252 0.045974307 -0.08485482 0.0695736
000290 e0 16 98 3d 06 41 13 3d ad b4 9f bd d0 b8 fa bc
       0.07426238 0.035950683 -0.07798133 -0.030605704
0002a0 fc 62 7f 3d ae 4d 95 bd 17 5f 72 ba 1e 6f 88 bc
       0.06235026 -0.07290207 -0.0009245737 -0.016654547
0002b0 94 a8 c0 bc b1 36 61 bd 55 5e 93 bc 4d 3d 88 bc
       -0.023517884 -0.0549838 -0.017989317 -0.016630793
0002c0 2b f6 d5 bb 23 f4 60 3d 97 d0 c2 bc 5c 0d a7 bc
       -0.0065295896 0.054920327 -0.023781104 -0.020392112
0002d0 12 df 97 bd 02 62 29 bc 2e b9 95 3d d3 20 5c 3a
       -0.07415594 -0.010338308 0.07310711 0.0008397225
0002e0 51 07 e1 3c 57 7a 98 bd 90 3a f9 3a 3a 56 8b bc
       0.027469309 -0.074452095 0.0019014645 -0.01700889
0002f0 66 bd 7b 3d 55 f4 4d 3d 54 1d fa bb d1 8a 32 bd
       0.06145992 0.05028184 -0.0076328907 -0.043589417
000300 f2 8a a4 3d 22 b9 33 3c 28 c8 9a 3d b4 12 ba bc
       0.08034314 0.010969432 0.07557708 -0.022713996
000310 74 c9 8d bd 91 2c 77 3c 8c 9e 33 bd 68 02 2e bd
       -0.0692319 0.015086309 -0.043852374 -0.042482764
000320 f3 99 98 bc c3 95 e2 bc c6 cf 3e 3d 86 00 2c bd
       -0.018628096 -0.027659303 0.046584867 -0.041992687
000330 57 05 19 bd c1 ff 1f bc 4e 5d ff bc 8f d6 03 3d
       -0.037358608 -0.009765566 -0.03117242 0.03218704
000340 25 5b 23 bd 09 d0 f4 3c 58 58 92 bd 95 f9 18 bd
       -0.039881844 0.029884355 -0.071457565 -0.037347395
000350 1e 58 72 3c 77 a9 2e bd ee 3f ab bd 5d cc 09 3c
       0.014791517 -0.042642083 -0.08361803 0.00841054
000360 72 4b 7e bd a4 74 71 3d e5 20 9e bd 81 c2 0e 3d
       -0.06208367 0.058949128 -0.07721118 0.034853462
000370 13 ab b5 3c 15 b9 aa bd 2c 0c 90 bd 42 7e 31 3d
       0.022176301 -0.08336083 -0.070335716 0.0433333
000380 2a 4c a1 bd 28 d5 c0 bc dc a9 44 3d fc eb ca 3c
       -0.07875855 -0.02353914 0.048013553 0.02477073
000390 cc ae 9e 3d 54 35 ae bd 40 35 23 3d 49 7f 20 3d
       0.077481836 -0.08506265 0.039845705 0.03918389
0003a0 b2 86 0e 3c 9d 26 ff bc e3 46 a7 bc cb b6 17 bd
       0.008699106 -0.031146342 -0.020419544 -0.03703956
0003b0 fc a7 9f bc 88 65 2b bd 48 44 a2 bd c5 f8 24 3d
       -0.01948928 -0.041844875 -0.0792318 0.040276308
0003c0 e7 e2 5f bd dc 5e ac 3d 58 ee d5 bc 49 11 06 3d
       -0.05465975 0.084165305 -0.026114628 0.03273133
0003d0 31 4a 92 bd 76 f0 55 bc 61 fd 98 3c 9a e3 20 bb
       -0.07143057 -0.013057819 0.018675508 -0.0024549724
0003e0 ac ab 9e bd ad 5c 6d bb 2e 69 91 bd 00 ac ab bd
       -0.077475876 -0.003621857 -0.071001396 -0.08382416
0003f0 d0 73 c1 bc 81 85 28 bb 07 d0 a0 bd d0 f5 3d 3d
       -0.023614794 -0.002571434 -0.07852178 0.046377003

fc2.bias f4 [64]
000000 89 04 35 3d 55 0a 32 3d 53 2a d4 3c fd 2e a1 bd
       0.04419378 0.043466885 0.025899088 -0.078702904
000010 79 84 d1 3c 9a 27 99 bd f5 f7 61 bd df 72 8c bd
       0.025575863 -0.074782565 -0.05516811 -0.068578474
000020 82 63 97 3c df 62 c2 3c fd a8 42 bd 17 9b 8a 3d
       0.018480066 0.023728786 -0.04752444 0.06767862
000030 7c 07 b3 3c a0 50 5c bd d4 ee 25 3d 22 b6 0d 3d
       0.021854155 -0.053787827 0.040510967 0.034597524
000040 bc c2 72 3c 6a 5c b3 3b ce a9 8a 3c 47 2c e1 3c
       0.014816936 0.005473663 0.016926672 0.027486933
000050 bb d2 2e bc ac fa 2b bd 7f 53 20 bd 78 be 0a bc
       -0.010670359 -0.041987106 -0.039142128 -0.008468263
000060 03 a8 59 bd cc c9 70 3d 7a 88 97 3d 44 be b0 3d
       -0.053138744 0.0587862 0.07399078 0.0863004
000070 d6 45 b5 3c de 89 77 3d d0 94 12 3b 93 40 2e bd
       0.022128027 0.060434215 0.0022366531 -0.04254205
000080 db c2 83 bd 25 a7 3a bb 9a b5 03 3c f9 54 42 bd
       -0.0643365 -0.0028480974 0.008038903 -0.047444317
000090 70 31 9b 3d b6 a6 2d 3d 25 91 45 bd f6 87 75 3c
       0.07577789 0.042395316 -0.048234124 0.014986029
0000a0 48 a5 27 3d 00 6b 8d bd 14 2c 88 bd af ca 56 3d
       0.04092911 -0.06905174 -0.06649032 0.052439388
0000b0 28 03 ac 3c 62 7d 40 3d 42 15 a3 3a 68 0a a9 3c
       0.020997599 0.046994574 0.0012442248 0.020634845
0000c0 94 fb 10 bd 67 67 74 3d e0 a0 3b 3d f8 9d 71 bd
       -0.035396174 0.059668925 0.04580772 -0.05898854
0000d0 3d d1 e1 bc 5d 55 aa bd 79 b4 c3 bc 83 47 13 bd
       -0.027565593 -0.08317063 -0.023889767 -0.03595687
0000e0 46 8f ae 3d 4e 2a 88 3d b8 2a 5d 3d 8e 35 ee 3c
       0.08523421 0.06648694 0.053995818 0.029078271
0000f0 10 39 32 bd 46 dd d4 bb 2c f0 a3 bb 1d 2d 1d bd
       -0.04351145 -0.0064961044 -0.005002996 -0.0383731

fc3.weight f4 [3, 64]
000000 51 bd b4 3d b1 0a 25 3d 48 d5 eb bd 20 63 b8 bd
       0.08825172 0.0402934 -0.115152895 -0.090032816
000010 07 db f1 3c 96 0e 9b 3d ee c3 b2 3d 84 87 f7 3c
       0.029523386 0.075711414 0.08728777 0.030215986
000020 a6 f0 ef bb 9a 8b 1f 3d ef 07 e5 3c 50 98 93 3d
       -0.0073223887 0.038951494 0.027957885 0.07206786
000030 76 82 fa 3c 18 e8 a2 3d 11 4c aa 3d 6c 4c 66 bc
       0.030579787 0.079544246 0.0831529 -0.014056306
000040 32 1f 72 bb da f4 e6 bd 26 b5 48 3d 7a d5 ec bd
       -0.0036944863 -0.112771705 0.04900088 -0.11564155
000050 1e 72 f4 bc f9 4c 7f 3d 82 68 8c bd d1 6e 43 bb
       -0.029839572 0.062329266 -0.06855871 -0.002982069
000060 44 42 cc 3d 41 17 ee 3d 20 8c cd bd c2 81 b3 bd
       0.09973577 0.11625529 -0.10036492 -0.08764984
000070 e1 0f c7 3d 55 20 d3 3b 51 1a fa 3d 0b e9 33 bd
       0.097198255 0.0064430633 0.12212051 -0.04392342
000080 fc 65 9c 3d 01 81 d5 ba e9 29 17 bd 77 ca dd 3d
       0.076366395 -0.0016289057 -0.036905203 0.10829633
000090 89 44 a2 bd 66 c4 81 bc 6a 9d f0 bd 7c 0c f3 bd
       -0.07923228 -0.01584072 -0.11748774 -0.118676156
0000a0 96 1d e0 3d 9c 06 53 3d 6e 2d 92 bd 36 a6 eb 3d
       0.10943143 0.051519975 -0.07137571 0.115063116
0000b0 1b 0d 00 bd f1 7c b8 3d 85 4a 9d 3c 29 3a ad 3c
       -0.0312625 0.09008206 0.019200573 0.021145897
0000c0 5a bb d6 bd 53 fe a0 bc f0 48 ec 3d 1d fc ae 3d
       -0.10484953 -0.019652521 0.11537349 0.085441805
0000d0 d2 f2 14 bd 7f 66 e0 bd 52 26 ca 3d 13 25 fe bd
       -0.036364384 -0.109570496 0.0987059 -0.12409415
0000e0 08 cb 98 3d 60 02 78 3d ad f5 a7 bd fc a3 25 3d
       0.074606 0.06054914 -0.08201156 0.04043959
0000f0 a6 17 ea 3d f0 8c 1c bc 59 d3 e2 3d c3 73 68 3d
       0.11430292 -0.0095550865 0.110754676 0.056751024
000100 08 a0 34 3d ce 99 82 3b c4 81 1b 3c 46 a7 c9 3d
       0.04409793 0.00398562 0.009491388 0.09846358
000110 62 7c e7 3d 2a fb d0 bd d1 58 cb bc ad 9f cf 3d
       0.11303021 -0.10204156 -0.024822624 0.101378776
000120 38 83 89 3d 48 a9 f8 bd f6 ac 53 3d 8d cf 41 bd
       0.06714481 -0.12141663 0.05167862 -0.047317076
000130 28 a3 e1 bc 1a 60 34 3c b0 82 aa bd 32 e7 3b 3d
       -0.02754362 0.0110092405 -0.08325708 0.045874782
000140 5f b0 a9 3d b1 64 05 bd a8 a0 ad bd ec 75 cf bd
       0.08285593 -0.03256673 -0.084779084 -0.10129914
000150 2e 76 c3 3d f4 4c 11 bc 4e 56 c1 3d 92 6e 62 3d
       0.09544025 -0.008868445 0.094402894 0.05528123
000160 30 b5 1e bd f0 80 6c bd b1 bb 04 3d 6f e5 da bd
       -0.038747013 -0.057740152 0.03240556 -0.10688292
000170 e2 09 4d 3d a2 96 c8 3d 32 4c 3d 3d 8f 71 99 3c
       0.050058253 0.09794356 0.046215244 0.018730907
000180 ca 64 e3 bd c2 e4 9f bd 84 7a db 3d df 5e b2 3c
       -0.11103208 -0.07807304 0.107167274 0.021773754
000190 f5 b7 ed bd 76 af 19 3d ca 11 98 3d db 0d d9 3d
       -0.11607353 0.03752085 0.07425268 0.10598346
0001a0 c5 23 eb bd 76 dc 84 bd f3 63 2a bc aa d8 23 bc
       -0.11481432 -0.06487362 -0.010399806 -0.010000387
0001b0 0c 5b 72 ba 85 8b ca bd b9 00 f9 bc d7 a0 3b 3c
       -0.00092451344 -0.098898925 -0.030395852 0.011451921
0001c0 16 b7 c6 bd 86 a2 d7 3d 69 7c 9d 3d 62 60 99 bd
       -0.097028896 0.10529046 0.07689745 -0.07489087
0001d0 ab bd 10 bd 23 90 a8 bd 74 91 96 3d e1 87 a6 3d
       -0.03533713 -0.08230617 0.07351962 0.081313856
0001e0 04 c5 b5 bd 21 fa 5b bd 68 e6 f5 3d e5 81 e4 bd
       -0.088754684 -0.05370534 0.12006837 -0.11157588
0001f0 53 09 dd 3d d8 0d 53 bd 93 6f c6 3d fc 27 30 3d
       0.10792794 -0.051526874 0.0968925 0.043006882
000200 81 b7 b3 3c 11 2d b8 3d 80 9e cf 3d 2e fc ec bc
       0.021938087 0.08992971 0.10137653 -0.028928842
000210 2b f4 fb 3d 77 f5 9c bc b2 81 c1 3d e3 9c 72 bd
       0.12302431 -0.019160016 0.094485655 -0.05923165
000220 2b 3c 13 3a c6 f3 06 3b c6 21 3a 3d f0 5f ef 3d
       0.00056165707 0.0020592078 0.045442365 0.116882205
000230 40 ef e7 bc c7 62 7a bd 13 89 c7 3d 9c de d7 b9
       -0.028312325 -0.061129358 0.09742942 -0.00041173853
000240 c6 01 71 bc 9b e8 9c bd aa 70 a8 bd 0f 2d db bc
       -0.0147098955 -0.076615535 -0.08224614 -0.026754884
000250 32 db 94 3d 54 60 83 bd fe 7e bd 3d df 71 ae 3b
       0.07268371 -0.064148575 0.092527375 0.005323633
000260 ea d1 ab 3d e3 43 d3 3d 67 26 92 bc 66 3f 68 bd
       0.08389647 0.10315683 -0.017840577 -0.056701086
000270 05 69 5b 3d b6 77 42 bd b5 7d ca bd dc 82 c2 bb
       0.05356695 -0.047477446 -0.09887258 -0.00593601
000280 ff 47 94 bd ac 90 a8 3c 69 75 47 3c 1c 3c ee bd
       -0.07240295 0.020576797 0.012173989 -0.11632559
000290 99 c2 2c 3d ff 16 3e 3d 65 5f d2 bb 98 c5 c7 38
       0.04217777 0.04640865 -0.0064200633 9.525864e-05
0002a0 55 ac 28 bd f0 c0 e2 bd 93 5b 00 bd dc 43 ef 3d
       -0.041179974 -0.11071956 -0.031337332 0.11682865
0002b0 e6 75 95 bd 0d 2a 98 3d 58 ab e9 3c f1 33 82 bd
       -0.07297878 0.074298956 0.028524086 -0.06357563
0002c0 dd 03 ee bd bd d2 73 3d af 17 ec bc 21 d0 9e bc
       -0.116218306 0.059527148 -0.028819887 -0.019386353
0002d0 8e b3 9c bd 2e 46 9c 3c 5f 1a c7 3d cb 07 94 bd
       -0.07651435 0.019076433 0.09721827 -0.07228049
0002e0 df 85 8f bd fe 8b cc bc ba 48 86 3d 2c 60 3d 3c
       -0.07007956 -0.024969097 0.0655684 0.011558574
0002f0 12 57 92 3d 6e b8 b3 3d 0a 07 9a 3c bc cf 26 3d
       0.071455136 0.087754115 0.018802185 0.040725455

fc3.bias f4 [3]
000000 7a b3 f4 3d c4 06 bf bd cd 29 69 bd
       0.11948295 -0.09327462 -0.05692463
