weights/tests/agent_dqn_test.pt (torch, 42638 bytes, 6 tensors)

fc1.weight f4 [128, 11]
0	0x3dbc747f	0.09201907
1	0x3da6cf09	0.081449576
2	0xbda26424	-0.079292566
3	0xbe219619	-0.15779914
4	0x3e82cfdf	0.25549218
5	0xbdeacb59	-0.11464567
6	0x3d64581c	0.05574809
7	0x3e0c9cca	0.13731685
8	0xbde1f61f	-0.11033272
9	0x3c7f42bd	0.0155798765
10	0xbe84d26d	-0.25941792
11	0x3e1fff84	0.15624815
12	0xbe0ab78e	-0.13546583
13	0x3d0f0de8	0.03492537
14	0x3e311ff4	0.17297345
15	0x3e09200b	0.1339113
16	0xbe5db280	-0.21650124
17	0xba92dc0e	-0.0011204497
18	0xbe43df0b	-0.19128053
19	0xbd57bd88	-0.052670985
20	0xbe2473d2	-0.16059807
21	0x3dca5ca5	0.09880952
22	0xbdbf7b18	-0.0934965
23	0xbda2c21e	-0.07947181
24	0x3e8a921e	0.27064604
25	0xbe900132	-0.28125912
26	0x3bc29e17	0.005939256
27	0xbe20aa76	-0.15690026
28	0x3e52d47d	0.2058887
29	0xbd5a3362	-0.05327166
30	0xbd2c646e	-0.042087965
31	0xbcb25f7d	-0.021774048
32	0x3e959b38	0.29219985
33	0x3ced28c7	0.028950108
34	0xbe5ccea5	-0.21563204
35	0x3e2cdc52	0.1688092
36	0x3e0d55f7	0.13802324
37	0xbe189884	-0.1490193
38	0xbdd64d65	-0.104639806
39	0xbe8c3566	-0.2738449
40	0xbe840fe7	-0.25793383
41	0x3e085576	0.13313851
42	0x3e0322d1	0.1280625
43	0x3e828a64	0.2549621
44	0x3d584319	0.052798364
45	0x3e820400	0.25393677
46	0x3d15b8f5	0.036553342
47	0x3e63a16e	0.2222955
48	0xbdb942ef	-0.0904597
49	0xbdce3f8c	-0.10070714
50	0x3cecc21f	0.028901158
51	0xbdfde30f	-0.123968236
52	0x3e8fb033	0.28064117
53	0xbd559434	-0.05214329
54	0x3e142c1b	0.1446995
55	0xbe25ef91	-0.16204669
56	0xbe7fdfb3	-0.24987678
57	0xbcdf25b2	-0.027239654
58	0x3e91d598	0.28483272
59	0x3e05c104	0.13061911
60	0x3e40779a	0.18795624
61	0x3bb25b80	0.0054430366
62	0xbe982d25	-0.29721943
63	0xbe36fe32	-0.17870405
64	0xbe5a142e	-0.2129676
65	0x3e806654	0.2507807
66	0x3d446077	0.04794356
67	0xbe3e8351	-0.1860478
68	0xbe8be2ac	-0.27321374
69	0xbe633a97	-0.22190319
70	0xbc1e55d6	-0.00966402
71	0xbd4a0ca4	-0.04932846
72	0x3e2ed824	0.17074639
73	0x3e6ea292	0.23304203
74	0x3e8e947d	0.27847663
75	0x3e8e899c	0.27839363
76	0x3e8364e1	0.25662902
77	0xbda0cc04	-0.07851413
78	0xbdc9d2f7	-0.098546915
79	0xbe3580e1	-0.17724945
80	0xbd2fbd41	-0.042905096
81	0x3e35ca51	0.17752959
82	0xbd0ef393	-0.03490026
83	0x3d75bc70	0.05999416
84	0x3db49358	0.08817166
85	0xbe48edc3	-0.19621949
86	0xbdbf25be	-0.093333706
87	0x3db5f556	0.08884685
88	0xbde575b6	-0.11204092
89	0xbe4cf528	-0.20015395
90	0x3e423fb2	0.1896961
91	0x3e404cdd	0.18779321
92	0x3e0ec440	0.13942051
93	0x3d156740	0.03647542
94	0x3e54ea48	0.20792496
95	0xbdd1e98f	-0.10249626
96	0xbcb653f0	-0.022256821
97	0xbca54fb9	-0.020179616
98	0xbe53c065	-0.20678861
99	0x3dd202c1	0.102544315
100	0xbe1ff8f5	-0.15622313
101	0x3e10585a	0.14096203
102	0xbe123551	-0.14278151
103	0xbe8e87f5	-0.27838102
104	0x3dfad200	0.122470856
105	0x3d82c3aa	0.06384976
106	0xbe728369	-0.23682941
107	0x3e8eab10	0.27864885
108	0xbe0d09d0	-0.13773274
109	0x3d13966d	0.03603213
110	0x3e0d1503	0.13777547
111	0xbe28b3b6	-0.16474804
112	0xbd6ae515	-0.057347376
113	0xbb0c9d62	-0.0021456112
114	0x3e016fb4	0.12640268
115	0x3d932b7e	0.0718603
116	0xbe860c86	-0.2618143
117	0x3db34297	0.087529354
118	0xbd62831d	-0.05530082
119	0xbdd4c9c2	-0.10390045
120	0x3bdd21a9	0.0067483974
121	0xbe2299ff	-0.15879057
122	0xbe622e3b	-0.22087948
123	0x3cf0ccc0	0.029394507
124	0xbc119ba9	-0.00888721
125	0x3e6e5409	0.23274244
126	0xbe2a7e9b	-0.16649859
127	0x3e7badfd	0.2457809
128	0x3e61d731	0.22054745
129	0xbe8bffc3	-0.27343568
130	0xbe97312d	-0.29529706
131	0xbd4504d1	-0.048100296
132	0x3e866967	0.2625229
133	0xbe917b85	-0.2841455
134	0x3e8f067f	0.27934644
135	0xbe94c3b6	-0.29055566
136	0xbdc28d1e	-0.09499572
137	0xbe84e258	-0.25953937
138	0x3d90358c	0.07041463
139	0xbd92f9ed	-0.07176576
140	0xbe150be3	-0.14555316
141	0xbc8970e0	-0.016777456
142	0xbe08c42d	-0.13356085
143	0x3e50c060	0.20385885
144	0x3e42f621	0.19039203
145	0xbc3d7c15	-0.011565228
146	0x3e3d4118	0.18481863
147	0xbe63349b	-0.22188036
148	0x3e0b280b	0.13589494
149	0x3e12a2aa	0.14319864
150	0xbe0858fa	-0.13315192
151	0xbe90cfa7	-0.28283426
152	0x3e4ab63d	0.19796081
153	0x3e82b450	0.25528193
154	0x3dc810e7	0.09768849
155	0xbd835cf9	-0.064142175
156	0x3dc310ee	0.095247135
157	0x3d9f8df6	0.07790749
158	0xbe0f29df	-0.13980816
159	0x3c10e630	0.0088439435
160	0xbe9291e9	-0.28626946
161	0x3e2ec126	0.17065868
162	0xbe971edd	-0.29515734
163	0xbd906b35	-0.07051698
164	0xbdeb1371	-0.114783175
165	0x3d852ff1	0.06503285
166	0xbe2d78e6	-0.1694065
167	0xbc78e914	-0.015192289
168	0x3e968595	0.2939879
169	0x3d5a2844	0.053261057
170	0x3e5038e9	0.2033421
171	0xbcdbf4eb	-0.026850184
172	0x3cb62bfb	0.022237768
173	0x3e5d2b44	0.21598536
174	0x3db6c4a8	0.08924228
175	0xbe347a65	-0.17624815
176	0x3cb3f763	0.02196855
177	0xbe883c97	-0.26608726
178	0x3e8177a5	0.25286594
179	0x3e367db8	0.17821395
180	0xbb0d0cfe	-0.0021522637
181	0x3e84fa4e	0.25972217
182	0xbe5b275b	-0.21401732
183	0x3e3958c6	0.1810027
184	0x3c6c0354	0.01440509
185	0x3da7a007	0.0818482
186	0xbdcadbf0	-0.09905231
187	0xbddd8c43	-0.108177684
188	0x3e9a3a03	0.30122384
189	0x3d9e6423	0.07733943
190	0xbc232301	-0.009957076
191	0xbe13ed39	-0.14445962
192	0xbe5cb78c	-0.21554393
193	0xbd318159	-0.043336246
194	0xbe3e0945	-0.18558224
195	0x3e4923ff	0.19642638
196	0xbe0dcd14	-0.13847762
197	0x3d7d3886	0.061821483
198	0xbe7fa4c6	-0.249652
199	0x3cd4787b	0.025936356
200	0xbdc2bc4d	-0.09508572
201	0xbdc605c4	-0.096690685
202	0xbd2d7cec	-0.042355463
203	0x3e17dabb	0.14829533
204	0x3e7bc674	0.24587423
205	0x3e6cca07	0.23123942
206	0x3e92e57c	0.28690708
207	0x3e335474	0.17512685
208	0xbcb94f6b	-0.022620877
209	0xbe29191b	-0.16513483
210	0xbe99de9e	-0.30052656
211	0x3e20ff9b	0.15722506
212	0x3d6d9ce7	0.05801096
213	0x3e4545f7	0.1926497
214	0x3e8526b6	0.26006097
215	0x3dbd6787	0.09248262
216	0xbd64fed8	-0.0559071
217	0xbe0c6c33	-0.1371315
218	0xbe8a77b2	-0.27044445
219	0xbe53937d	-0.20661731
220	0xbe8af637	-0.27140972
221	0xbd5d928c	-0.054094836
222	0x3c963857	0.018337412
223	0x3da26f22	0.07931353
224	0x3d3623c1	0.04446769
225	0xbda49011	-0.08035291
226	0x3b9eb038	0.0048427843
227	0x3e586031	0.21130444
228	0x3e0e25a2	0.13881543
229	0x3e0b94ff	0.13631056
230	0x3dcd2dba	0.10018487
231	0x3e893cfe	0.26804346
232	0x3b746097	0.0037289017
233	0xbe50f780	-0.20406914
234	0xbdff8591	-0.12476648
235	0xbe55ad1a	-0.20866814
236	0xbd2eac48	-0.04264477
237	0x3e6c7182	0.23090175
238	0xbe40cdf7	-0.1882857
239	0xbe9259a6	-0.2858402
240	0x3d131f59	0.035918567
241	0xbe1eae4e	-0.1549618
242	0x3e4f7889	0.20260824
243	0xbe9543df	-0.29153344
244	0x3e37d930	0.17953944
245	0xbe092d65	-0.13396223
246	0xbd9ca12a	-0.07647927
247	0xbd083fa0	-0.033263803
248	0x3d30da35	0.04317685
249	0xbe94feb3	-0.2910057
250	0xbe0d6d41	-0.13811208
251	0x3e6c4fde	0.23077342
252	0x3c8369a8	0.016041592
253	0xbe5c8df7	-0.2153853
254	0xbde135f7	-0.10996621
255	0xbde41a58	-0.11137837

fc1.bias f4 [128]
0	0x3e9adc3f	0.3024616
1	0xbe1fb933	-0.15597992
2	0x3d304fd9	0.0430449
3	0xbdcc1982	-0.09965803
4	0xbc2233ad	-0.009900016
5	0x3e978a33	0.29597625
6	0xbe580697	-0.21096264
7	0x3d1eb84b	0.038749974
8	0x3e880c0b	0.26571688
9	0xbe247053	-0.16058473
10	0x3c737022	0.0148582775
11	0xbe172c89	-0.14763083
12	0x3e7ac549	0.24489321
13	0x3e2d9d9c	0.16954654
14	0xbe5a6f8d	-0.21331616
15	0x3df838dc	0.1212022
16	0xbe95375f	-0.29143807
17	0x3e15d1c1	0.14630796
18	0x3dc4fcf5	0.0961856
19	0x3d7d7663	0.06188048
20	0xbe5cde58	-0.21569192
21	0xbe1c6ad8	-0.15275133
22	0xbe590986	-0.21195039
23	0xbe2c1c4d	-0.16807671
24	0xbddb6dc6	-0.10714297
25	0xbd85bfe3	-0.0653074
26	0x3e931f9e	0.2873506
27	0x3e902b9b	0.28158268
28	0xbd8f24b7	-0.06989425
29	0x3e2611ea	0.16217771
30	0x3e27102f	0.16314767
31	0x3c586e88	0.013209946
32	0x3c84b8ce	0.016201403
33	0xbe03fba0	-0.12888956
34	0xbe591e49	-0.21202959
35	0xbe62b1b7	-0.22138105
36	0xbe30c4cb	-0.1726257
37	0xbe796b9d	-0.24357457
38	0xbe103533	-0.14082794
39	0xbe6baf1c	-0.23016018
40	0x3d660670	0.056158483
41	0x3dc8f23b	0.09811827
42	0xbb6f264d	-0.0036491335
43	0xbdf39420	-0.11893487
44	0x3cbecd2f	0.023291199
45	0x3e1cb5a3	0.15303664
46	0x3d5bfdce	0.053708844
47	0xbe48ec7c	-0.19621462
48	0x3d963370	0.0733403
49	0xbc3195bf	-0.010838925
50	0xbe02b3b9	-0.12763871
51	0x3e478f7b	0.19488327
52	0x3d2cb387	0.042163398
53	0xbe93bd5c	-0.28855407
54	0xbd9a5d0a	-0.07537277
55	0x3e3aa8e8	0.18228495
56	0xbdf8a9b0	-0.1214174
57	0x3e3e0bfe	0.18559262
58	0x3d66ebfc	0.056377396
59	0x3e95b3d7	0.2923877
60	0x3e09e98f	0.13468002
61	0x3d68d40c	0.05684285
62	0x3e041480	0.12898445
63	0x3e51512a	0.20441118
64	0x3d33b7d2	0.043876477
65	0x3e74b61d	0.23897596
66	0x3e3cf662	0.18453363
67	0x3d536106	0.0516062
68	0xbe0525a2	-0.13002637
69	0x3e0c48e9	0.13699688
70	0x3e1a396f	0.15060972
71	0xbd56e4ec	-0.05246441
72	0xbe0a1061	-0.1348281
73	0xbe047d3b	-0.12938397
74	0xbdfac4f8	-0.122446
75	0x3dda5d7f	0.10662364
76	0x3e361d22	0.17784551
77	0xbe53edbe	-0.2069616
78	0xbdd52ff4	-0.10409537
79	0xbdbc176d	-0.091841556
80	0xbe4d6692	-0.20058659
81	0xbcdb4273	-0.026765084
82	0xbb5ae29b	-0.0033399228
83	0x3e8d825e	0.27638525
84	0xbd60ad8c	-0.054853007
85	0x3e791da0	0.24327707
86	0xbe37d3c5	-0.17951877
87	0x3e98430e	0.2973866
88	0x3cac0215	0.020997087
89	0x3e6f8656	0.23391089
90	0x3d9e71d6	0.07736556
91	0xbe164f23	-0.14678626
92	0x3e8d10c7	0.27551863
93	0x3e31291d	0.1730084
94	0x3df39b76	0.11894886
95	0xbd32851c	-0.043583974
96	0xbe489def	-0.19591497
97	0xbe42fa62	-0.19040826
98	0x3e0612a3	0.13093047
99	0x3cd8c4e4	0.026461072
100	0xbd91c4f3	-0.07117643
101	0xbdb0603a	-0.08612104
102	0xbdfc376e	-0.1231526
103	0xbe555356	-0.20832571
104	0xbe8b3301	-0.2718735
105	0x3e57d0e4	0.21075779
106	0xbe46329d	-0.19355245
107	0x3dcc8576	0.09986393
108	0xbe84b728	-0.25920987
109	0x3da94f14	0.08267036
110	0xbe936542	-0.2878819
111	0x3e27792f	0.16354822
112	0x3e91a63a	0.28447133
113	0xbe8907d3	-0.26763782
114	0x3e5c9823	0.2154241
115	0xbe812de0	-0.25230312
116	0xbe664f78	-0.22491252
117	0xbe71d3a4	-0.2361589
118	0x3e8465f9	0.2585905
119	0x3cffc870	0.031223506
120	0x3dde726f	0.1086167
121	0xbd3fbbf1	-0.046810094
122	0xbdf20a88	-0.11818415
123	0x3e917c2d	0.2841505
124	0xbd1a53b6	-0.03767749
125	0x3d9a3139	0.0752892
126	0xbe8b83eb	-0.27249083
127	0x3e3d3887	0.18478595

fc2.weight f4 [64, 128]
0	0x3d8b7652	0.06809677
1	0x3cd26540	0.025683045
2	0x3d7b3f51	0.06133968
3	0x3c1a6312	0.009423034
4	0x3d4b67ec	0.049659654
5	0xbd858d00	-0.06521034
6	0xbd325d82	-0.043546207
7	0x3caf9913	0.021435296
8	0xbd9f2c00	-0.07772064
9	0xbc5deed6	-0.013545712
10	0xbd149fc6	-0.036285184
11	0xbd8886c6	-0.06666331
12	0x3c7632b7	0.01502674
13	0xbbee9da3	-0.0072819754
14	0x3c48558f	0.01222743
15	0xbc2f6f6d	-0.010707718
16	0xbda158b8	-0.0787825
17	0x3da07179	0.07834143
18	0xbda67987	-0.08128648
19	0x3ce9b6fb	0.028529635
20	0xbc79e824	-0.015253101
21	0x3d73b479	0.059498284
22	0xbd872ba1	-0.066001184
23	0xbcf5311e	-0.029930647
24	0xbd224423	-0.03961576
25	0xbd2f2b8e	-0.042766146
26	0xbc69655a	-0.0142453555
27	0xbc66c8dd	-0.0140859755
28	0x3d220359	0.039553974
29	0x3d061b8d	0.03274112
30	0xbb720fa4	-0.0036935592
31	0x3cd1351c	0.02553802
32	0x3d342133	0.043976974
33	0xbcd0040c	-0.025392555
34	0xbbbad9c4	-0.005702229
35	0x3d653d3a	0.055966593
36	0x3d802761	0.06257511
37	0x3d79964d	0.060934354
38	0x3d4ca7fd	0.049964894
39	0xbc5046fa	-0.012712235
40	0xbc2b40ea	-0.010452488
41	0x3b3dcfd9	0.0028962998
42	0x3d5e0222	0.054201253
43	0x3c992019	0.018692063
44	0xbcef302d	-0.029197777
45	0x3c0b4426	0.008500135
46	0x3ccef515	0.025263349
47	0x3c07f733	0.008298683
48	0xbda19633	-0.07889976
49	0xbcd78532	-0.02630863
50	0x3d2a7089	0.04161123
51	0x3d0e5ec8	0.03475836
52	0x3d2d3479	0.04228637
53	0xbc265504	-0.010152105
54	0x3d10600e	0.035247855
55	0x3d8f417d	0.06994913
56	0xbd3a0c3b	-0.04542182
57	0x3da7d030	0.081940055
58	0x3dacdc6c	0.0844048
59	0x3d0bbdd4	0.03411658
60	0xbd9a16b1	-0.07523859
61	0xbd8d67e1	-0.06904579
62	0x3d610118	0.054932684
63	0xbd2c438a	-0.042056598
64	0x3d9ed449	0.07755334
65	0x3d75bb6b	0.05999319
66	0xbd63670d	-0.0555182
67	0xbd30d7bc	-0.04317449
68	0x3bbfa34f	0.0058483253
69	0xbdad9850	-0.08476317
70	0x3cca05a2	0.024660889
71	0x3c8dbd46	0.017302167
72	0xbd432acb	-0.047648232
73	0x3d47a9e6	0.048746012
74	0xbc5f2646	-0.013619965
75	0xbbe2aaf1	-0.0069173505
76	0x3d9bfd40	0.07616663
77	0x3b541818	0.0032362994
78	0x3c28a856	0.010294041
79	0xbc20955b	-0.009801234
80	0x3d415714	0.047202185
81	0x3d80f0b2	0.06295909
82	0xbdaaba3d	-0.083363034
83	0x3d81ce98	0.06338233
84	0xbdae64f7	-0.08515351
85	0xbc9a046b	-0.018800935
86	0xbd20bc11	-0.039241854
87	0xbd77dc66	-0.060512923
88	0xbd91304d	-0.07089291
89	0xb95dc630	-0.00021150033
90	0xbda18e5e	-0.078884825
91	0x3ce5d255	0.028054396
92	0x3d005e1d	0.031339753
93	0xbbc2da9e	-0.0059464714
94	0x3db66198	0.08905333
95	0x3d9295c7	0.07157474
96	0x3d40aef1	0.047041837
97	0x3da1ee24	0.0790675
98	0x3c1886ce	0.009309484
99	0xbd294b92	-0.041331835
100	0x3d1177e3	0.035514724
101	0xbd743c6b	-0.05962793
102	0xbda32952	-0.079668656
103	0xbcfe1bb5	-0.031019071
104	0xbd96eacd	-0.073690034
105	0x3cb52d7d	0.022116417
106	0xbcae556b	-0.021280965
107	0xbc1cae86	-0.009563094
108	0x3d2f1846	0.04274776
109	0xbd097613	-0.03355987
110	0xbbb07255	-0.005384723
111	0x3d796f39	0.060897086
112	0xbd3809ef	-0.04493135
113	0xbd9c0750	-0.07618582
114	0xbd226f49	-0.03965691
115	0x3d915095	0.07095448
116	0xbd5f4b2a	-0.05451504
117	0x3dacd37e	0.084387764
118	0x3d1c11b4	0.03810282
119	0x3d111635	0.03542157
120	0xbd89eaba	-0.06734224
121	0x3c1bab44	0.009501282
122	0xbd65a6d2	-0.056067295
123	0xbd577f38	-0.05261156
124	0x3d359867	0.044334795
125	0xbdaac4b3	-0.08338299
126	0xbcf2f0c8	-0.02965583
127	0x3c61d998	0.013784789
128	0xbcff1071	-0.03113577
129	0xbd9a6cee	-0.07540308
130	0x3d39b1cf	0.045335587
131	0x3d8a56e0	0.06754851
132	0xbd6569a1	-0.05600894
133	0xbbf7983d	-0.00755599
134	0x3d3c98ab	0.046044033
135	0xbd9b3bf1	-0.07579792
136	0xbd15103e	-0.036392443
137	0x3d089be6	0.0333518
138	0x3d95acd9	0.07308359
139	0x3c08efc1	0.008357943
140	0xbd93d5b7	-0.07218497
141	0x3d687c92	0.056759425
142	0x3daf82ce	0.08569871
143	0x3bd60983	0.0065318956
144	0xbbb3e5a0	-0.00549002
145	0xbd98552f	-0.074381225
146	0x3d4b600f	0.049652155
147	0x3d7e66e4	0.062109843
148	0xbc34b394	-0.011029143
149	0x3d89e5ea	0.06733306
150	0x3d33b6b7	0.043875422
151	0xbd832b1d	-0.064047076
152	0x3d7478b3	0.05968542
153	0x3d07efd1	0.03318769
154	0x3d2fc0e5	0.042908568
155	0x3d3d4293	0.04620607
156	0x3d95cbe4	0.0731428
157	0xbc46911a	-0.012119556
158	0xbba7444a	-0.0051045762
159	0xbd380c6e	-0.04493373
160	0x3d7db207	0.06193736
161	0xbdaa83f3	-0.083259486
162	0x3d6fcf31	0.058547202
163	0xbd213493	-0.03935678
164	0x3d454a40	0.048166513
165	0xbd39d7bf	-0.045371767
166	0x3c89a111	0.016800435
167	0xbd924999	-0.07142944
168	0x3d6720be	0.05642771
169	0x3b34e558	0.002760252
170	0x3cd40b1c	0.025884204
171	0x3c5d1f2c	0.0134962015
172	0x3d830cce	0.06398927
173	0xbd253f3c	-0.040343508
174	0x3c8fa3c4	0.017534144
175	0x3d9f605d	0.07782052
176	0xbc77e32b	-0.015129845
177	0x3db2b818	0.08726519
178	0xbd472936	-0.048623286
179	0x3cc1fbbd	0.023679608
180	0xbcd93710	-0.026515514
181	0x3d9f123e	0.07767151
182	0xbd08f94c	-0.033440873
183	0x3d14d3eb	0.036334913
184	0xbd16ecaf	-0.036846813
185	0xbd9a7643	-0.07542088
186	0xbc922438	-0.017839536
187	0x3d6ccce4	0.057812586
188	0x3c82af27	0.01595266
189	0xbd206528	-0.03915897
190	0xbb1704a4	-0.0023043538
191	0xbd1dd396	-0.038531862
192	0x3db0de2d	0.08636127
193	0x3d989f1c	0.07452223
194	0xbd8c6c9b	-0.06856652
195	0x3d7141b9	0.05890057
196	0xbc592a5c	-0.013254728
197	0xbbd96b21	-0.006635085
198	0xbcffe384	-0.031236418
199	0xbd4041f1	-0.046937887
200	0x3db59256	0.08865802
201	0x3af1abda	0.0018438057
202	0x3d959a96	0.073048756
203	0x3c92c5b1	0.017916532
204	0x3d996196	0.07489316
205	0xbd9d3b9e	-0.07677387
206	0xbd7aebb1	-0.06125993
207	0x3d167b42	0.03673864
208	0x3c82bab0	0.01595816
209	0xbd7b2a61	-0.061319713
210	0xba60bf8c	-0.00085734646
211	0xbcca119b	-0.024666598
212	0xbd938e91	-0.07204927
213	0xbd403186	-0.04692223
214	0x3d263914	0.040581778
215	0x3d4d9e36	0.05019971
216	0xbd2f8433	-0.042850684
217	0x3d3449a2	0.044015534
218	0x3c2aafa7	0.010417855
219	0x3db75ab0	0.08952844
220	0xbc4f8fb9	-0.0126685435
221	0xbd613f2e	-0.054991893
222	0xbcb74d42	-0.022375707
223	0x3badb182	0.0053007016
224	0xbd2a868f	-0.04163223
225	0xbd9a01d8	-0.07519883
226	0x3d9ff432	0.078102484
227	0x3d6dc179	0.058045838
228	0xbcbf05ea	-0.02331825
229	0x3d0f7f91	0.035033766
230	0x3cca8632	0.024722192
231	0xbd97e031	-0.07415808
232	0x3d245031	0.04011554
233	0x3db254f2	0.08707608
234	0xbd8630d6	-0.065522835
235	0xbda87aa8	-0.0822652
236	0xbb9f38a6	-0.004859048
237	0xbcf88aa3	-0.030339545
238	0xbd9478a8	-0.07249576
239	0x3cbfb286	0.023400556
240	0xbcbdda89	-0.023175495
241	0x3dafbe92	0.0858127
242	0x3ba6b26a	0.0050871866
243	0x3cda9677	0.026683075
244	0x3cd8c699	0.026461886
245	0xbda47fd6	-0.08032195
246	0x3d6ab6bb	0.05730317
247	0xbca81b79	-0.020520912
248	0x3d434f3c	0.047682986
249	0x3cca035f	0.02465981
250	0xbc406d31	-0.011744783
251	0xbd982025	-0.07428006
252	0x3da91dec	0.0825766
253	0x3db48e8e	0.08816253
254	0xbd66e23f	-0.05636811
255	0x3da57b48	0.08080155

fc2.bias f4 [64]
0	0x3ca5978a	0.020213861
1	0x3d8f7fb5	0.0700678
2	0x3d5c6f77	0.05381724
3	0xbd828438	-0.06372875
4	0x3d29a6e8	0.04141894
5	0x3d908b69	0.070578404
6	0x3c8865cc	0.016650103
7	0xbd9add76	-0.075617716
8	0xbc868d11	-0.016424688
9	0xbdb4ff19	-0.088377185
10	0xbd804642	-0.062634006
11	0x3c0a6888	0.008447774
12	0x3db40da8	0.08791667
13	0xbd926f85	-0.07150177
14	0x3da50699	0.08057899
15	0x3ceb250f	0.028704194
16	0xbd8bff8b	-0.0683585
17	0x3ce4e1ec	0.02793976
18	0x3cd318e2	0.025768701
19	0xbd97fa3a	-0.07420774
20	0x3d1b2a49	0.037882123
21	0x3d010dab	0.031507175
22	0x3cc05913	0.023479974
23	0x37400ac0	1.1446595e-05
24	0xbd8b6a5b	-0.06807395
25	0x3dac36de	0.084089026
26	0xbd747e1c	-0.05969058
27	0x3d85da4c	0.065357774
28	0x3bafc16e	0.005363635
29	0xbd079f36	-0.03311082
30	0x3cba645c	0.022752933
31	0x3c4cc852	0.012498932
32	0x3d643745	0.05571677
33	0xbd0f8be1	-0.03504551
34	0x3d4e63d8	0.050388187
35	0x3d8f91ff	0.070102684
36	0xbcb91ee8	-0.022597745
37	0x3d9788cf	0.07399141
38	0x3cf878ec	0.030331098
39	0x3d9ae6d4	0.07563558
40	0xbd86d113	-0.065828465
41	0xbd983787	-0.07432466
42	0x3c030fda	0.007999385
43	0x3d291a7c	0.041285023
44	0x3d8f469c	0.069958895
45	0x3da9f733	0.08299103
46	0x3daeaeb8	0.08529419
47	0xbd5348c0	-0.05158305
48	0xbd951414	-0.0727922
49	0x3d890432	0.06690253
50	0x3d877038	0.06613201
51	0xbd897243	-0.06711247
52	0xbd15054e	-0.036382012
53	0x3d57ef8e	0.05271869
54	0xbd8816f2	-0.066450015
55	0xbc085e4e	-0.008323265
56	0x3d7615fb	0.060079556
57	0x3d969814	0.07353225
58	0x3ae3ad48	0.0017370367
59	0xbd9a5139	-0.07535023
60	0xbd9a928d	-0.075474836
61	0x3b8ee6b6	0.004360999
62	0xbc804f6e	-0.015662875
63	0x3d319320	0.0433532

fc3.weight f4 [3, 64]
0	0xbdb30eb3	-0.08743038
1	0x3d5e46e9	0.054266844
2	0x3cc4f571	0.024042817
3	0xbd936813	-0.07197585
4	0xbb828a85	-0.003983798
5	0x3d800c2e	0.06252323
6	0x3d0ecb9f	0.034862157
7	0xbddce536	-0.10785906
8	0xbdf79a67	-0.12089997
9	0xbc7acb30	-0.015307233
10	0x3de9c3f0	0.11414325
11	0x3d03f6b6	0.032217704
12	0x3c65d8d6	0.0140287485
13	0xbb042a8d	-0.0020166964
14	0xbdf40802	-0.1191559
15	0x3db8913c	0.09012076
16	0xbc899496	-0.016794484
17	0x3c2a78e6	0.010404801
18	0x3c389519	0.011266016
19	0xbd55347d	-0.05205201
20	0xbdbed48e	-0.09317885
21	0x3d66a55b	0.05631004
22	0x3d500b41	0.050791983
23	0x3de14c57	0.11000889
24	0xbd62ab78	-0.055339307
25	0x3c400ca5	0.011721765
26	0xbce22c25	-0.02760894
27	0x3debb79c	0.1150963
28	0x3d7b772a	0.06139294
29	0x3d7cf711	0.06175906
30	0x3c76a1ca	0.015053222
31	0xbcde1890	-0.027111322
32	0x3c820fd3	0.015876686
33	0xbbe5bf08	-0.007011298
34	0x3df8d4c9	0.121499605
35	0xbdd6cb74	-0.10488024
36	0xbca2169a	-0.019786168
37	0xbde4b4f0	-0.111673236
38	0x39b11c88	0.00033781328
39	0xbdc109f2	-0.09425725
40	0x3df3a5b8	0.11896843
41	0xbd6a0de8	-0.05714217
42	0x3dcf9682	0.10136129
43	0xbca7e26a	-0.020493705
44	0xbdc51c68	-0.09624559
45	0x3c6d5af9	0.014487022
46	0xbd6eaa06	-0.058267616
47	0xbb67e1f8	-0.003538249
48	0xbcaf21b9	-0.021378385
49	0xbd503deb	-0.0508403
50	0x3ddc47ab	0.10755857
51	0x3dc0cdd2	0.09414257
52	0x3d8df55e	0.06931566
53	0x3d9762da	0.07391901
54	0x3dfb9ef7	0.122861795
55	0x3d4e465c	0.05036007
56	0xbdac442d	-0.08411441
57	0xbde27662	-0.11057736
58	0xbd872302	-0.06598474
59	0xbd1c85af	-0.038213428
60	0x3cd9b63b	0.026576152
61	0x3cb539ae	0.02212223
62	0xbbbf98c0	-0.0058470666
63	0xbcbcaec9	-0.023032563
64	0xbdc8d974	-0.09807101
65	0xbbb91428	-0.0056481548
66	0x3cfae7a8	0.03062804
67	0xbd02b334	-0.031909183
68	0x3c56adfd	0.0131030055
69	0xbda042c1	-0.07825232
70	0xbbe8c9c4	-0.0071041305
71	0xbd14ec51	-0.03635818
72	0x3df35b5d	0.118826605
73	0x3d0131ae	0.03154152
74	0xbd7fb10f	-0.062424716
75	0xbc93b3e3	-0.018030113
76	0xbdd99007	-0.10623174
77	0x3cfa3cc9	0.030546563
78	0x3d041a3c	0.03225158
79	0xbc85d720	-0.016337931
80	0xbd9cd753	-0.07658257
81	0xbde6452c	-0.11243662
82	0xbdc4c95d	-0.096087195
83	0x3d0abc8e	0.033871226
84	0xbdad083c	-0.08448836
85	0x3d8cb671	0.068707354
86	0x3dbe5738	0.092939794
87	0x3d5fd9ab	0.054650944
88	0xbdf2d636	-0.11857264
89	0xbd57278f	-0.05252796
90	0xbc9bebd8	-0.019033358
91	0x3d576709	0.052588496
92	0xbdc24827	-0.09486418
93	0xbd9c7f1e	-0.07641433
94	0x3df5eb05	0.12007717
95	0x3d7a329c	0.06108342
96	0xbbe48267	-0.006973553
97	0x3cb5586b	0.022136888
98	0x3ceaa600	0.028643608
99	0x3d7e0e98	0.062025636
100	0x3c99dd5f	0.018782316
101	0x3c690ba6	0.014223969
102	0x3dc1e8ad	0.094682075
103	0x3d8e5241	0.069492824
104	0xbd6d1d2c	-0.05788915
105	0x3d729ea9	0.05923334
106	0x3d9915d0	0.074748635
107	0x3d9bbb1e	0.07604049
108	0xbcec084f	-0.028812556
109	0xbdefc252	-0.117069855
110	0xbddea1b6	-0.10870688
111	0x3d5d74e5	0.054066557
112	0x3d70d797	0.058799352
113	0x3de003de	0.109382376
114	0xbd3d2230	-0.046175182
115	0x3d830656	0.06397693
116	0xbde69f09	-0.11260802
117	0xbd7d4d4f	-0.061841305
118	0x3d316ee5	0.043318648
119	0x3cdf95b0	0.027293056
120	0x3d9a1c14	0.07524887
121	0xbcd88bd8	-0.02643387
122	0xbde7eb47	-0.113241725
123	0x3dc568a7	0.096391015
124	0xbc9976bc	-0.018733375
125	0x3c182957	0.0092872
126	0xbd9291fe	-0.07156752
127	0x3df0e399	0.11762161
128	0xbd9c79e1	-0.07640434
129	0x3ded309d	0.11581538
130	0x3d4be944	0.049783006
131	0xbd39c478	-0.045353383
132	0xbdd39811	-0.10331739
133	0xbdaf1c6e	-0.085503444
134	0xbdb782a9	-0.08960468
135	0x3bed8d18	0.0072494857
136	0xbc8ca2de	-0.017167505
137	0xbc870cea	-0.01648565
138	0x3dbda28b	0.09259518
139	0x3d0265b8	0.031835288
140	0xbceadb96	-0.02866916
141	0x3d217c8d	0.03942542
142	0x3c418c92	0.0118133
143	0xbcd64958	-0.02615802
144	0xbb840b2b	-0.0040296516
145	0x3d48b3c7	0.048999574
146	0x3d125ac5	0.035731096
147	0x3d79c6b8	0.06098053
148	0x3d703975	0.058648545
149	0xbd0ac055	-0.03387483
150	0x3dce56a1	0.10075117
151	0xbd2d4c1f	-0.042308923
152	0x3db853f5	0.090003885
153	0xbd55b630	-0.0521757
154	0xbdbb8619	-0.091564365
155	0xbd81daaa	-0.06340535
156	0xbd09608c	-0.03353934
157	0xbd9cb887	-0.07652383
158	0xbca4983a	-0.020092119
159	0xbcbe0450	-0.023195416
160	0x3d9f0d10	0.07766163
161	0x3cc0f332	0.023553465
162	0x3dd08e6c	0.10183415
163	0x3d26e0c8	0.04074171
164	0x3de453dd	0.11148808
165	0xb91ecf92	-0.0001514538
166	0x3df9d7e8	0.12199384
167	0x3de272a9	0.11057026
168	0xbc905668	-0.017619327
169	0xbdf93696	-0.121686146
170	0x3db020bb	0.08599993
171	0x3d9f19ab	0.07768568
172	0xbd54eee9	-0.051985655
173	0x3dca69d5	0.09883467
174	0xbd37af46	-0.04484489
175	0x3d8989d6	0.06715743
176	0x3d8f473c	0.06996009
177	0x3dcbde22	0.09954478
178	0xbde5bd6d	-0.11217771
179	0x3db483dc	0.08814213
180	0x3ce42140	0.027847886
181	0xbc00264e	-0.007821633
182	0xbcbd4783	-0.023105389
183	0x3cdf2620	0.02723986
184	0x3bfd22da	0.007725102
185	0x3d1a8fe8	0.037734896
186	0x3b090479	0.0020907207
187	0xbd2537ad	-0.0403363
188	0x3d6e2ef5	0.05815025
189	0xbd620819	-0.055183504
190	0x3d2900a0	0.04126036
191	0x3dc40dcf	0.09572946

fc3.bias f4 [3]
0	0x3d8b9fda	0.06817599
1	0xbdb25e50	-0.08709395
2	0x3d40b275	0.04704519
