weights/agent_dqn.pt (torch, 42588 bytes, 6 tensors)

fc1.weight f4 [128, 11]
-0.13670966 0.15264389 -0.2210151 -0.26286915 -0.0043347953 0.068221025 -0.17335819 -0.043134063
-0.31597126 0.1240401 0.108483486 -0.16242214 0.21907578 -0.22440803 -0.08584033 -0.25204974
-0.26929197 -0.009008405 0.30149752 -0.23087162 -0.09840833 -0.2612982 -0.09934964 -0.24389285
-0.20775628 -0.047682982 0.23938328 0.17238066 0.11738205 -0.09876535 -0.1183533 0.114593625
-0.13840593 -0.08429063 0.3299761 -0.21397938 0.013696855 0.19430453 -0.03326837 -0.22352591
0.18002254 0.20417333 -0.01151164 -0.106703795 -0.27368328 0.08094004 -0.07101538 0.10966836
-0.24295262 0.30972227 -0.028078217 0.26720917 -0.12162063 0.006910639 0.113687925 -0.20413978
0.13515574 -0.0034602564 0.18858549 -0.24379435 -0.0732404 0.25967166 -0.12064705 0.13556877
-0.29616088 -0.20476195 0.2514508 -0.07224764 0.11201333 -0.13690239 -0.18515313 0.14599177
-0.073587514 0.14110488 0.17007357 -0.13366485 0.13871938 -0.12895752 -0.1023349 0.08767143
0.10054464 0.17015344 -0.08899667 0.10322505 -0.28367102 -0.30510288 0.14986244 0.0039038407
0.2450024 -0.03348337 0.34048608 0.25044677 -0.034619838 0.17965053 -0.15987429 0.11818934
0.17352472 0.059373163 0.2998696 0.2638651 -0.15589722 0.088496625 0.32917857 -0.09095763
-0.31773126 0.20748097 -0.11560404 0.27940583 -0.25191662 0.20932502 0.23259373 -0.20565307
-0.09882579 0.12386406 0.097606756 -0.15050633 0.071763285 -0.03579875 0.06713463 0.19386658
-0.1637283 0.13173789 -0.24823944 -0.2719212 -0.21975861 0.25509915 0.15553653 0.089574
-0.03825714 -0.24112219 -0.021940656 -0.12335935 0.2938976 -0.26711765 -0.11556458 -0.15685914
0.18186149 0.115856715 0.3377563 0.15836829 -0.25054398 0.11908625 -0.17310745 -0.2119229
-0.12067948 -0.14891218 -0.23190323 0.21661279 0.30497432 -0.054205664 0.17347376 -0.26885474
0.12210234 -0.13904636 -0.21684821 -0.1493579 0.31489846 -0.19222079 -0.08437564 -0.25744116
0.17465585 0.102654375 0.27984014 -0.124129266 -0.20109102 -0.108619854 -0.21590589 0.40632397
0.019568374 0.1839908 -0.081325345 0.039766423 0.18406317 0.1277718 0.12232065 0.21465252
-0.29477388 0.36451367 0.065371476 -0.027015664 -0.0019937335 0.102463596 -0.18265973 -0.2195943
0.30796766 -0.035161126 -0.24687088 0.13309999 -0.32551166 0.11944678 -0.15035033 -0.0422394
-0.007560909 -0.32487285 -0.35908943 0.18221195 0.2555872 0.040111247 -0.14668372 0.26040354
0.2085109 0.14063433 -0.12134418 0.12568006 0.1841742 0.21414517 0.2388655 -0.2436409
-0.0060497443 0.0018806878 -0.1086354 0.34708494 0.08973168 0.08867667 -0.17919606 -0.16908593
0.019673325 0.1823918 -0.12417996 0.28567678 0.09949363 -0.009653 -0.22605452 0.29550496
-0.10034387 0.31781876 0.11951918 0.049636636 -0.19295251 -0.20108323 0.23517804 -0.20061551
0.16047779 0.37718636 0.2934644 -0.26874146 -0.008940203 -0.10961268 0.21355043 -0.15700443
-0.27829674 0.26123536 0.032705233 0.009945748 -0.08008939 -0.1768657 0.031432007 -0.24983512
-0.20817988 0.25898567 0.09811571 0.04934102 0.052668776 0.032058798 0.28404704 -0.25565678
00000000: 9efd 0bbe ae4e 1c3e c851 62be c996 86be
00000010: e60a 8ebb 77b7 8b3d cf84 31be 58ad 30bd
00000020: fcc6 a1be bc08 fe3d 972c de3d fd51 26be
00000030: 6755 603e 38cb 65be 0ecd afbd aa0c 81be
00000040: a3e0 89be fd97 13bc e25d 9a3e 9c69 6cbe
00000050: 4e8a c9bd e1c8 85be d377 cbbd 0cbf 79be
00000060: 10be 54be 3b4f 43bd e420 753e 8e84 303e
00000070: 0066 f03d 7d45 cabd 3763 f2bd 10b0 ea3d
00000080: 49ba 0dbe 91a0 acbd a1f2 a83e 691d 5bbe
00000090: c668 603c c4f7 463e 6a44 08bd fae3 64be
000000a0: d457 383e d012 513e 519b 3cbc 8587 dabd
000000b0: 3720 8cbe e4c3 a53d 8370 91bd ce99 e03d
000000c0: 92c8 78be eb93 9e3e 4a04 e6bc a4cf 883e
000000d0: 3d14 f9bd a472 e23b 37d5 e83d 050a 51be
000000e0: 4466 0a3e 78c5 62bb 8e1c 413e 3aa5 79be
000000f0: 10ff 95bd aff3 843e cd15 f7bd 8ad2 0a3e
00000100: 66a2 97be 1ead 51be 29be 803e 92f6 93bd
00000110: 3f67 e53d 2430 0cbe c898 3dbe de7e 153e
00000120: 0db5 96bd cc7d 103e c427 2e3e 70df 08be
00000130: 740c 0e3e 710d 04be f694 d1bd 148d b33d
00000140: 59ea cd3d b43c 2e3e e343 b6bd a867 d33d
00000150: 543d 91be 7236 9cbe 8a75 193e 94d7 7f3b
00000160: e9e1 7a3e dc25 09bd 3154 ae3e 8f3a 803e
00000170: 88cd 0dbd 4ff6 373e 16b6 23be 410d f23d
00000180: 77b0 313e 4631 733d 8288 993e 5419 873e
00000190: 85a3 1fbe b83d b53d 188a a83e fe47 babd
000001a0: acad a2be e475 543e d0c1 ecbd 480e 8f3e
000001b0: 37fb 80be 4c59 563e 0d2d 6e3e b896 52be
000001c0: 2d65 cabd 71ac fd3d 0de6 c73d 551e 1abe
000001d0: a1f8 923d b6a1 12bd e27d 893d f684 463e
000001e0: 64a8 27be 4ce6 063e 7b32 7ebe 4139 8bbe
000001f0: 6708 61be 5b9c 823e f844 1f3e 9372 b73d
00000200: 85b3 1cbd bce8 76be e4bc b3bc d4a3 fcbd
00000210: bf79 963e a5c3 88be 1fad ecbd af9f 20be
00000220: e639 3a3e 4946 ed3d 65ee ac3e 4c2b 223e
00000230: 4d47 80be 7ee3 f33d 1443 31be 5102 59be
00000240: ce26 f7bd 6f7c 18be 0a78 6dbe becf 5d3e
00000250: 9825 9c3e c206 5ebd 1ba3 313e 54a7 89be
00000260: cb10 fa3d 2b62 0ebe 750d 5ebe 47f1 18be
00000270: 5f3a a13e 87d5 44be 23cd acbd 54cf 83be
00000280: fcd8 323e 753c d23d 3547 8f3e 7c37 febd
00000290: ceea 4dbe 1674 debd 6f16 5dbe b209 d03e
000002a0: db4d a03c 1668 3c3e e78d a6bd 1ee2 223d
000002b0: 0e7b 3c3e 9cd6 023e 4083 fa3d dfcd 5b3e
000002c0: 9aec 96be 89a1 ba3e 7be1 853d f44f ddbc
000002d0: 4ca9 02bb 6fd8 d13d 270b 3bbe 54dd 60be
000002e0: f0ad 9d3e 1d05 10bd b8cb 7cbe 5d4b 083e
000002f0: 77a9 a6be 83a0 f43d 70f5 19be 3903 2dbd
00000300: 80c1 f7bb bc55 a6be 92da b7be c595 3a3e
00000310: 53dc 823e b14b 243d 4234 16be 9d53 853e
00000320: e283 553e 7202 103e 4c83 f8bd 46b2 003e
00000330: 2998 3c3e df48 5b3e 2899 743e 007d 79be
00000340: ef3c c6bb 6981 f63a 3d7c debd 1eb5 b13e
00000350: 3ec5 b73d 1d9c b53d 2c7f 37be dd24 2dbe
00000360: f429 a13c ebc4 3a3e 1052 febd 3a44 923e
00000370: 51c3 cb3d 9e27 1ebc d67a 67be 6d4c 973e
00000380: 1681 cdbd 24b9 a23e 79c6 f43d c94f 4b3d
00000390: 5895 45be c3e8 4dbe 83d2 703e 276e 4dbe
000003a0: 4a54 243e 921e c13e f740 963e 7b98 89be
000003b0: ee79 12bc 9d7c e0bd f7ac 5a3e c5c5 20be
000003c0: e97c 8ebe a4c0 853e ecf5 053d 7ef3 223c
000003d0: e805 a4bd 481c 35be d9be 003d c7d4 7fbe
000003e0: 1b2d 55be c599 843e e4f0 c83d cf19 4a3d
000003f0: 37bb 573d 1650 033d 9d6e 913e 72e5 82be

fc1.bias f4 [128]
0.07411177 -0.032659244 -0.09240437 -0.12896083 -0.25464594 0.05452897 0.19762358 -0.10888721
0.21711193 -0.19193138 -0.18997264 0.23075679 -0.19131672 -0.07175157 0.29515988 -0.100814424
0.116052404 0.114944555 -0.090100735 0.062487014 -0.09647014 -0.19991203 0.25630665 -0.19557911
-0.20272204 -0.123033226 -0.10317104 -0.09346538 0.028910905 -0.015563941 -0.09235857 -0.044332765
-0.16369455 0.22703736 0.08597815 -0.15194693 0.03893905 -0.22809944 -0.15418774 0.17022008
-0.1102826 -0.22600849 0.059364974 -0.22298418 -0.2255598 0.2513267 -0.08859739 0.26525092
-0.23896222 9.470641e-06 -0.026073553 -0.01969379 0.1819154 0.08362902 0.089235246 -0.11611503
0.20718396 -0.17981145 0.14746499 0.23750299 0.28378692 0.17695037 -0.15824543 -0.18485914
0.17917079 -0.21859784 -0.107776605 0.19106175 0.21847357 -0.100714564 -0.29720846 0.15299931
-0.2257169 0.06796154 0.21681587 -0.24660979 0.20072432 -0.0578347 -0.0043980726 -0.2105185
0.2428919 -0.20217025 0.15929043 -0.10958741 -0.087590314 0.24792331 0.19073975 -0.15994415
-0.14560692 0.20730606 -0.047310814 -0.015680512 0.074450694 0.21658042 0.24037656 -0.253807
-0.03388941 0.07815303 0.15894794 -0.0143576125 0.3277305 0.2171712 -0.04278566 -0.020513391
-0.18489325 -0.055383492 -0.23331584 -0.17029838 0.08138352 -0.06484678 0.018014759 -0.120730996
0.13393019 -0.0025721285 -0.28288797 0.2543399 -0.09544108 0.01509 -0.13837036 0.3002755
0.17611372 0.2719879 0.14797138 0.14687355 -0.24499416 0.2552039 0.224488 -0.1757804
00000000: e9c7 973d b3c5 05bd 813e bdbd 4f0e 04be
00000010: f460 82be c559 5f3d d65d 4a3e 4200 dfbd
00000020: 9752 5e3e a989 44be 3088 42be 824b 6c3e
00000030: 88e8 43be 7df2 92bd 321f 973e cb77 cebd
00000040: e2ac ed3d 0d68 eb3d bc86 b8bd 62f2 7f3d
00000050: 2392 c5bd bdb5 4cbe a03a 833e e445 48be
00000060: 5e96 4fbe d8f8 fbbd 574b d3bd c76a bfbd
00000070: 90d6 ec3c e6ff 7ebc 7d26 bdbd 4696 35bd
00000080: 8b9f 27be 7b7c 683e 5015 b03d fa97 1bbe
00000090: 8e7e 1f3d e692 69be 64e3 1dbe 2c4e 2e3e
000000a0: d8db e1bd c56e 67be b028 733d f755 64be
000000b0: 26f9 66be e5ad 803e 8c72 b5bd f8ce 873e
000000c0: 83b2 74be 18e4 1e37 3498 d5bc df54 a1bc
000000d0: 0848 3a3e b145 ab3d f8c0 b63d b8cd edbd
000000e0: 0828 543e 7e20 38be 1001 173e fc33 733e
000000f0: 854c 913e 7a32 353e 170b 22be b74b 3dbe
00000100: 8c78 373e 1dd8 5fbe fbb9 dcbd b1a5 433e
00000110: 89b7 5f3e 7043 cebd b52b 98be daab 1c3e
00000120: 5522 67be 6b2f 8b3d fb04 5e3e 4787 7cbe
00000130: ad8a 4d3e 14e4 6cbd b51d 90bb 2992 57be
00000140: a7b8 783e b805 4fbe 081d 233e 5d6f e0bd
00000150: 8d62 b3bd 9cdf 7d3e 4851 433e 66c8 23be
00000160: fb19 15be 0a48 543e fcc8 41bd 6b74 80bc
00000170: 9b79 983d 42c7 5d3e 4625 763e fef2 81be
00000180: 9fcf 0abd b20e a03d 40c3 223e 313c 6bbc
00000190: 4bcc a73e 2162 5e3e 0440 2fbd b30b a8bc
000001a0: a854 3dbe cdd9 62bd 59ea 6ebe b362 2ebe
000001b0: 67ac a63d 63ce 84bd b093 933c d041 f7bd
000001c0: ff24 093e 2891 28bb b1d6 90be d738 823e
000001d0: 9d76 c3bd 0c3c 773c f6b0 0dbe b6bd 993e
000001e0: 2857 343e ff41 8b3e cf85 173e 0566 163e
000001f0: c0df 7abe 16aa 823e 2fe0 653e c7ff 33be

fc2.weight f4 [64, 128]
0.05784375 -0.03192276 0.054373 0.0321723 -0.048571575 0.07733173 0.07945372 0.048189875
0.1168068 -0.034135137 0.033829954 0.027876152 0.077425756 -0.0050246012 0.026130684 0.111796856
-0.046605825 -0.073745355 -0.02030611 0.0026483245 -0.009371175 -0.019172605 0.008581228 -0.06665959
-0.12623386 -0.058119327 0.12137795 -0.12532079 -0.06416197 -0.090352654 -0.010411268 0.003911834
-0.05368557 0.06884344 0.12555236 0.015782624 0.0026625728 -0.010125471 -0.047431167 0.06491109
0.026797667 -0.009955482 0.076836094 0.08313221 -0.014520831 -0.011338472 -0.11951833 -0.083602384
-0.015671693 0.025946172 0.061205316 0.044757333 -0.012154852 0.047307134 -0.07414071 -0.059233863
0.080324456 0.0052869166 -0.06650399 0.1345642 -0.035206053 -0.051060185 0.0073498227 0.13134718
-0.07180007 -0.03798448 -0.090054475 0.06767429 -0.02462368 0.097910725 -0.010981705 0.06270348
0.035148975 -0.0021153726 0.06679959 -0.011956348 -0.031248707 0.0030105696 -0.058881145 0.06194667
-0.05963603 -0.1274393 -0.038170297 0.03647812 0.06473898 -0.032809027 0.0963917 -0.014499628
0.040708914 -0.092220366 0.031019282 -0.14152554 -0.06474454 -0.06768284 0.099747814 0.039319944
-0.079679996 0.03162061 0.022339076 0.17701139 0.076670125 0.082484655 0.14280854 -0.0060267383
0.07310508 0.035985366 -0.07276135 0.037231054 -0.10083281 -0.07370803 0.022540422 0.12022599
0.061190624 0.03490138 -0.051774815 0.06855443 0.14704612 0.11419079 0.0305522 -0.13434249
-0.011245673 -0.015601422 -0.104057975 0.08901905 0.01397561 0.027886352 -0.015014959 0.052515145
-0.069978856 0.09537449 -0.008133376 -0.047045 0.0589619 0.041151226 -0.041410085 -0.013060572
0.061104283 -0.0028256986 -0.099528335 0.030089702 0.030314114 -0.11446271 0.09412174 0.096438095
0.06950275 0.08372355 0.08043134 0.14725293 -0.043849733 -0.018536111 -0.051080246 -0.041522123
-0.16141213 0.002921443 0.048244793 0.030591255 -0.12492008 0.2093123 -0.08265533 0.010594115
-0.03852811 0.033644427 0.0280186 -0.101914935 -0.0006601883 0.13037792 -0.059149515 -0.067113474
-0.10075337 -0.11496481 0.029990831 0.07552449 0.110755585 -0.0863213 0.08181772 -0.019840486
-0.014419382 0.12027729 -0.08327618 -0.07815692 0.04770444 0.06004785 -0.038396034 0.00921545
0.055862267 0.03474768 0.030826028 -0.052683458 0.024070181 -0.037361942 -0.00036268347 0.14327908
0.07610263 -0.026214331 -0.17856677 -0.095879376 0.012914896 0.018905165 0.03865217 -0.044874523
-0.015217697 0.042673226 0.13987744 -0.001776738 0.02842869 0.09057631 -0.008158589 -0.06502437
-0.010514224 -0.11253029 -0.01275795 -0.026337735 -0.013136768 0.003692943 0.15256383 0.16809508
-0.055371642 -0.030275114 -0.044620488 -0.045330912 -0.03893627 0.026818112 0.048664946 -0.040475037
0.066049814 0.0036173614 0.08957131 -0.00031458255 0.05653465 -0.03011259 -0.032150667 -0.014291805
-0.045895435 -0.0032618756 -0.09801865 -0.063443124 0.03892247 0.0030679025 -0.062221818 0.15061224
0.0696471 -0.047340404 -0.063315585 0.08005478 0.08968866 0.09215648 -0.11048987 -0.01715038
-0.051737513 0.05720668 -0.01356538 -0.10949756 0.048787177 0.11495782 0.045017984 0.056455202
00000000: 91ed 6c3d 71c1 02bd 39b6 5e3d 1ac7 033d
00000010: fdf2 46bd 1960 9e3d a2b8 a23d bf62 453d
00000020: 6738 ef3d 49d1 0bbd 4791 0a3d 875c e43c
00000030: 6591 9e3d 69a5 a4bb 0410 d63c c0f5 e43d
00000040: c0e5 3ebd ce07 97bd 0059 a6bc 838f 2d3b
00000050: 8f89 19bc de0f 9dbc 4798 0c3c d384 88bd
00000060: 7343 01be 880e 6ebd 0195 f83d 1854 00be
00000070: 5a67 83bd d00a b9bd 0694 2abc d82e 803b
00000080: 66e5 5bbd cafd 8c3d cc90 003e 904a 813c
00000090: 8f7e 2e3b 4ee5 25bc 2f47 42bd 1bf0 843d
000000a0: c886 db3c 511c 23bc 3e5c 9d3d 3841 aa3d
000000b0: c8e8 6dbc 00c5 39bc 07c6 f4bd ba37 abbd
000000c0: ec61 80bc 118d d43c 6db2 7a3d 7753 373d
000000d0: 2525 47bc 20c5 413d 16d7 97bd 359f 72bd
000000e0: 2681 a43d df3d ad3b 3e33 88bd 33cb 093e
000000f0: 3934 10bd 7c24 51bd c8d6 f03b e07f 063e
00000100: ea0b 93bd 9d95 1bbd 7b6e b8bd d198 8a3d
00000110: 9ab7 c9bc 6b85 c83d 9cec 33bc af6a 803d
00000120: 5ff8 0f3d 10a2 0abb 39ce 883d 8fe4 43bc
00000130: 4afd ffbc fa4c 453b 5b2d 71bd cbbb 7d3d
00000140: e944 74bd 737f 02be 7558 1cbd 156a 153d
00000150: df95 843d c262 06bd 0369 c53d d98f 6dbc
00000160: 64be 263d 08de bcbd 261c fe3c 12ec 10be
00000170: c998 84bd 4d9d 8abd 9548 cc3d f30d 213d
00000180: 442f a3bd 9d84 013d 7000 b73c 7942 353e
00000190: 3a05 9d3d b7ed a83d 673c 123e f27b c5bb
000001a0: 1eb8 953d 6465 133d e703 95bd 977f 183d
000001b0: 6f81 cebd 3cf4 96bd b1a6 b83c 0b39 f63d
000001c0: 05a3 7a3d c0f4 0e3d d411 54bd 4466 8c3d
000001d0: 4293 163e dcdc e93d 9b48 fa3c 1491 09be
000001e0: c53f 38bc 1b9d 7fbc 591c d5bd 9f4f b63d
000001f0: f5f9 643c eb71 e43c 4d01 76bc 1f1a 573d
00000200: 1351 8fbd b353 c33d da41 05bc 42b2 40bd
00000210: 0982 713d 308e 283d 9f9d 29bd 02fc 55bc
00000220: 7c48 7a3d 5b2f 39bb 83d5 cbbd ae7e f63c
00000230: 4e55 f83c 6d6b eabd e6c2 c03d 5681 c53d
00000240: 7557 8e3d 4177 ab3d 30b9 a43d 79c9 163e
00000250: c79b 33bd 0bd9 97bc 8539 51bd 1a13 2abd
00000260: 3949 25be ae75 3f3b 559c 453d 839a fa3c
00000270: 19d6 ffbd f755 563e 3347 a9bd f092 2d3c
00000280: a7cf 1dbd bdce 093d 4387 e53c c7b8 d0bd
00000290: 7d10 2dba ca81 053e c346 72bd ca72 89bd
000002a0: c857 cebd ac72 ebbd 55af f53c 95ac 9a3d
000002b0: d3d3 e23d 39c9 b0bd 0c90 a73d 8488 a2bc
000002c0: 463f 6cbc f153 f63d b48c aabd bc10 a0bd
000002d0: bb65 433d bcf4 753d 2945 1dbd 66fc 163c
000002e0: d5cf 643d 9553 0e3d de86 fc3c 9cca 57bd
000002f0: d42e c53c d608 19bd 8d26 beb9 c0b7 123e
00000300: b2db 9b3d 70bf d6bc 35da 36be 685c c4bd
00000310: 0099 533c 01df 9a3c bd51 1e3d 59ce 37bd
00000320: a653 79bc 1fca 2e3d 083c 0f3e 6fe1 e8ba
00000330: 49e3 e83c 1380 b93d 9aab 05bc 7f2b 85bd
00000340: da43 2cbc 4876 e6bd b906 51bc 3cc2 d7bc
00000350: 993b 57bc 4d05 723b b139 1c3e 1e21 2c3e
00000360: 60cd 62bd 8403 f8bc f9c3 36bd e8ac 39bd
00000370: a37b 1fbd a8b1 db3c e554 473d 27c9 25bd
00000380: 2045 873d 4111 6d3b 2a71 b73d 8eee a4b9
00000390: e190 673d aeae f6bc 6bb0 03bd 2d28 6abc
000003a0: dafc 3bbd 31c5 55bb 01be c8bd 78ee 81bd
000003b0: 2b6d 1f3d dd0e 493b 4edc 7ebd 183a 1a3e
000003c0: 24a3 8e3d 03e8 41bd 9aab 81bd c3f3 a33d
000003d0: b0ae b73d 89bc bc3d 8348 e2bd f47e 8cbc
000003e0: b7ea 53bd 8d51 6a3d 5441 5ebc 4240 e0bd
000003f0: 10d5 473d 016f eb3d c764 383d 923d 673d

fc2.bias f4 [64]
0.08941062 0.060562544 -0.035957146 -0.025088795 -0.082350336 -0.054720774 -0.053023983 0.035400115
0.0354455 0.08232542 -0.044258855 0.04950139 -0.021999588 0.02984214 0.08754483 -0.023365488
0.11552596 0.02157538 0.054732803 -0.05785216 -0.004897318 0.09826712 -0.0747456 -0.009373977
0.002079142 -0.04190657 0.0489988 -0.052281927 0.02388932 0.061304335 0.066261426 -0.0013026743
-0.042772938 -0.071172655 0.1148532 -0.05986929 0.0005309647 0.01807954 0.08903866 -0.06683467
0.070830405 0.004129748 0.01234001 0.055156898 0.029558565 -0.06936259 -0.016935704 -0.016306093
0.047127753 -0.069455974 0.0010972499 0.058070604 0.07525061 0.081936985 0.060272146 -0.033469237
-0.05674499 0.0003732059 0.037574954 -0.06984486 0.011321236 0.06938496 -0.008265963 0.040002394
00000000: ea1c b73d 6e10 783d cd47 13bd 0487 cdbc
00000010: 4ba7 a8bd e422 60bd ad2f 59bd b6ff 103d
00000020: 4d2f 113d 3b9a a83d c648 35bd f8c1 4a3d
00000030: 7b38 b4bc 8177 f43c b44a b33d fb68 bfbc
00000040: e098 ec3d dabe b03c 812f 603d 63f6 6cbd
00000050: ae79 a0bb 4640 c93d 3914 99bd 4f95 19bc
00000060: 3742 083b 39a6 2bbd f7b2 483d 9325 56bd
00000070: 89b3 c33c 411a 7b3d 12b4 873d 7fbe aaba
00000080: ad32 2fbd f8c2 91bd 2838 eb3d 8039 75bd
00000090: 7030 0b3a 8b1b 943c e759 b63d 9ee0 88bd
000000a0: 880f 913d d652 873b c12d 4a3c 33ec 613d
000000b0: ce24 f23c f90d 8ebd bfbc 8abc 5b94 85bc
000000c0: 0809 413d ef3e 8ebd 99d1 8f3a 71db 6d3d
000000d0: fe1c 9a3d 94ce a73d eddf 763d 0a17 09bd
000000e0: 6f6d 68bd d9aa c339 32e8 193d d20a 8fbd
000000f0: b57c 393c b419 8e3d f66d 07bc 8dd9 233d

fc3.weight f4 [3, 64]
0.022129575 0.051873967 -0.03924664 -0.18362595 -0.08595972 -0.07089845 -0.116537444 -0.09153194
-0.054332573 0.011613467 0.04077401 0.19980507 -0.11048363 0.16940118 -0.006500148 -0.00021889567
0.16804405 0.09246163 0.08272813 0.088137284 0.22716302 0.16461688 0.053355683 -0.07277858
0.09966281 -0.13045844 -0.0796255 -0.037189044 -0.02764739 -0.009295547 -0.21378356 -0.09448505
0.11787704 -0.0984019 -0.11597178 0.18378471 -0.12102831 0.024233313 0.10231796 0.080701634
-0.11856894 -0.11218042 -0.17490715 -0.08578328 0.057762165 0.07927664 -0.098203264 0.0049022185
0.07856838 0.06151108 -0.0059796153 0.09237355 -0.07007781 0.111597665 0.1713327 0.05278444
-0.057671264 -0.23730786 0.067402735 0.07123802 0.20149231 0.19915849 -0.042779658 0.11485606
0.15217614 0.030093543 0.08896724 0.04787999 -0.08500134 -0.1327916 -0.06564942 -0.102889724
-0.08588566 0.12167999 -0.12596992 -0.011315168 0.10188996 -0.1094705 0.13607308 0.03393443
0.054798946 -0.019790411 0.109591715 -0.1008801 -0.1258656 -0.18727702 0.06735399 -0.028389752
0.05458397 0.21593969 -0.14182113 0.19893295 -0.050544415 0.07963175 0.18953235 0.18898836
0.09780893 -0.1623405 0.14541028 -0.00038872354 0.08531037 -0.16650474 -0.09580483 -0.17901951
-0.018159358 0.11802989 0.0063142045 -0.05975355 0.086756386 -0.0793281 0.021314112 -0.16111146
0.13566735 -0.12163679 0.03135099 0.15632418 0.060848337 -0.12841465 -0.07282927 -0.07737262
-0.09961426 -0.029402358 -0.11320252 -0.010784119 -0.06116963 -0.00686031 -0.05607097 0.09757873
-0.07661937 -0.20178346 -0.06797317 0.15143661 0.14244354 0.14589216 0.16963656 0.06664781
0.18481252 -0.17132634 0.15870616 0.14958984 0.12250042 0.12000756 -0.221957 0.16849326
-0.22592966 -0.15687037 0.006535118 -0.059158042 -0.14454299 -0.043443047 0.013261556 0.16173112
-0.026297979 -0.011429848 0.112896375 0.108943075 0.024169993 -0.22787459 0.027147105 -0.075085014
-0.049480394 0.16555521 -0.028377628 0.1696411 0.14030752 0.12894002 -0.16718751 0.14949681
-0.056450974 -0.10087208 -0.08322035 0.043006867 -0.06506195 0.09327952 0.16002506 0.10141675
-0.21390906 0.14361493 -0.17558526 -0.1672921 0.1499611 0.07507849 0.043151703 -0.07286664
0.16692731 0.12121289 0.07484352 0.040588334 -0.008768058 -0.14887637 -0.09785906 -0.10588244
00000000: 1549 b53c cc79 543d 16c1 20bd 7108 3cbe
00000010: a60b b0bd 3533 91bd 2fab eebd 1975 bbbd
00000020: d58b 5ebd 6946 3e3c a602 273d b399 4c3e
00000030: 3e45 e2bd 8177 2d3e 32ff d4bb 5c87 65b9
00000040: bd13 2c3e 865c bd3d 5e6d a93d 5281 b43d
00000050: 6c9d 683e 5491 283e 7d8b 5a3d f00c 95bd
00000060: 041c cc3d e696 05be b212 a3bd 8a53 18bd
00000070: c77c e2bc 5a4c 18bc 14ea 5abe 6181 c1bd
00000080: 8469 f13d ef86 c9bd 9d82 edbd 0f32 3c3e
00000090: b1dd f7bd f184 c63c 148c d13d e646 a53d
000000a0: 46d4 f2bd d9be e5bd dc1a 33be 25af afbd
000000b0: 0598 6c3d cb5b a23d cb1e c9bd caa2 a03b
000000c0: 75e8 a03d 0bf3 7b3d a6f0 c3bb 582e bd3d
000000d0: f484 8fbd 518d e43d d771 2f3e 7f34 583d
000000e0: b438 6cbd d500 73be 720a 8a3d 3de5 913d
000000f0: 0054 4e3e 34f0 4b3e b939 2fbd a739 eb3d
00000100: 10d4 1b3e bc86 f63c 7534 b63d cf1d 443d
00000110: 2f15 aebd 85fa 07be 3473 86bd d9b7 d2bd
00000120: d2e4 afbd 5c33 f93d 42fe 00be 4163 39bc
00000130: afab d03d 1232 e0bd be56 0b3e d4fe 0a3d
00000140: dc74 603d 801f a2bc 9f71 e03d 3a9a cebd
00000150: e9e2 00be 8cc5 3fbe e4f0 893d a091 e8bc
00000160: 7193 5f3d 4b1f 5d3e 8f39 11be 14b5 4b3e
00000170: a907 4fbd f915 a33d c514 423e 2a86 413e
00000180: 0c50 c83d 973c 26be 6fe6 143e 97cd cbb9
00000190: 34b7 ae3d 3880 2abe 5335 c4bd e450 37be
000001a0: efc2 94bc a8b9 f13d 63e7 ce3b 23c0 74bd
000001b0: 55ad b13d c576 a2bd ef9a ae3c 67fa 24be
000001c0: 62ec 0a3e b61c f9bd e569 003d 7213 203e
000001d0: 1b3c 793d 217f 03be 8327 95bd 8975 9ebd
000001e0: 9002 ccbd 37dd f0bc b9d6 e7bd e0af 30bc
000001f0: 028d 7abd 74cc e0bb acaa 65bd 5bd7 c73d
00000200: 9eea 9cbd 53a0 4ebe 8435 8bbd 3312 1b3e
00000210: b8dc 113e c164 153e 35b5 2d3e a67e 883d
00000220: 7e3f 3d3e 2c70 2fbe de83 223e 142e 193e
00000230: 80e1 fa3d 86c6 f53d b248 63be 7f89 2c3e
00000240: 1b5a 67be a0a2 20be 8b24 d63b b44f 72bd
00000250: 1403 14be 56f1 31bd ff46 593c d89c 253e
00000260: dc6e d7bc 4244 3bbc 3736 e73d 8c1d df3d
00000270: 2600 c63c f557 69be 9b63 de3c 2cc6 99bd
00000280: f4ab 4abd 4e87 293e 3378 e8bc 66b6 2d3e
00000290: c6ac 0f3e da08 043e 3433 2bbe b115 193e
000002a0: 2339 67bd 0596 cebd 6e6f aabd f827 303d
000002b0: 333f 85bd 5509 bf3d 9cdd 233e 96b3 cf3d
000002c0: fa0a 5bbe cb0f 133e 9fcc 33be 9f4e 2bbe
000002d0: 678f 193e c0c2 993d d7bf 303d 1b3b 95bd
000002e0: feee 2a3e 773e f83d 8f47 993d f43f 263d
000002f0: e7a7 0fbc 0c73 18be 556a c8bd e5d8 d8bd

fc3.bias f4 [3]
-0.059443608 0.022693291 0.09480386
00000000: 247b 73bd 48e7 b93c 8728 c23d
