weights/agent_pytorch.pt (torch, 42628 bytes, 6 tensors)

fc1.weight f4 [128, 11]
0	0x3df8a1da	0.12140246
1	0x3cbe142c	0.023202978
2	0x3e687954	0.22702533
3	0xbd59e16a	-0.053193487
4	0x3e9b4290	0.3032422
5	0x3e48ea11	0.19620539
6	0xbd634354	-0.05548413
7	0x3ce5b1fe	0.028038975
8	0x3e5844e9	0.21120037
9	0xbcf535be	-0.029932853
10	0xbe4185fc	-0.18898767
11	0xbe2eb9ed	-0.17063113
12	0x3e89294a	0.26789314
13	0x3def2f3e	0.116789326
14	0x3df67ce1	0.120355375
15	0xbe1a3a59	-0.1506132
16	0x3e8bd2b7	0.273092
17	0x3e3534cd	0.17695923
18	0xbdf068b0	-0.117387176
19	0xbe4b1c39	-0.19834985
20	0xbe398ed2	-0.18120888
21	0x3e8bbdf3	0.27293357
22	0xbddcffeb	-0.10791
23	0x3e58abdd	0.2115931
24	0x3e6ab8b7	0.22922026
25	0xbe06cb42	-0.13163474
26	0xbd245116	-0.040116392
27	0x3dca9ec0	0.098935604
28	0xbe8d3897	-0.27582237
29	0x3cb0fc84	0.021604784
30	0x3e283b6a	0.16428915
31	0xbdd24b34	-0.1026825
32	0x3de07b3a	0.109610036
33	0xbe31057c	-0.17287248
34	0xbddc9265	-0.1077011
35	0x3c9b3aa2	0.018948857
36	0x3def2fcf	0.11679041
37	0xbe16c6a2	-0.1472421
38	0xbe5ba9b2	-0.21451452
39	0xbdab2169	-0.08355982
40	0xbdf2f2e6	-0.118627355
41	0x3c8788c3	0.016544705
42	0x3e2c720e	0.16840383
43	0x3e8e3c91	0.27780584
44	0x3e5db835	0.216523
45	0x3d7e669d	0.06210958
46	0x3d937ac4	0.0720115
47	0xbe0d6074	-0.13806325
48	0x3e271d4a	0.16319767
49	0x3da825f7	0.08210366
50	0x3e25ab35	0.16178592
51	0x3e8b4975	0.2720448
52	0xbe505771	-0.20345856
53	0x3e873eb9	0.2641504
54	0xbe75f2c1	-0.24018385
55	0xbe758eff	-0.2398033
56	0xbe891be2	-0.26779085
57	0xbe626fbf	-0.2211294
58	0x3e6d893e	0.23196885
59	0x3e95bcc7	0.29245588
60	0x3e36d627	0.1785513
61	0xbe45553d	-0.19270797
62	0x3e02d28c	0.1277563
63	0x3e2c779e	0.16842505
64	0xbe2ff9b2	-0.17185095
65	0xbe8448cd	-0.25836793
66	0xbe1c96d9	-0.15291919
67	0xbd40f047	-0.047104146
68	0xbdabdd70	-0.08391845
69	0x3e3a0f5e	0.18169925
70	0x3e8764d1	0.26444104
71	0x3e5f3c90	0.21800447
72	0xbe53e2df	-0.20692013
73	0xbe25cd8f	-0.16191696
74	0x3e6a5331	0.22883298
75	0xbe4bf1a3	-0.19916396
76	0xbe1083db	-0.14112799
77	0xbe08a6fd	-0.13344951
78	0xbdeb0244	-0.114750415
79	0x3e067c99	0.13133468
80	0xbd35cecd	-0.044386674
81	0xbd9a86a5	-0.07545213
82	0x3dbccddf	0.09218954
83	0x3e8b3bd4	0.27194083
84	0xbe121782	-0.1426678
85	0x3c8ee9a1	0.017445387
86	0x3e692dfb	0.22771446
87	0xbe4af870	-0.19821334
88	0x3e041b57	0.12901054
89	0x3e481ba4	0.19541794
90	0xbd839855	-0.064255394
91	0xbd5a756b	-0.053334635
92	0x3d84187e	0.06449984
93	0xbe6cd020	-0.23126268
94	0x3e43276e	0.1905801
95	0xbd101656	-0.03517755
96	0xbda6d6f0	-0.08146465
97	0x3e5a8c4f	0.21342586
98	0xbe0c78ce	-0.13717958
99	0x3cf76357	0.030198736
100	0x3e534048	0.2062999
101	0xbdb00e3d	-0.08596466
102	0x3e7b0602	0.2451401
103	0xba4883d2	-0.0007649037
104	0x3e8a9406	0.27066058
105	0x3e902395	0.28152147
106	0xbd3e33d1	-0.046436135
107	0x3d82c9e7	0.06386166
108	0xbe5f3aaf	-0.2179973
109	0x3d8aa456	0.06769626
110	0xbe130986	-0.14359102
111	0x3e77f56c	0.24214715
112	0x3e381040	0.17974949
113	0xbe7ab7dc	-0.244842
114	0xbdc4ad1a	-0.09603329
115	0x3d62a387	0.055331733
116	0x3dd704a1	0.1049893
117	0xbc1179d7	-0.008879147
118	0xbe293d2a	-0.16527238
119	0x3cd2a6bc	0.02571427
120	0xbe8a94b1	-0.27066568
121	0xbe560e44	-0.2090388
122	0x3db3b012	0.08773817
123	0xbe8460af	-0.25855014
124	0x3e8d69d5	0.27619806
125	0x3dbd879a	0.092543796
126	0xbafab4e9	-0.0019127402
127	0x3db5d387	0.08878236
128	0x3e24329a	0.16034928
129	0x3e42347a	0.1896533
130	0x3da4f925	0.08055333
131	0xbe5c2c10	-0.21501184
132	0x3e8f95c2	0.28043944
133	0x3e8b7f50	0.2724557
134	0xbe5968d5	-0.21231396
135	0xbe377cc6	-0.17918691
136	0x3e0f2191	0.13977648
137	0x3dfabcb7	0.12243026
138	0xbe22cb2c	-0.15897816
139	0xbe2c5133	-0.1682785
140	0x3d932055	0.07183901
141	0xbd990e37	-0.074734144
142	0x3e927514	0.2860495
143	0xbe8ee237	-0.27906963
144	0x3c14b972	0.009077417
145	0x3e5c6a95	0.21525033
146	0x3e56deb9	0.209834
147	0xbe0cf500	-0.13765335
148	0xbddab9fe	-0.106800064
149	0x3e85d956	0.26142377
150	0xbe8cd44a	-0.27505714
151	0x3e84b95d	0.2592267
152	0x3e8f25a2	0.279584
153	0xbc8db072	-0.01729605
154	0xbb97b86c	-0.004630139
155	0x3e848157	0.25879928
156	0x3ca5e552	0.02025095
157	0x3dbf169d	0.09330485
158	0x3d5958a4	0.05306305
159	0x3e883c90	0.26608706
160	0x3c01ef7c	0.007930633
161	0xbc79cacd	-0.015246105
162	0x3e9806b1	0.29692605
163	0x3e030b46	0.12797269
164	0x3e22c475	0.15895255
165	0xbe171737	-0.1475495
166	0xbb4ae0fe	-0.003095686
167	0x3e621847	0.22079574
168	0x3e658415	0.22413667
169	0x3e853090	0.26013613
170	0xbb9ea4fa	-0.004841444
171	0xbdf09a79	-0.11748213
172	0x3def0f0b	0.11672791
173	0x3d744223	0.059633385
174	0xbd7ded4d	-0.061993886
175	0xbe847493	-0.2587019
176	0xbe88d97e	-0.26728433
177	0xbe3ac201	-0.18238069
178	0x3d0a38f5	0.033745725
179	0xbe822d96	-0.25425404
180	0xbdac7c78	-0.08422178
181	0xbe2deac4	-0.16984087
182	0x3e900f5f	0.28136727
183	0xbdd8077a	-0.10548301
184	0xbe0cddef	-0.13756536
185	0xbd94fa74	-0.07274333
186	0x3d03b2e2	0.032153018
187	0x3e06c5aa	0.1316134
188	0x3e442a65	0.19156797
189	0xbdceb869	-0.10093767
190	0x3e14a475	0.1451586
191	0x3e85fe96	0.26170796
192	0xbd5c40bc	-0.053772673
193	0x3e2a3a9d	0.16623922
194	0x3e2ecf70	0.17071319
195	0x3e174e6b	0.14776008
196	0xbc06fa6a	-0.008238414
197	0xbdd5d3c3	-0.10440781
198	0x3e69c7ec	0.2283017
199	0x3ea4f2e0	0.3221655
200	0xbe8313c6	-0.25601023
201	0xbe97b2d6	-0.29628628
202	0xbe5b0470	-0.21388412
203	0xbe1d7e58	-0.15380228
204	0x3da0b9ac	0.07847914
205	0x3c64212e	0.013923926
206	0x3d904fb9	0.07046456
207	0x3db98814	0.09059158
208	0x3e9b62ad	0.3034872
209	0xbdf6ec09	-0.12056739
210	0x3e57a960	0.21060705
211	0x3e313a09	0.17307295
212	0x3e2da25e	0.1695647
213	0xbe14e233	-0.14539413
214	0x3dbe6874	0.092972666
215	0x3e7ef292	0.2489722
216	0x3e2b9482	0.1675587
217	0x3e8ed0ac	0.2789358
218	0xbe61972a	-0.22030321
219	0xbdf18dde	-0.11794637
220	0x3e434d5b	0.19072478
221	0xbe84ec49	-0.2596152
222	0x3dd2db48	0.10295731
223	0xbdb787b4	-0.0896143
224	0xbdafbec2	-0.08581306
225	0xbda656fe	-0.08122061
226	0x3d72e844	0.059303537
227	0xbe17cf8a	-0.14825264
228	0x3d7a6a37	0.06113645
229	0xbe319b1f	-0.1734433
230	0xbe87fa55	-0.26558176
231	0x3e259a86	0.16172227
232	0x3e83da75	0.25752607
233	0xbc808418	-0.015687987
234	0x3e81b18c	0.2533077
235	0xbe4c83b5	-0.19972117
236	0xbe36f972	-0.17868593
237	0xbe0bf14e	-0.13666269
238	0x3e191217	0.14948307
239	0x3d7628e2	0.060097583
240	0x3d21449f	0.039372083
241	0x3dd129f6	0.102130815
242	0xbe08dace	-0.13364717
243	0xbe25c1c6	-0.161872
244	0xbdb3e607	-0.087841086
245	0x3e7e6966	0.24844894
246	0x3debe294	0.11517826
247	0xbe032cee	-0.12810108
248	0x3decec36	0.11568491
249	0xb9a47c21	-0.00031373
250	0xbc8a6944	-0.016895898
251	0xbd1434de	-0.03618323
252	0x3e59f4d5	0.21284802
253	0xbe944f26	-0.28966635
254	0x3cc357dd	0.023845607
255	0xbe0916a9	-0.1338755

fc1.bias f4 [128]
0	0x3e41022b	0.18848483
1	0x3e54df3c	0.20788282
2	0x3ccbef24	0.024894305
3	0xbc8b6e9e	-0.01702052
4	0x3e09d1ff	0.13459013
5	0x3e4249da	0.18973485
6	0x3dc4a570	0.09601867
7	0x3e4b9152	0.19879654
8	0xbdf4bf3b	-0.11950537
9	0xbd0adf17	-0.03390416
10	0x3c2edeb6	0.010673216
11	0xbd6c7d5b	-0.057736736
12	0xbe5ed52e	-0.21761009
13	0xbd18c51f	-0.037297364
14	0x3e9ef05d	0.31042758
15	0x3e930aaf	0.28719088
16	0x3d5367f7	0.05161282
17	0x3e7ea29e	0.24866721
18	0x3ea31d63	0.31858358
19	0x3d42fb84	0.047603145
20	0x3dc03735	0.0938553
21	0x3e672a42	0.22574714
22	0xbe615bc2	-0.22007659
23	0x3e477314	0.19477493
24	0xbe956953	-0.29181919
25	0xbe28842d	-0.16456671
26	0xbe61ec23	-0.22062735
27	0xbd10692c	-0.03525655
28	0xbe5f68ef	-0.21817373
29	0xbe20b0df	-0.15692471
30	0x3e8c00e4	0.2734443
31	0xbb6bbd51	-0.0035970996
32	0x3ded19f1	0.115772136
33	0x3dc4b52a	0.09604867
34	0xbdc4a01e	-0.096008524
35	0xbe4d2018	-0.20031774
36	0x3e9970ec	0.29968965
37	0x3e6a1281	0.22858621
38	0xbc8d94cb	-0.017282864
39	0xbb804866	-0.0039148806
40	0xbdaab6eb	-0.0833567
41	0x3dfbfe8c	0.1230441
42	0xbda90c8b	-0.082543455
43	0x3e923eb7	0.28563473
44	0xbe7bd8ad	-0.24594374
45	0x3e35963b	0.1773309
46	0xbe6ce556	-0.2313436
47	0xbe077cc1	-0.13231184
48	0x3c9613f0	0.018320054
49	0x3d01716c	0.03160231
50	0xbd93ceec	-0.072172016
51	0xbdf22472	-0.11823358
52	0x3e64b322	0.22333959
53	0x3d17c5b9	0.037053797
54	0x3b933d8d	0.0044934214
55	0xbcd1e93d	-0.025623912
56	0xbd8bb79b	-0.06822129
57	0x3e233cab	0.15941112
58	0x3e065fe6	0.1312252
59	0x3d300fab	0.042983692
60	0x3d572760	0.052527785
61	0x3c916de1	0.01775259
62	0x3c4a1192	0.012333291
63	0x3c9caae5	0.019124458
64	0xbd974866	-0.07386856
65	0x3e0c02b6	0.13672909
66	0x3dae72cd	0.0851799
67	0x3e1fe6c5	0.15615375
68	0x3e4a61af	0.19763826
69	0xbdb4199c	-0.08793947
70	0x3d836c35	0.06417123
71	0x3e97dd71	0.29661134
72	0x3e0fc681	0.14040567
73	0xbdb9b96d	-0.0906857
74	0x3c82ff80	0.015990973
75	0xbe87630a	-0.26442748
76	0x3e6b6cc8	0.22990716
77	0xbe6b05c1	-0.22951414
78	0x3ddae812	0.10688795
79	0xbde6095b	-0.11232253
80	0x3e324c57	0.17411934
81	0xbe7050ed	-0.2346837
82	0x3db50dd4	0.08840528
83	0xbe6b10a6	-0.2295557
84	0x3db729eb	0.08943542
85	0x3e8177c0	0.25286674
86	0xbe898520	-0.2685938
87	0x3e7c19b6	0.24619183
88	0xbe6bed52	-0.2303975
89	0x3e1de39f	0.15418862
90	0xbe0fd09d	-0.14044423
91	0x3d19b8cf	0.037529763
92	0xbd01af4d	-0.03166132
93	0x3e87c37f	0.2651634
94	0xbe563076	-0.20916924
95	0xbdddb687	-0.1082583
96	0xbe4643e7	-0.1936184
97	0x3e90cbbe	0.28280443
98	0x3e413361	0.18867256
99	0x3e8fccb1	0.28085855
100	0xbcdb263f	-0.026751636
101	0x3d1d6deb	0.038434904
102	0xbe884f50	-0.2662301
103	0x3d3610ac	0.044449493
104	0xbcd4c7a6	-0.025974106
105	0x3e4146f6	0.18874726
106	0xbe4bd5a8	-0.19905722
107	0x3d9c34dd	0.0762727
108	0x3dba49bd	0.09096096
109	0xbcb528c6	-0.022114169
110	0xbd9674c9	-0.07346494
111	0xbd865c6c	-0.06560597
112	0x3e6340b9	0.22192658
113	0x3e9405b2	0.28910595
114	0x3e2cf007	0.16888438
115	0x3e9e0191	0.3086057
116	0x3e955936	0.29169625
117	0x3e2d5a61	0.16929008
118	0xbb62ef64	-0.0034627551
119	0x3da13cef	0.0787295
120	0x3df0ea08	0.11763388
121	0xbe519863	-0.20468287
122	0x3e123f85	0.14282043
123	0xbc7ee6c3	-0.015557948
124	0xbe25ece4	-0.16203648
125	0x3dd6c149	0.10486085
126	0x3cc781db	0.024353912
127	0xbdfa776b	-0.122298084

fc2.weight f4 [64, 128]
0	0x3d50e4d6	0.050999485
1	0xbd0c04f0	-0.034184396
2	0x3d2050f2	0.039139695
3	0xbd736f9a	-0.059432603
4	0x3d36b5c8	0.044606954
5	0x3d53a190	0.05166775
6	0xbc572e82	-0.013133647
7	0x3d59df7b	0.053191643
8	0x3d2d0868	0.042244345
9	0x3cbeb3ae	0.023279037
10	0xbd46c4c3	-0.04852749
11	0xbd41311d	-0.04716598
12	0xbd119b2c	-0.035548374
13	0xbcfe3e08	-0.031035438
14	0x3cf3b47b	0.029749146
15	0xbb3e3eb4	-0.0029029073
16	0xbd58ae4e	-0.052900605
17	0x3daf5b4f	0.085623376
18	0x3dbc4564	0.09192923
19	0x3d4272af	0.047472652
20	0xbd86479d	-0.06556628
21	0x3d022b27	0.031779435
22	0xbcdfc80f	-0.027317075
23	0xbd671581	-0.056416992
24	0x3cf43e3b	0.02981483
25	0xbd65107a	-0.055923916
26	0xbd08cc8c	-0.033398196
27	0x3c4a0bd7	0.012331924
28	0xbdb01b69	-0.08598978
29	0x3d035747	0.032065656
30	0x3d98f94a	0.07469423
31	0xbd852f15	-0.06503121
32	0xbb0363e6	-0.0020048558
33	0xbd26ccaa	-0.040722527
34	0xbd3a8319	-0.04553518
35	0xbd317765	-0.043326754
36	0xbd066df6	-0.03281971
37	0xbd499daf	-0.049222644
38	0xbd72140c	-0.05910115
39	0x3b907e89	0.0044096154
40	0xbc79772e	-0.015226169
41	0xbcd0e0e7	-0.025497867
42	0x3da00efc	0.07815358
43	0xbcd33a96	-0.025784772
44	0x3cc3961f	0.023875294
45	0xbd20ff4d	-0.039305974
46	0xbd533eab	-0.051573437
47	0x3d41d510	0.047322333
48	0x3cf00480	0.02929902
49	0xbd3d98fa	-0.046288468
50	0xbd5574ea	-0.05211345
51	0x3c9c85e6	0.019106817
52	0xbd8b38cc	-0.067979425
53	0x3c3890f2	0.011265026
54	0x3bd344b9	0.0064474014
55	0xbc5bab8a	-0.013407597
56	0x3d984879	0.07435698
57	0xbd58fc5d	-0.052975047
58	0x3ce8ca8d	0.028416896
59	0x3d1d32a9	0.03837839
60	0x3d96434c	0.073370546
61	0xbd4a83e1	-0.049442176
62	0x3bf1ba50	0.0073769465
63	0x3c705c98	0.014670514
64	0x3c91b7c5	0.017787823
65	0xbd81835d	-0.06323884
66	0x3d76afde	0.060226314
67	0xbd0cc630	-0.034368694
68	0x3bf3f46f	0.0074449102
69	0xbd8e37d9	-0.06944246
70	0x3d3eb85e	0.046562545
71	0x3dd77dc7	0.10522037
72	0xbd9c085c	-0.07618782
73	0x3d9d5d4b	0.0768381
74	0xbcafd70b	-0.021464845
75	0x3d25558d	0.04036479
76	0x3dc32bb0	0.09529817
77	0xbcff44ea	-0.03116079
78	0xbdb6450f	-0.08899891
79	0x3d2fa153	0.04287846
80	0x3d5982f4	0.053103402
81	0x3d9616b9	0.07328553
82	0xbd3c14fd	-0.045918453
83	0x3d2cbe20	0.042173505
84	0xbcc3fb81	-0.023923637
85	0x3d6928c2	0.056923635
86	0xbca442d3	-0.020051396
87	0xbd2c5a69	-0.04207841
88	0x3d831663	0.06400754
89	0xbd84c63a	-0.06483121
90	0x3d40c373	0.047061395
91	0x3d75ae63	0.05998076
92	0x3cb5d886	0.022197973
93	0xbc49bedf	-0.012313574
94	0xbd31e4ae	-0.043430977
95	0xbd5a409a	-0.053284265
96	0xbd88d9e0	-0.06682181
97	0xbabebddb	-0.0014552431
98	0x3db574e4	0.08860186
99	0xbcf14ff2	-0.029457066
100	0x3bc5124e	0.006014145
101	0xbd4cacf0	-0.049969614
102	0xbd40c7a4	-0.047065392
103	0xbd1f7914	-0.03893383
104	0xbd58aa2c	-0.052896664
105	0xbd31d75f	-0.043418285
106	0xbbec8056	-0.0072174473
107	0xbd739b37	-0.059474196
108	0x3d178a0c	0.036996886
109	0x3d7a0122	0.061036237
110	0xbcc0a7b6	-0.02351747
111	0xbccc803a	-0.024963487
112	0x3c01daff	0.007925748
113	0xbd73f46b	-0.059559267
114	0x3c22a6ee	0.009927494
115	0x3d863390	0.065528035
116	0x3d36e768	0.04465428
117	0x3d5ba541	0.053624395
118	0x3d20f598	0.039296716
119	0x3d0b7075	0.034042794
120	0x3d66c12a	0.05633656
121	0x3cf4d9b1	0.02988896
122	0xbc34c005	-0.011032109
123	0x3dc908c2	0.098161235
124	0xbd18f901	-0.037346844
125	0xbd9e1917	-0.07719629
126	0xbd668f88	-0.056289226
127	0x3d550c3e	0.05201363
128	0xbd56236e	-0.052279882
129	0xbd0afe15	-0.033933718
130	0xbcca23c5	-0.02467526
131	0x3c0036ec	0.007825594
132	0x3d161f6c	0.03665106
133	0x3d9cbc52	0.07653107
134	0xbdc009fb	-0.093769036
135	0xbda17ee1	-0.07885528
136	0xbd7d1649	-0.06178883
137	0x3d85cd6b	0.06533321
138	0x3bd6316a	0.0065366523
139	0x3d1ee71b	0.038794618
140	0x3c8eef34	0.017448045
141	0xbce3a688	-0.02778937
142	0x3caf6371	0.021409722
143	0xbdae5bd2	-0.08513607
144	0xbc4d06ae	-0.0125138
145	0xbd85bb43	-0.06529858
146	0x3d356aed	0.044291425
147	0xbd86b6a5	-0.065778054
148	0xbb17935e	-0.002312861
149	0xbd91753a	-0.07102437
150	0xbd1c451c	-0.038151845
151	0xbd54746e	-0.05186885
152	0xbd41be48	-0.047300607
153	0xbb87c619	-0.004143488
154	0x3d0e9458	0.03480944
155	0xbd2e8f10	-0.042616904
156	0xbd646b33	-0.055766296
157	0xbcb0d450	-0.021585613
158	0xbcc52035	-0.02406321
159	0xbc0398bb	-0.008032019
160	0xbd17b582	-0.037038334
161	0xbcb35693	-0.021891868
162	0xbcfdad8a	-0.030966539
163	0x3dac502f	0.08413731
164	0xbda41ed9	-0.08013696
165	0xbd666feb	-0.056259077
166	0x3ce5b706	0.028041374
167	0x3ab14e93	0.0013527445
168	0x3d076de6	0.03306379
169	0x3d54b837	0.051933493
170	0xbdb006f1	-0.08595074
171	0xbd17eb3d	-0.037089575
172	0x3cd5b4be	0.026087161
173	0xbd4f127a	-0.05055473
174	0xbdb0539c	-0.08609697
175	0xbd3bd4d1	-0.045857254
176	0xbd864367	-0.06555825
177	0xba637a25	-0.0008677564
178	0x3d369ba0	0.04458201
179	0x3d837ea8	0.06420642
180	0x3d69da1c	0.05709277
181	0xbd8e5a8e	-0.06950866
182	0xbcf744e9	-0.030184226
183	0x3daf9c65	0.08574752
184	0x3bdae554	0.00668017
185	0xbc794ab1	-0.015215562
186	0xbcae79ec	-0.021298371
187	0xbc3aeedf	-0.01140949
188	0x3d15b0c7	0.03654554
189	0xbda95cbb	-0.0826964
190	0xbd082310	-0.033236563
191	0x3d5aeeb2	0.053450294
192	0xbd65d1cb	-0.056108277
193	0xbd71db2d	-0.059046913
194	0x3cc0c87e	0.023533102
195	0x3da0d58f	0.07853233
196	0xbae60d5c	-0.0017551589
197	0xbdaa1dc2	-0.08306457
198	0xbb2fdb77	-0.0026833692
199	0x3c1da787	0.009622461
200	0xbd814c6a	-0.06313403
201	0x3d9774be	0.07395314
202	0xbc17741c	-0.009243991
203	0xbce25736	-0.027629476
204	0x3c546812	0.012964265
205	0xbda43f5e	-0.08019899
206	0x3d7d44e6	0.061833285
207	0xbd995ec1	-0.07488776
208	0xbd9720f7	-0.073793344
209	0xbda84030	-0.08215368
210	0xbdbb5532	-0.09147109
211	0xbd544c8d	-0.051830817
212	0x3c89522c	0.016762815
213	0x3d3fe16a	0.04684583
214	0xbd8fdd55	-0.070246376
215	0x3c8ae990	0.016957074
216	0x3cef2796	0.02919368
217	0x3d79b1f1	0.060960714
218	0xbcd0a3d8	-0.025468752
219	0x3d568fd2	0.05238325
220	0x3d588bbc	0.052867636
221	0x3d2722e0	0.040804744
222	0x3cedf91c	0.029049449
223	0x3d91e109	0.07123
224	0x3d8dac7c	0.069176644
225	0x3d84a07b	0.06475922
226	0xbd38a22c	-0.045076534
227	0xbdc6306a	-0.09677203
228	0xbc18743f	-0.009305059
229	0xbd406e65	-0.04698028
230	0x3cc8fd48	0.024534836
231	0x3c805cff	0.015669344
232	0x3d2e2ee8	0.042525202
233	0xbd85d761	-0.06535221
234	0x3bdc762b	0.006727954
235	0xbd9335a3	-0.07187965
236	0x3c222d44	0.0098984875
237	0xbca55d98	-0.02018623
238	0x3c8879b6	0.016659599
239	0xbc860833	-0.016361332
240	0x3c2232b0	0.00989978
241	0xbd7d3296	-0.06181582
242	0x3d9b7efd	0.075925805
243	0xbd8ebe9d	-0.0696995
244	0x3cc7d629	0.024394112
245	0xbd2824ab	-0.041050594
246	0xbd972fdf	-0.073821776
247	0xbd6c8946	-0.0577481
248	0x3d8ebaf5	0.06969253
249	0xbd31d419	-0.043415163
250	0x3d0f6f8b	0.035018485
251	0xbbc49434	-0.0059991125
252	0xbd9de81e	-0.077102885
253	0x3c797bab	0.015227239
254	0x3d6a857b	0.057256203
255	0xbdb14bc7	-0.086570315

fc2.bias f4 [64]
0	0xbca32c13	-0.019918477
1	0x3d2783f8	0.04089734
2	0xbda1bf05	-0.07897762
3	0xbd4848bd	-0.048897494
4	0xbc3c6f9f	-0.011501222
5	0xbd57d720	-0.052695394
6	0x3d48fcda	0.049069263
7	0x3cce4987	0.025181545
8	0xbc4d940e	-0.012547506
9	0xbc20b868	-0.009809591
10	0x3bc5b3f5	0.0060334154
11	0xbd9c92fa	-0.07645221
12	0x3d32f2cf	0.04368859
13	0x3c252d0d	0.010081542
14	0x3ca6c34c	0.020356797
15	0xb97c08b7	-0.0002403584
16	0xbd3d6105	-0.046235103
17	0x3d02c89f	0.03192961
18	0x3da95589	0.08268268
19	0x3dc478ed	0.09593377
20	0xbd9c953a	-0.0764565
21	0xbd88ac21	-0.06673456
22	0x3d517027	0.051132347
23	0xbc93b062	-0.018028442
24	0xbd58844f	-0.052860554
25	0x3d681453	0.056660008
26	0x3cf1166f	0.029429642
27	0xbd617faf	-0.05505341
28	0xbce6accd	-0.02815857
29	0xbd8ad6a5	-0.067792214
30	0x3dad307f	0.084565155
31	0xbd568640	-0.052374125
32	0x3b52d3c2	0.0032169675
33	0xbd95660e	-0.07294856
34	0x3c9f5177	0.019448025
35	0x3dd43a5f	0.10362696
36	0xbd57a39b	-0.05264626
37	0x3d3abf63	0.045592677
38	0xbc5090a7	-0.0127298
39	0x3beaf1ad	0.0071699233
40	0x3d4cd7c3	0.050010454
41	0x3c0c6b88	0.008570559
42	0xbd22e433	-0.03976841
43	0x3db76da7	0.089564614
44	0xbd6d05cb	-0.057866853
45	0x3cc81f31	0.024428936
46	0xbdb7abc0	-0.089683056
47	0xbd8afd38	-0.06786579
48	0xbd431b52	-0.047633477
49	0xbdab72d3	-0.0837151
50	0x3d425633	0.047445487
51	0xbd39e489	-0.045383964
52	0x3d86a4a1	0.06574369
53	0xbd9c9d83	-0.076472305
54	0x3b36b83c	0.0027880808
55	0xbd2b9eca	-0.04189948
56	0x3dd81295	0.10550419
57	0xbc0a5218	-0.008442424
58	0x3d01ffc5	0.03173806
59	0x3d5aa50b	0.053380053
60	0xbdb75fcb	-0.08953818
61	0xbc9ff26d	-0.019524777
62	0x3d944f39	0.07241673
63	0xbd931fe7	-0.07183819

fc3.weight f4 [3, 64]
0	0x3b8d6204	0.004314663
1	0xbdc1bc52	-0.094597474
2	0xbdf6a4a6	-0.12043123
3	0x3e0c87e2	0.1372371
4	0xbdd33e3e	-0.10314606
5	0xbccd09a9	-0.02502902
6	0x3ce2f7f1	0.027706118
7	0x3e0a8c3b	0.13530056
8	0x3d051321	0.032488946
9	0xbdc18560	-0.094492674
10	0xbddae761	-0.10688663
11	0x3bc618e0	0.006045446
12	0x3d9c9f8b	0.07647618
13	0x3d5d5f5e	0.054046027
14	0x3cf39729	0.029735165
15	0x3e144e12	0.14482906
16	0x3dfc9333	0.123327635
17	0x3d324f1c	0.043532476
18	0x3dc99f89	0.09844882
19	0x3dd2e53a	0.10297628
20	0xbd36fbe4	-0.044673815
21	0xbdc06b66	-0.093954846
22	0x3ca8e6be	0.020617839
23	0xbdd28f30	-0.10281217
24	0x3dc115b2	0.09427966
25	0xbd842d6c	-0.06453976
26	0xbd4e6f5d	-0.050399173
27	0xbcbf6d51	-0.023367556
28	0x3dc74d63	0.09731557
29	0xbdbb94aa	-0.09159215
30	0xbddb4b6c	-0.10707745
31	0x3cc197c5	0.02363194
32	0x3d509db8	0.050931662
33	0x3dcaed3b	0.09908529
34	0xbbe679bc	-0.007033555
35	0x3e15ec3b	0.14640896
36	0x3d29383d	0.0413134
37	0xbdb88531	-0.09009779
38	0x3cdd4acd	0.027013207
39	0x3d85983a	0.065231755
40	0xbd298b52	-0.04139263
41	0x3b7e185f	0.003877185
42	0xbd41efee	-0.047347955
43	0x3cf1eea1	0.029532732
44	0xbd90e252	-0.07074417
45	0x3b7c672b	0.0038513641
46	0xbdc47d73	-0.0959424
47	0xbdae1a6b	-0.085011326
48	0x3d89f40b	0.067360006
49	0xbd5b788b	-0.053581756
50	0x3b96d4fa	0.0046030255
51	0xbd307e13	-0.043088984
52	0x3cf1725c	0.029473476
53	0xbd551434	-0.05202122
54	0x3c9cc9ac	0.019139133
55	0x3d9b8f07	0.0759564
56	0x3def0671	0.116711505
57	0x3c617597	0.013760946
58	0x3dbdd54c	0.09269199
59	0xbd90f97e	-0.07078837
60	0xbc360c0f	-0.011111273
61	0x3db62482	0.08893682
62	0xbd6756f6	-0.056479417
63	0xbdbbc728	-0.091688454
64	0xbe02fd70	-0.12791991
65	0x3d16dfef	0.036834653
66	0xbcfa0878	-0.030521616
67	0xbdbfa436	-0.093574926
68	0x3da5a0a0	0.080872774
69	0x3ca0408e	0.019562032
70	0xbdd672ea	-0.10471137
71	0xbd92cf32	-0.071684256
72	0x3cb5001a	0.022094775
73	0xbe12906f	-0.1431291
74	0xbdc89309	-0.0979367
75	0x3d83f626	0.064434335
76	0x3db2da4e	0.087330446
77	0xbdacf206	-0.084446
78	0xbd304650	-0.043035805
79	0xbe0b4e6c	-0.13604134
80	0x3dbf2d3b	0.09334799
81	0x3cedb497	0.029016776
82	0xbda9efba	-0.08297677
83	0xbd85580d	-0.06510935
84	0xbba8ea4f	-0.005154885
85	0x3dbc2b46	0.09187941
86	0xbd7dad7b	-0.061933022
87	0x3c6d8266	0.014496421
88	0x3d2eb9fc	0.042657837
89	0xbcb21ecf	-0.021743206
90	0x3dc41658	0.09574574
91	0x3d56c6b5	0.052435596
92	0xbd42f398	-0.04759559
93	0x3c3566ed	0.011071903
94	0x3de56a31	0.11201895
95	0x3d082b16	0.033244215
96	0x3c70950a	0.014683971
97	0xbd191079	-0.037369225
98	0x3d832463	0.064034246
99	0x3d245f4e	0.040129952
100	0xbda15732	-0.07877959
101	0xbcf47161	-0.02983922
102	0x3d3f24fb	0.046666127
103	0xbcf5b46c	-0.029993258
104	0xbdce7f0b	-0.10082825
105	0x3bb4dca0	0.0055194646
106	0x3d0b6bb9	0.03403828
107	0xbd44ad3c	-0.04801677
108	0x3d30cdf8	0.043165177
109	0xb9846fa8	-0.00025260192
110	0xbda6c988	-0.08143908
111	0xbce53f78	-0.027984366
112	0x3d8e2a00	0.069416046
113	0x3d387aec	0.045039102
114	0xbe01e32b	-0.12684314
115	0x3cbd6768	0.023120597
116	0x3dbd85f6	0.09254067
117	0x3df639d6	0.1202275
118	0xbd44c12a	-0.048035778
119	0x3dac49b3	0.084124945
120	0xbe0f61fe	-0.14002225
121	0x3d95c7ea	0.07313521
122	0xbd985d7e	-0.07439707
123	0xbddb011f	-0.10693573
124	0x3bde5dbc	0.0067860764
125	0x3d1ddd60	0.038541198
126	0xbc8e5e8f	-0.017379073
127	0x3da84baf	0.082175605
128	0x3be30f78	0.0069293343
129	0xbd501511	-0.05080134
130	0xbd4af860	-0.049553275
131	0xbdf25cb7	-0.1183409
132	0xbdaab10e	-0.08334552
133	0xbd7cb94e	-0.061700158
134	0xbcfe1534	-0.03101597
135	0x3dc3e367	0.09564858
136	0x3d5828cc	0.052773282
137	0xbc5f1b0b	-0.013617287
138	0xbd8f18e8	-0.06987172
139	0xbde04c9e	-0.109521136
140	0xbd41c89c	-0.047310457
141	0x3de6a991	0.11262811
142	0x3d857de4	0.06518152
143	0x3d1898ab	0.03725497
144	0xbcd4bf24	-0.02597005
145	0x3dcea085	0.100892104
146	0xbe07b637	-0.13253103
147	0xbbe71cd5	-0.0070529976
148	0xbcc3d7ed	-0.023906672
149	0x3d192c04	0.037395492
150	0xbdbede98	-0.093198
151	0xbda14038	-0.07873577
152	0x3bc18b80	0.0059065223
153	0x3d893a76	0.06700604
154	0x3c1df137	0.00964003
155	0x3cd2d95c	0.02573841
156	0x3d22ff0f	0.039794024
157	0xbd93a382	-0.07208921
158	0xbdf2cc23	-0.11855342
159	0x3da68484	0.08130744
160	0xbda2be7c	-0.07946488
161	0x3dee289d	0.1162884
162	0xbcd40662	-0.02588195
163	0xbcddb58f	-0.027064113
164	0xbdc75a43	-0.09734013
165	0x3d9b3d8d	0.07580099
166	0x3c6081e0	0.01370284
167	0xbd7d3dba	-0.061826445
168	0x3d3fdabe	0.04683947
169	0xbd8c060f	-0.06837093
170	0x3db61b69	0.08891947
171	0x39f6db09	0.0004708397
172	0x3d209d10	0.039212286
173	0xbdaf500d	-0.0856019
174	0x3b182159	0.0023213236
175	0xbe00c35c	-0.12574524
176	0xbdeb0d3f	-0.11477136
177	0xbd1e9126	-0.038712643
178	0xbe027932	-0.12741545
179	0xbdc9d65f	-0.09855341
180	0x3dc8422b	0.097782455
181	0xbc9be360	-0.01902932
182	0xbd9eeb12	-0.0775968
183	0x3db39cb2	0.08770122
184	0x3d2da7ed	0.042396475
185	0xbdcb78d2	-0.09935154
186	0xbd8ad9ae	-0.067798
187	0xbdc90d19	-0.09816951
188	0x3d2072f8	0.039172143
189	0xbd6416af	-0.055685695
190	0x3dab07e5	0.08351115
191	0x3d23e0f7	0.040009465

fc3.bias f4 [3]
0	0x3d97f275	0.07419292
1	0xbde9c137	-0.11413806
2	0xbd82350a	-0.06357773
