weights/agent_dqn.pt (torch, 42588 bytes, 6 tensors)

fc1.weight f4 [128, 11]
00000000: a375 19be 56e5 87be 7bfe 7abe d2d0 82bd
00000010: 4cde 05be e2be 95be 66d9 19be 6ba4 1b3d
00000020: 140c 72be cd0f 803e a22c 803e a4ce 5abe
00000030: 4873 82bc 9bc1 c93e 1a13 fd3d a2a8 293e
00000040: dc60 483d e823 ae3d 571b f73d ef47 4d3d
00000050: f5b8 09bc d6e8 713d 63d1 f33e f003 97be
00000060: aace 50be 33de 6d3e c084 183e f678 18bd
00000070: 5350 9a3d 43cd 02be cacf 633e 496b 60be
00000080: d607 9b3c 8247 073e 6bd9 6b3e f5e8 493e
00000090: bc88 61bd e150 7fbe 6724 0c3e 45c6 77be
000000a0: beda 36be ecb2 d13c 257c 19be e6c0 863e
000000b0: 445e dfbd 52d1 c73b c444 013e 4391 803e
000000c0: f26d afbc 1258 05be 1527 20bd e3e1 10be
000000d0: 84e8 813e d610 66bd b520 05be 6f86 353e
000000e0: a7ec 253d 40a6 f0bd ac98 61be fb06 8e3e
000000f0: 724a 02be d676 59be fa02 183e 8cbf c23d
00000100: 933e 0ebe b6bf e43d d942 23bd 92cc cc3e
00000110: 5463 c2be afed ebbd 3b48 803e f86a 60be
00000120: ffd3 69bd c9ee dd3d 5b33 b83b 833e c8bd
00000130: 9a70 72bd 5fff 153d 6b1c 5f3e eea9 b23e
00000140: 69a2 493e ff47 1abd bd17 993e 1af8 103e
00000150: 7191 013e fcf3 70be a26c 9b3e 4f23 93bd
00000160: 9441 9cbe bd23 bcbd 6842 2d3d 171a 6f3e
00000170: e246 793d bc5d 6fbe 98c4 68be 2c14 263e
00000180: 3bf7 22be 2994 a53b b0e3 3e3e 0a46 c93d
00000190: dab8 76be 0af8 e23e c41f 223e 5639 83bd
000001a0: e8fd af3e ac48 38be 1463 90be e485 e0bd
000001b0: 8340 2f3e b8c0 58be 1b86 f63d 9408 073e
000001c0: aca1 8b3d eab5 ccbd 882f 9cbd 1ca8 d13d
000001d0: 44ad 2e3e 3854 92be 0f21 50be a5fb 6cbe
000001e0: 6c04 85bd 497e 53be 18fd 73be e1fd a63e
000001f0: 8e29 3ebe bed0 1cbd 3527 213d 0e62 453e
00000200: 3c92 cb3d 8522 60be 43ae 973e 1111 1abe
00000210: 7459 aabd 0bac 8a3e be34 d33c 8684 723e
00000220: ac22 c33e 6832 bf3c e8d9 a1bc 425a f8bd
00000230: f6ee 093e b648 9abe 0bd1 7bbe d2ca 86be
00000240: 864a 0cbe 6eaa ad3e 60d3 313d 0039 7dbd
00000250: c5c8 3bbe 3b3b 7c3e 05b9 5d3e d0bb 85be
00000260: 126d 5dbd dfcf 123c e221 3abe bbdc b53e
00000270: b4c8 e5bd 8e94 babd 95bf c3bc 88cb 6b3d
00000280: cd68 213e 4336 1a3e 3513 873c a186 c3bd
00000290: 5c33 07bd 6d90 4b3d e802 babe 9da6 9f3e
000002a0: 2ed3 893e f678 66be babe 123d db80 6f3e
000002b0: 1a72 fa3d 96c5 f33d c4d8 7b3e 6717 7f3e
000002c0: 8693 3dbe dca5 9f3d bcc6 1abe cff8 683d
000002d0: 3fee fd3c 4818 a53e 0e21 f3bc 91f2 023e
000002e0: 8cda 9cbe 11e4 113e 78fc 11be 5af6 8a3e
000002f0: e2a1 91be c0f1 8e3e a1f0 09be 9d60 f1bd
00000300: e175 aabe aa74 b23d 1f4c 243e 516c 42be
00000310: b75d 293e cdf0 8ebe 66dd 00be 0e3d 163e
00000320: 993b 003e 5389 94be 3c04 3abe d810 513e
00000330: dff5 883e 61f0 303e f4eb 8bbe 47ce 213e
00000340: 9927 51be 19de 523e 09c7 0c3e 70eb 293e
00000350: 63b9 99be 99e3 a13e c362 463d 7d86 663e
00000360: 133c 6c3e 5363 b9be caf5 39be e6a8 963c
00000370: 5742 d5bd 2fa6 73be ec1f 4a3e 17a6 073c
00000380: 4f62 133e 37f6 8bbe b52c 33be e17b 6f3e
00000390: 8f17 c03c 1363 b93d 0932 153d f9df 74be
000003a0: a533 853e 260f e53e 865b 8dbe e05a 5e3d
000003b0: 8d22 29be d855 9e3d 87c6 f8bd f4c9 153e
000003c0: 1a55 49be d5ce 3f3e 97ba 5abe 5876 c03e
000003d0: ef66 8abe 8d9d 103e 3516 5e3e f52b 9dbe
000003e0: 48ba 933e ad0a 64bd 63ba 4d3e 82c4 2f3d
000003f0: b976 6ebe 820a 91be 1934 903e 8273 e5bc
-0.14986281 -0.26542157 -0.24511139 -0.063874856 -0.13073081 -0.29247195 -0.15024337 0.037998598
-0.2363742 0.25012055 0.25034052 -0.2136789 -0.015924111 0.39405522 0.12357159 0.16568235
0.048920497 0.08502942 0.120657615 0.05011743 -0.008405914 0.05905994 0.47620687 -0.29495192
-0.20391336 0.23229294 0.1489439 -0.037224732 0.07534852 -0.12773614 0.22247234 -0.21915926
0.018924635 0.13210872 0.23032157 0.19717772 -0.05506204 -0.24933197 0.13685761 -0.24196728
-0.17856881 0.025598012 -0.14988764 0.26319045 -0.109066516 0.006097951 0.12623888 0.25110826
-0.02141473 -0.13021877 -0.03909977 -0.14148669 0.25372708 -0.0561684 -0.13000758 0.17727064
0.040508892 -0.1175046 -0.22030896 0.277397 -0.12723711 -0.21236739 0.14844885 0.09509191
-0.13891058 0.111693785 -0.039858673 0.39999825 -0.37966406 -0.11519944 0.25055107 -0.21915805
-0.05708694 0.1083656 0.0056213564 -0.09777548 -0.059189416 0.036620494 0.21788184 0.3489527
0.19690861 -0.037666317 0.29900923 0.14157143 0.12653138 -0.23530573 0.30356318 -0.07184469
-0.30518782 -0.09186504 0.042299658 0.23349796 0.060858615 -0.233756 -0.22731245 0.16218632
-0.15914623 0.0050530625 0.18641543 0.09827812 -0.24093953 0.44329864 0.1583243 -0.0640742
0.34373403 -0.17996472 -0.2820059 -0.109630376 0.17114453 -0.21167266 0.12037297 0.13186866
0.06817946 -0.09995635 -0.07626253 0.102371424 0.17058283 -0.2857988 -0.20325111 -0.2314287
-0.06494984 -0.20653643 -0.23827016 0.3261557 -0.1857054 -0.03828501 0.03934403 0.19275686
0.09940001 -0.21888168 0.2962514 -0.15045573 -0.08317843 0.27084383 0.025781985 0.23683366
0.3811239 0.023339465 -0.019757226 -0.1212659 0.13470063 -0.301336 -0.24591462 -0.26326615
-0.13700303 0.3391909 0.043414474 -0.061821938 -0.18338306 0.2463197 0.2165261 -0.26119852
-0.054059096 0.008960693 -0.18176988 0.35519966 -0.11219922 -0.09110366 -0.023895064 0.05756715
0.15762635 0.15059762 0.01648865 -0.09547163 -0.033007964 0.049698282 -0.36330342 0.31181803
0.2691893 -0.2250708 0.035826422 0.23388998 0.122287944 0.11902921 0.24594408 0.24911271
-0.18513307 0.07795307 -0.15114874 0.056877907 0.030997394 0.32245088 -0.029678848 0.12787844
-0.30635488 0.14247157 -0.14256465 0.27141076 -0.2844382 0.27918816 -0.13470699 -0.11786006
-0.3329306 0.08713658 0.16044663 -0.18986632 0.16539656 -0.2791809 -0.12584457 0.14671728
0.12522735 -0.2901102 -0.18165678 0.20416582 0.26750085 0.17279197 -0.27328455 0.15801345
-0.20425262 0.20592536 0.13747801 0.16593719 -0.3002425 0.31618956 0.04843403 0.2251224
0.23069791 -0.3620859 -0.18160167 0.018391084 -0.10413044 -0.23793863 0.1973874 0.008279345
0.1439297 -0.27336285 -0.17497523 0.233871 0.023448734 0.090521 0.03642467 -0.23913564
0.26015964 0.4473812 -0.2760889 0.054285884 -0.16517086 0.07731217 -0.12147241 0.1462782
-0.1966137 0.18731244 -0.21360241 0.3759029 -0.27031657 0.14122601 0.21688159 -0.306976
0.2885306 -0.055674244 0.20090632 0.042912014 -0.23287477 -0.2832833 0.28164747 -0.02800918

fc1.bias f4 [128]
00000000: 4b75 81be e687 02bc e018 2f3e 3c2c 6dbc
00000010: 80ca 923e 665a 753d d906 bc3e ed2c 283e
00000020: 87ad 963d 47ac d83c acce a6be 41df 07be
00000030: 4fbb 34be 9eeb d93d 5da3 f43d 8702 3abe
00000040: 7bd0 26be 3b28 973e a5e5 61be 4186 8d3d
00000050: d403 233e c7fd 553e a96c 4b3d 2354 1e3e
00000060: 6a56 7c3e 6c4e 67be 745d 8b3e d74e 3f3e
00000070: d086 b53c d8c0 33be b095 df3d 1124 753e
00000080: 6141 933e 8966 ab3d d35c 43be 250a e3bb
00000090: a4da a63e 9bf2 30bd 64a7 053e 80c8 723e
000000a0: 3215 4f3e 896d 73be 545b debd 338e 86bd
000000b0: 5ce4 113e 7767 cfbd a08a 983e 2b45 783e
000000c0: 518e 8a3e 404a f63d e90a 873d 4fad a93d
000000d0: 0c5c 64be 70dc d3bd 9caa 84bd fdec 533c
000000e0: deec 393d 26d1 70bd 2372 aabc d9a8 453d
000000f0: 3640 38be deef 0dbe 2fc5 4c3e 02e0 d439
00000100: 670d 0dbe 364e 4a3e 7745 71be 6626 45be
00000110: e6e7 39be 9d12 023d c615 8dbd 07ed c4bd
00000120: 7ffe e23d fe28 243e 6229 06be 2e08 743e
00000130: d0c6 593b d57d 55be 9c3e 39be 48eb 3d3e
00000140: cabb 083d c914 f7bd 5766 8b3d e1c6 f3bd
00000150: 4d0c 86be efc8 0abe 3c6f 633b 5864 5fbe
00000160: da91 8c3e 40f8 833e c117 a93d e53d 6e3d
00000170: 53e6 fe3d 12d4 0fbe cc6b 973e fd3a 53be
00000180: c139 133e bbe6 68bd c819 55be 095a d3bc
00000190: 8eb8 423e c172 9ebc 85c5 593e ecce 9d3e
000001a0: a62a 7dbe bf72 7c3e 7a63 74bb 1181 633e
000001b0: d24e 203e 451a 9d3d 4c8e 563e 7a87 703e
000001c0: 4f26 73be a110 153e f8c4 2fbd c93f f0bd
000001d0: fe28 00be 82f0 1a3e c574 df3d 9d25 f53d
000001e0: 8027 823e afa9 50be 172c ee3d fe9d 0c3e
000001f0: 84bc 2d3d 8d06 f3bd 6f1f eabd 162e 45be
-0.252848 -0.007966971 0.17099333 -0.014475878 0.2867012 0.059900664 0.36723974 0.16423388
0.073573165 0.026449336 -0.32579553 -0.13268758 -0.17649578 0.106406435 0.119452216 -0.18165027
-0.16290466 0.2952288 -0.22060259 0.069103725 0.15919429 0.2089759 0.049664173 0.15461783
0.2464234 -0.2258851 0.27219737 0.18682419 0.02215901 -0.17554033 0.109172225 0.2393954
0.28760818 0.083691664 -0.19078378 -0.0069286996 0.32588685 -0.043200117 0.13052136 0.23709297
0.20222929 -0.23772253 -0.10857263 -0.06570091 0.14247268 -0.10127156 0.29793262 0.24245135
0.27061704 0.12025881 0.06593878 0.08285009 -0.22300738 -0.103447795 -0.06477854 0.01293492
0.04539191 -0.05879321 -0.020806378 0.04825673 -0.17993245 -0.13861033 0.19997095 0.0004060269
-0.13774644 0.19756398 -0.23561655 -0.19252929 -0.18154868 0.031756032 -0.068889186 -0.09615522
0.110836975 0.16031262 -0.13101724 0.23831245 0.0033230074 -0.20848782 -0.1809029 0.18546784
0.033382215 -0.12064511 0.06806629 -0.119031675 -0.2618126 -0.13553213 0.0034703752 -0.21815622
0.27455026 0.25775337 0.08256484 0.058164496 0.124462746 -0.14045742 0.2957443 -0.20627971
0.143775 -0.056860667 -0.20810616 -0.025799768 0.19015715 -0.019341828 0.21266754 0.3082193
-0.247233 0.24653147 -0.0037290738 0.22217204 0.15655068 0.07671026 0.2095272 0.2348918
-0.23745082 0.14557125 -0.042912453 -0.11730916 -0.12515637 0.15130809 0.10910944 0.11970065
0.2542076 -0.20377229 0.11629503 0.13732144 0.04241611 -0.11866484 -0.11431777 -0.19255862

fc2.weight f4 [64, 128]
00000000: 74a8 8abd ff0e 7ebc aac7 96bd 45c3 22bc
00000010: b072 aebd 653b 5fbc 2d61 333d eb6f 43bc
00000020: 3d94 b73c a5a8 4c3b 83b5 6c3d cee9 f8bd
00000030: 3655 923c 020d 4ebc bc22 063d a5d5 06be
00000040: 6af0 c13d d79b c9bd 40c2 cdba 5f9e 833d
00000050: 4d28 21bd ff1e b03d 7281 413d db12 b63d
00000060: 5057 f83c a995 4cbd b6ca f1bc 3343 463d
00000070: ab54 63bc c524 84bc 40fe b73d 2187 8c3d
00000080: 9af6 303d debc f13d f290 0f3e 643c 2a3e
00000090: cc16 6cbd b281 94bd cec0 133d b6f6 e23b
000000a0: c088 76bd a26f ec3d 6d73 06bc 54c2 d73c
000000b0: 16e9 193d 16bd 94bd 6f15 4a3b df3e d03d
000000c0: 77f2 563d 7965 a13d 1ad4 b9bd 9eaa e63d
000000d0: 1c02 0dbd e1ac 123d b9fc 283d 70c8 8b3d
000000e0: 4e99 a8bd bbe2 cc3d ae06 5aba 46e0 8ebd
000000f0: c81e f23d 3bb5 02be a770 893c 4106 133d
00000100: 4ae2 4d3d 4e59 5ebd 8121 66bd a707 11be
00000110: 70dc 123e 14da f7bd 9df9 0ebc 4bf8 92bd
00000120: aa4d 453d b03d 6b3d 29a5 0cbe 3f12 573d
00000130: c53e 02bd 6fb8 cc3c 24aa a0bd 70f0 673d
00000140: 470c 4abd 6673 b73d 9f86 96bb 4665 df3d
00000150: 0088 35ba 85bc a13d 5530 793c 3d19 313c
00000160: 396f b13b 70c7 c93d e2ea dd3d 2b68 74bb
00000170: 188b 233d 2a67 19be c362 f4bd 88a8 3d3d
00000180: 9476 1a3e 263d 0cbd e50b c43d c052 aa3b
00000190: 6b27 b33d 5bb3 07be 35ff ee3d 1355 793d
000001a0: ba6f d13a eaba 68bd 9982 25bd 9f51 74bd
000001b0: 49fc f4bc 25cd 793c 91e6 c93c c996 40bd
000001c0: 7210 163d cd1e 653d d469 b2bd 712d 1bbe
000001d0: 1aa3 233d 91db a0bd e133 bebd 81e9 b9bd
000001e0: 589e 313d b6d0 183c a959 3dbc fd6d 683b
000001f0: 5a14 68bd f267 2d3e de05 5f3d e10c 18bb
00000200: dad7 01bd 00eb 8ebd f259 233d e61c 923d
00000210: a1c4 81bd f0db 1438 8667 3fbd 9cb4 233d
00000220: b872 f2bc 0618 9ebc 67e8 9abd da0d 98bd
00000230: 316e 7cbc b4a1 57bd 0443 c3bd 1c9d 11bd
00000240: 2287 a7bc 6d58 363d e5c2 dabd 8c6c af3d
00000250: b6b9 a0bc 85ce a2bc e9e6 23bd 272b 83bd
00000260: c93d 0ebe 93f7 c4bc 37ce c63d 3db3 c43d
00000270: 9b5d 273e 7b94 033e 20b5 613d c2ac 6a3d
00000280: ba45 b73d 7f89 60bd e3fa 7cbd e3ea 183c
00000290: dcc0 303e 7e43 e5bb 01ac 0b3d 4035 2a3e
000002a0: 4cff c03c 8d13 b9bd 4545 e2bb 7624 903d
000002b0: f3b8 813d 95a6 0b3e d1e0 86bd d5ea 193c
000002c0: ff59 343e 87b6 543d 16ff 64bd 957b aebd
000002d0: f25f f13d ffb2 9d3d 4a82 4d3d 54f1 1c3d
000002e0: 1012 16bd 5ae0 953d ae3b 973d 4a46 e9bc
000002f0: 4c4f 093d 4def cb3d 5796 d43d 825d cb3c
00000300: 275b b3bd 1a41 be3b 65f1 a33d 1f3c a03d
00000310: 64ae 02be 3005 c8bc 30ee e73c f212 ad3d
00000320: 5c5a 823d fcd0 a93d 48fb 49b9 41c3 31bd
00000330: 630d 99bd a6ad 833d e049 cf3b 93e9 773c
00000340: 30a6 af3d 69c6 9e3c d248 6dbd 000c 143e
00000350: 006d bb3c a559 db3d 30a6 1f3e 26cb 15bd
00000360: 609d 97bd b854 a8bd fd52 98bd 07c7 ae3c
00000370: a6c3 b63c ea40 42bd 83d7 ac3d 2f9a ab3d
00000380: f735 9e3d 6e84 86bb ee61 fc3d cde9 a03b
00000390: 806a 003d e453 8abd 7718 fdbb 681e 54bd
000003a0: 4e07 a53d 31df a13d 2b82 903d fbc0 1a3e
000003b0: e685 6dbd dfa1 023e 0b91 eebc 89d1 033e
000003c0: ee71 f5bc d5dc da3b a4d3 393d d298 61bd
000003d0: 57d5 9a3d 0384 45bd de8e 163e 0ba6 d83a
000003e0: f2ad 373b 410f 3bbb 22f8 a93d c1b1 57bc
000003f0: 99af bb3d 1913 aabc d905 b83d 4aec 4ebc
-0.06770411 -0.015506505 -0.07362302 -0.009934251 -0.08517969 -0.013625001 0.043793846 -0.011928539
0.022409553 0.003122845 0.05779029 -0.1215397 0.017862897 -0.0125763435 0.03274797 -0.13167436
0.094696835 -0.09844177 -0.001569815 0.06426691 -0.039345074 0.08599662 0.04724259 0.08890315
0.030315071 -0.049947415 -0.029515605 0.04840393 -0.013875167 -0.016130814 0.08984041 0.06861711
0.043203928 0.11803602 0.14020136 0.166246 -0.05763893 -0.072513 0.036072545 0.006926383
-0.06018901 0.1154473 -0.008206231 0.02633778 0.037575804 -0.07262628 0.003083553 0.10168242
0.052477326 0.078806825 -0.09073658 0.112630114 -0.03442584 0.0358094 0.04125664 0.0682534
-0.082323655 0.10004183 -0.00083170354 -0.069763705 0.11822277 -0.12764446 0.01677735 0.035894636
0.050264634 -0.054284386 -0.056184296 -0.14163075 0.14341903 -0.12102142 -0.008726505 -0.071762644
0.04816977 0.057431877 -0.13734879 0.052507635 -0.031798143 0.024990289 -0.07844952 0.056625783
-0.049328115 0.089575574 -0.004593685 0.10907988 -0.00069248676 0.07897285 0.015209277 0.01080924
0.00541487 0.09852493 0.10835816 -0.0037293534 0.039927572 -0.1498076 -0.119329 0.046303302
0.15084296 -0.034238003 0.09572581 0.005197853 0.08747753 -0.13252012 0.11669771 0.06087215
0.0015978732 -0.05681888 -0.04040775 -0.059648152 -0.029905455 0.015246664 0.024646075 -0.0470188
0.036636777 0.055937577 -0.08711591 -0.15154053 0.039950468 -0.07854379 -0.09287239 -0.090777405
0.0433639 0.009327104 -0.011557021 0.0035465949 -0.056660034 0.16934183 0.054448955 -0.0023201036
-0.031699993 -0.069784164 0.0398807 0.07134418 -0.06336332 3.5490782e-05 -0.046729587 0.039967164
-0.029595718 -0.019298565 -0.075638585 -0.07424517 -0.015407131 -0.052644446 -0.095342666 -0.03555022
-0.020450179 0.044517923 -0.106817044 0.085656255 -0.019619804 -0.019873867 -0.040015135 -0.06404715
-0.13890757 -0.024043834 0.09707301 0.096044995 0.16344301 0.1284961 0.055104375 0.05729366
0.08948846 -0.054818626 -0.0617627 0.009333345 0.1726107 -0.006996571 0.034099583 0.16621876
0.023559235 -0.09036932 -0.00690523 0.07038204 0.063341044 0.13637765 -0.06585849 0.009394367
0.17612456 0.051931884 -0.05590733 -0.08519665 0.11785878 0.077001564 0.05017308 0.038316086
-0.03663832 0.07318182 0.0738443 -0.0284759 0.03352289 0.099577524 0.103802375 0.024824861
-0.0875762 0.0058061006 0.08005027 0.07823967 -0.12761837 -0.024416536 0.028311819 0.08450879
0.06364891 0.08291814 -0.00019262463 -0.0433991 -0.074732564 0.06429605 0.0063259453 0.015131372
0.085766196 0.019381719 -0.057930775 0.14457703 0.022879124 0.10710458 0.15590739 -0.03657069
-0.07403064 -0.08219284 -0.07437704 0.021335138 0.02231009 -0.047425188 0.08439543 0.083790176
0.07725137 -0.0041051423 0.12323366 0.0049106837 0.031351566 -0.06754282 -0.0077238637 -0.05178681
0.08058034 0.079038985 0.070560776 0.15112679 -0.057989024 0.12757061 -0.029121896 0.128729
-0.029961552 0.0066791573 0.04536785 -0.05507738 0.075602226 -0.0482216 0.14702937 0.0016528977
0.0028027263 -0.0028543028 0.08299281 -0.013164938 0.09164352 -0.02076106 0.0898549 -0.012629578

fc2.bias f4 [64]
00000000: d7ea ce3b ef6a 7f3d f995 2abd ce82 9139
00000010: 7862 04bc ec18 98bd 2d3f 293c 3976 873c
00000020: 21dd bebc 01d3 883d 1168 a33d cc77 b13d
00000030: 1835 94bd 4609 8e3d 351b 323d 2290 b33d
00000040: 16bb 2e3c 41c0 b73d 5d7f 643d bdca 9c3d
00000050: 92cb 023d 13f7 fcbc 0b87 9d3d 119c 5ebc
00000060: fec0 983c 92eb 5c3c 5b1c 33bd 23bc 913d
00000070: 6436 a33c 2e1c e5bc dcae df3c 979d 913c
00000080: 930d 203d 736b 40bd ad9f a4bd 05e5 a53d
00000090: d166 353d dbbc 963d 49d5 133d d66a 8a3d
000000a0: 1b23 86bc eb1f ad3d 9f88 a3bc 7aaf 85bd
000000b0: 40e6 8dbd 777e 12bc 5886 723d 7748 72bd
000000c0: 4fa6 90bc 3427 803d 2b46 663d 5464 6d3d
000000d0: d23d ae3d a3a3 713d de03 1a3d edc0 03bc
000000e0: ef77 86bb bc42 643d f98c 833d 9c9f b8bd
000000f0: 22b2 b2bc d920 643d bdba 263d 0d5b 3a3c
0.006314616 0.06235784 -0.04164693 0.00027754012 -0.008080117 -0.074266285 0.010330004 0.016535865
-0.023298802 0.06680871 0.079788335 0.086654276 -0.07236689 0.069353625 0.043482978 0.087677255
0.010664722 0.089722164 0.055785526 0.07655857 0.03193242 -0.030879533 0.07691773 -0.013587014
0.018646713 0.013483899 -0.043728214 0.07115962 0.019923396 -0.027967539 0.02730506 0.01777534
0.039075445 -0.04697747 -0.08038268 0.08100323 0.044287506 0.0736024 0.036092076 0.067586586
-0.016374161 0.084533535 -0.019962607 -0.0652761 -0.06928682 -0.008941284 0.05921015 -0.05915114
-0.017657427 0.062574774 0.05621926 0.05795701 0.08507885 0.058993947 0.037601344 -0.008041603
-0.0041036527 0.055727705 0.06423373 -0.09014818 -0.021813456 0.05569539 0.04070543 0.011374247

fc3.weight f4 [3, 64]
00000000: 9411 05bc 9c79 24be 1f8a 943c 0d4b 8d3d
00000010: 6465 f13d 0d99 a8bd 4241 383e e844 c9bc
00000020: 1e9a 603e f9ce 6bbe 758b 7bbd 83ec 8bbd
00000030: 33bc 3cbd 2c39 0ebd 635f 583e 25ab 103d
00000040: b57c 533d 9216 ea3d 539a 2d3e 84ba 433e
00000050: 4bd9 f5bd 035f ac3d 12f5 723d 5bc4 a93d
00000060: 0ed3 d13c c586 6dbc 6e1e 49bd 8fe0 dc3d
00000070: 5373 9bbc 6153 1cbd 2e0b 603d a738 393e
00000080: c44d 42be e49f cebd 7556 973d 51e2 2e3e
00000090: 717d 373b 0974 4abe 93ca 7cbd a4a0 cebd
000000a0: 7cc0 c83d 0dfe 933d 4e11 5dbe 508c a93d
000000b0: f823 dd3d 519a ef3d 7346 5d3d 31cd 963c
000000c0: 8779 8a3d 1a64 3fbe c554 173d c2c7 4c3e
000000d0: d4f1 dc3d 5faa c73c 0124 e6bd b628 9ebd
000000e0: 8f2b b1bc 8aef ecbd fcf6 2bbe f3be 63be
000000f0: 8eb3 97bc 813b 203e 9267 1c3e 2423 1b3e
00000100: be98 61be 009c b43d 257a 25be a631 75be
00000110: 9cbc 7cbd 5940 99bd f688 a5bd 562a 12bc
00000120: 2221 6cbd d252 aa3d 06f8 85bc 3ed5 17be
00000130: a8d9 cb3d 7f89 193e a0f9 753d 8ad2 0a3d
00000140: 52e7 d9bd 6bf6 0dbe 4ea3 3cbe a1cf fc3d
00000150: 5d1c 273e ec2a 3c3e 2f27 483a 8f58 c8bc
00000160: 4aad 26be 4c1b 373e b375 19be e70a 213e
00000170: 2c87 8fbc 39c8 f23c 7855 26be 154b 58be
00000180: ebe2 523e 7710 a0bd 58b8 5dbd af3e 0e3e
00000190: fa1a 22bd 7531 483e e145 06be d5b9 18bd
000001a0: 571b bb3d bcf0 533e 68bd 493e 1181 aebd
000001b0: 5081 b53d 238f 48be c76d 7c3d e1e5 6cbb
000001c0: 5845 033e b781 6d3d 13d4 14be 8330 30bd
000001d0: 64a6 fd3c 2886 97bd 3e7f dbbc c255 9bbc
000001e0: a610 aebd 1259 27be e65d ee3d d56d 06bd
000001f0: cc98 c9bc ba71 ac3b d3d9 fbbc c89b 0c3b
00000200: 11a3 ee3d bd1b 90bd e6cf 11bd 3b7d 123d
00000210: e6e1 b93d d62e 5fbd a2d5 213e 353c 1fbd
00000220: 3b77 dd3d 2fc0 a73d 395c ce3d a9e7 193e
00000230: 22d4 d03c f492 14be cc73 62be 8a58 59be
00000240: e4e9 a8bd a6c6 cc3d e359 93bc 6e09 45be
00000250: ad5d cd3c fbb2 f6bd 8b1e 2bbe 93f3 7fbd
00000260: 3436 83bd 1e2b 30bd d484 cb3d 7fbe 21be
00000270: 0db1 05be a637 303e 5f67 f63c 293e ca3d
00000280: d593 e63d fdb6 10bd cb6e 31bd 3414 49be
00000290: 979c 273e 6b87 853d 02ac 063d 8888 3f3e
000002a0: 4f62 0dbd 6fc4 1ebe 3359 013e d98e 993c
000002b0: 989b bbbc 4daa 0a3e 65f8 4e3c 65e5 6ebd
000002c0: 0bc1 a7bd aaeb b83d 663d e93d 4b54 0d3e
000002d0: f777 1b3e 1869 0e3e 5410 b6bd f37d f83d
000002e0: e374 853d 8073 823c f48c ac3d f325 433c
000002f0: 94cc a13c 25e8 1bbe 6148 f93d 0fee e4bd
-0.008121867 -0.16062015 0.018132268 0.068990804 0.11786917 -0.08232317 0.17993644 -0.02456899
0.21933791 -0.23028173 -0.061412293 -0.068322204 -0.04607792 -0.034722492 0.21130137 0.035319466
0.0516326 0.11430086 0.16953401 0.19114119 -0.12004336 0.084165595 0.05931575 0.08289405
0.025613334 -0.014497464 -0.049101286 0.10785019 -0.01897589 -0.038165454 0.05469816 0.18088017
-0.18974978 -0.100890905 0.07389537 0.1707852 0.0027998353 -0.19770826 -0.061716627 -0.100892335
0.098023385 0.07226191 -0.21588632 0.082787156 0.10797876 0.116993554 0.054022264 0.01840839
0.06761461 -0.1869053 0.036946077 0.19998077 0.107883126 0.024373231 -0.11237336 -0.07722609
-0.021627216 -0.11569126 -0.16793436 -0.2224081 -0.018518236 0.15647699 0.15273884 0.15150124
-0.22030923 0.08818817 -0.16159876 -0.2394472 -0.06170331 -0.074829765 -0.08082764 -0.0089212265
-0.057648785 0.08316578 -0.016353618 -0.14827439 0.09953624 0.14993857 0.060052514 0.033892192
-0.10639824 -0.13863532 -0.18421671 0.123442896 0.16319413 0.18375748 0.00076352333 -0.02445629
-0.16277042 0.17881507 -0.14986305 0.15726815 -0.01752051 0.02963649 -0.16243541 -0.21122392
0.20594375 -0.078156404 -0.054130882 0.138911 -0.039576508 0.19550116 -0.13112594 -0.0372866
0.09136074 0.20697302 0.19701159 -0.08520711 0.08862555 -0.19585852 0.06162813 -0.003614776
0.12819421 0.057985034 -0.14534025 -0.043015014 0.03096313 -0.07398635 -0.026794072 -0.018961791
-0.08499269 -0.16342571 0.116390035 -0.032819588 -0.024608992 0.0052625807 -0.030743515 0.0021455158
0.11652196 -0.07036541 -0.035598658 0.03576396 0.0907629 -0.054488026 0.1580415 -0.038875777
0.10813757 0.08190953 0.10076184 0.15029778 0.025491778 -0.14509183 -0.22114486 -0.21225181
-0.08247736 0.09998827 -0.017987197 -0.19241878 0.025069082 -0.120458566 -0.1671087 -0.06248815
-0.06406823 -0.04300987 0.09937444 -0.15795325 -0.13055821 0.17208728 0.030078588 0.09875137
0.112586655 -0.03533076 -0.04331855 -0.19636613 0.16368328 0.065199696 0.032878883 0.18704426
-0.034517583 -0.15504621 0.12631683 0.018744873 -0.022901341 0.13541527 0.012632464 -0.058324236
-0.08191117 0.09029324 0.11388664 0.13801686 0.15182482 0.13907278 -0.08889833 0.12133398
0.06516435 0.015924215 0.08425322 0.011910903 0.01975087 -0.15225275 0.12172008 -0.111782186

fc3.bias f4 [3]
00000000: 8764 453d 816d 13bc 03c0 cebc
0.048191573 -0.008998276 -0.025238043
