weights/agent_ppo.pt (torch, 42628 bytes, 6 tensors)

fc1.weight f4 [128, 11]
00000000: 747a 793e 07ee 84be 15de 86be ed8d 4ebe
00000010: f8ed 78be ef6f 12be 240f b73e fdf3 f4be
00000020: 8f97 79ba 0df8 813e 48cd 933e 682a 343d
00000030: 331a 603d 39fa 8dbe b4c2 bc3e bef3 043e
00000040: abe8 41bd 9766 5fbe 429c 92be 8100 d2bd
00000050: 6d52 993c 7c58 c63e 9f97 04bd d7f1 8c3e
00000060: d032 d1bd be25 b3be e2a5 7c3e b505 eb3d
00000070: 0e24 ba3d afe6 a53d 6bed 143e fd8b 9b3e
00000080: cd75 85be eb0b 173e f85a febd f0f8 2b3e
00000090: 949d 10be 2c7e 7a3e 778e 843e 4d2b eabd
000000a0: b50b c3bd 8fc1 213d ef8e a4be 50c1 823d
000000b0: 5368 01be 123c 0dbe 73ff 99bc 2c00 133c
000000c0: e0cb cf3e 67ba d23e 1a03 063e 6a44 493e
000000d0: ba26 3ebe 3806 0c3e 7c6a 07be b364 823e
000000e0: 1c1c b1bd 55de 23bd 4fab 0dbe 0a3f 39bd
000000f0: 5413 de3e 6791 94be 92f9 cbbe 18f2 593e
00000100: 6265 4d3d c144 283e 7859 a1bd 3ee7 043e
00000110: b025 d93e eefc 893d 3933 60be 1928 3bbe
00000120: e159 353e efe1 0d3e 92bd 63be 2cbc a03d
00000130: 5b30 b0bd f005 a73e 055d 2abe cb93 d83e
00000140: f7f9 5c3e 2e58 223e 8b45 633d c87f e83d
00000150: a9f8 c13d e5ba 71be a852 a53d 9a2e 69be
00000160: 3dca a83e 75aa 9f3d eac4 99be da00 6e3e
00000170: 5df0 02be 335d a33e 4e73 07be 5a2c 20be
00000180: da49 1ebe 6318 3abe 90db 62be a2ca 8ebd
00000190: ab76 4fbc 9a49 f73d 07b5 1d3e 2131 ac3d
000001a0: 96d8 773e bb5e 053d a957 98be e5c0 89be
000001b0: 62a9 bcbd 0571 88be 4e36 0fbe d6be a43e
000001c0: 0177 6ebe 4fa1 833e b108 68be 846d bf3e
000001d0: a7bd c5be cf11 bb3e aad7 dbbe 4109 fa3d
000001e0: 46c9 8e3d d643 103e 9ce3 883e 81fd ccbc
000001f0: aca2 283e d77b 9abe cb5c a4be a9ba 72bc
00000200: 0545 bf3d 37c5 27be d1fc ccbe 3ef3 983e
00000210: 1b87 d83e 9abf b1bd 5f40 02be 9971 493e
00000220: f6d1 45be c9fb 573b 4dd5 4e3e 8924 79bd
00000230: e655 8e3e 0ff9 593e 0d20 ae3d 0552 553a
00000240: 09a6 57bd 95e2 36be 1be7 8d3e 70cd 76be
00000250: 4669 b7be 9430 25be b5d5 f53b c43d fe3d
00000260: 6ccd b1be 1846 8b3e 5cd8 0fbe 651e ae3e
00000270: dc18 233e b003 40be 0d98 d83d 6aa1 91be
00000280: 22ac b53e 65b2 69bd 4ec7 d23e 9a15 7c3c
00000290: bad8 8abe 1f44 563e 63d9 4e3e 1025 973e
000002a0: b7c5 6fbe fcf5 403d 7bdf 913d d8c1 88be
000002b0: 95e5 70be 879f 32bd 9506 ef3d 0227 56be
000002c0: 268d 093d 2406 3dbe 495f af3d d0dc f6bd
000002d0: 05c3 83be dfd7 4bbd 26b1 11bd ad83 91be
000002e0: 2a2c b0bd 8351 0a3e 8f71 19be 9b35 1fbe
000002f0: 71fc 2ebe daab 55be 6e6c 53be 638b 983e
00000300: d2f3 713e f417 d93c 0f61 96be dfa0 833d
00000310: df7a afbe ea3f 153e a5c4 3cbe b086 02be
00000320: df80 443e 1931 ac3c 9dcd 3bbe 435a 14bc
00000330: 3d71 ad3d 70df 81bd a978 81be 9080 283d
00000340: 6086 40be 37a1 37bd bad1 333e c412 74be
00000350: b00c a43e b481 69be e0b2 2abe 8326 5cbd
00000360: f56f 453e 169c 7f3e a45d 353e 2881 093d
00000370: 1315 003e 1ddc ae3e f1bf ef3b 97b8 c9be
00000380: c946 39bd 5139 5cbd e1aa bb3d 6729 573e
00000390: cc0e c23d f556 b0bc d9c1 a5be c958 d53d
000003a0: e855 e8bd fcbb 6f3e 40c1 f63c be2c 4e3e
000003b0: 2a71 19be e5ef 983e d403 9a3e d59e 573e
000003c0: effa 28be fc30 1fbe 20e0 02bd cb0b 2f3e
000003d0: a418 a33c 39b5 a73e 73f0 a8bd dadb ac3e
000003e0: 53fa 37be 4f3b 023e c7f2 693e d67d c8be
000003f0: 0e3d 993e b264 f5bc bceb 49be e64a da3e
0.24363118 -0.2596285 -0.2634131 -0.20171328 -0.24309528 -0.14300512 0.3575374 -0.47842398
-0.000952118 0.2538456 0.28867555 0.043985754 0.054712486 -0.27729967 0.36867297 0.12983605
-0.04734103 -0.21816479 -0.2863484 -0.10254002 0.018716061 0.38739383 -0.03237116 0.2752826
-0.1021477 -0.34989733 0.24672654 0.11475698 0.09088908 0.0810064 0.14543693 0.3038024
-0.26066437 0.1475064 -0.12419695 0.16794181 -0.14122611 0.24462193 0.25889942 -0.1143404
-0.09523717 0.039491232 -0.321403 0.06384528 -0.12637453 -0.13792446 -0.018798565 0.008972209
0.40585232 0.4115784 0.1308712 0.19655004 -0.1856946 0.13674247 -0.13224214 0.25467452
-0.086479396 -0.040006954 -0.1383488 -0.045226134 0.4337412 -0.29017183 -0.39838845 0.21283758
0.050145514 0.16432478 -0.07878393 0.12978837 0.42411566 0.06737696 -0.2189454 -0.18277015
0.17710067 0.13855718 -0.22240284 0.07848391 -0.08602973 0.32621717 -0.16637047 0.42300257
0.21579729 0.1585395 0.055486243 0.11352497 0.09471256 -0.23606451 0.08072406 -0.22771683
0.32966796 0.07796184 -0.30033046 0.23242512 -0.12787004 0.31907043 -0.13227579 -0.15641919
-0.1545786 -0.18173365 -0.22154069 -0.06972243 -0.01266257 0.12074585 0.15401088 0.08407808
0.24203715 0.032561045 -0.2975438 -0.2690498 -0.09211995 -0.26648727 -0.1398556 0.32176846
-0.23287584 0.25709006 -0.22659566 0.3738824 -0.38621256 0.36537024 -0.42937976 0.12208796
0.069719836 0.14088377 0.26736152 -0.025023224 0.16468304 -0.30172607 -0.32102045 -0.014815011
0.09339336 -0.16383825 -0.40036634 0.2987308 0.42290577 -0.08679123 -0.12719868 0.1967224
-0.19318375 0.0032956472 0.20198555 -0.06082586 0.2779991 0.21286415 0.08502207 0.0008137527
-0.052648578 -0.17859872 0.27715382 -0.24101806 -0.35822505 -0.16131812 0.0075022825 0.124141246
-0.34727037 0.27201915 -0.14047378 0.34007564 0.15927452 -0.18751407 0.105758764 -0.28443462
0.3548289 -0.057054896 0.41167682 0.01538601 -0.27118474 0.20924424 0.20200114 0.29520464
-0.23415266 0.04710959 0.07122704 -0.2671039 -0.23525079 -0.04360917 0.11671177 -0.20913318
0.033581875 -0.18459374 0.08563096 -0.120538354 -0.25734726 -0.049766418 -0.035569333 -0.28420773
-0.086021736 0.13507657 -0.14984725 -0.15547793 -0.17088486 -0.20866337 -0.20646831 0.29793844
0.23628166 0.02650068 -0.29370925 0.06427168 -0.3427343 0.14575163 -0.18434389 -0.12746692
0.19189785 0.021019505 -0.18340154 -0.009054723 0.08468864 -0.063414454 -0.2528737 0.04113823
-0.1880126 -0.04483148 0.17560473 -0.23835284 0.3204093 -0.22803384 -0.16669798 -0.053747665
0.1928099 0.24961886 0.17711502 0.03357044 0.12508039 0.34152308 0.0073165824 -0.39398643
-0.04523352 -0.0537656 0.09163452 0.21011887 0.094754785 -0.02152584 -0.32374457 0.10417325
-0.1134451 0.23411554 0.030121446 0.20134255 -0.14984575 0.29870525 0.30081046 0.21056683
-0.16501974 -0.1554603 -0.031952024 0.17094342 0.01990921 0.3275545 -0.08248987 0.33761483
-0.17966585 0.12717937 0.22846518 -0.39158505 0.29929394 -0.029955242 -0.19718832 0.42635268

fc1.bias f4 [128]
00000000: 818d fabd 1587 b83c 6056 7dbd 8a2c 363d
00000010: 0db3 62be f13b 46be 1312 e33c 35c2 473e
00000020: 9e2d 3cbe 530f 8cbe 0240 dabc 5001 303e
00000030: 52ed 95bd 4aec 07bd 300b 29be 4a57 7cbe
00000040: eb46 0cbe 3d1d 643d 98ca 803e 3bef 5b3e
00000050: 1b10 863e 72e7 293e 6252 fbbd dc07 74be
00000060: 5e33 dcbd ad59 a93b f66a 1e3d fc8b 993e
00000070: f7ed b23e bede 223d 2f4d 37be 872e 2a3e
00000080: 1378 b13c 6c25 43be c396 c9bd d71f 6abd
00000090: 62aa 40be 3a81 083e d395 9d3e 9e71 513e
000000a0: 25ca 263e 8fde 01be d17a cc3d b610 5a3e
000000b0: 0a12 803e ada6 88bd 068a 613e dc51 873d
000000c0: ab0b 7b3e b718 90bd 5a5d 0cbe 0102 01be
000000d0: 657b f8bd ef0e 5fbd 4f7f 573e d81e babd
000000e0: 1057 a4be 02eb 863e 3178 a43e 0888 6e3e
000000f0: eeaf 6a3e f539 18bd 9214 a03c f149 19be
00000100: 76b0 5e3e 6bd3 c43e d374 ad3e c674 783e
00000110: 8c78 843c 0229 553e f3e5 98bd 06c2 01be
00000120: 6760 f43d ec6a 433e 9a5a 5f3e d7e1 fb3d
00000130: fac6 5ebe 8308 d7bc b0a0 25bd 3a40 20be
00000140: 340f 1a3e 6d13 973e e261 e1bd 50b3 7f3e
00000150: 5f95 96be 4f35 34be c316 2cbe 5501 7dbc
00000160: c976 743d 9f70 f43c 9cca 973d 05c5 a23e
00000170: 08b1 a93d d348 2cbc cadf 493e 0514 2c3e
00000180: 095e 413e b056 05be e296 0b3d d959 cbbd
00000190: 31a6 8cbc b629 be3d cf62 47bd 1f2c 35be
000001a0: a5b0 073b 4557 1d3c 3439 833e 12f5 a7bd
000001b0: 7004 68bc 1dc4 9bbd 6c4a 1b3e 9d5a 1ebe
000001c0: f6a3 1e3e e53f 00be 683b 493e c7fb 243e
000001d0: 53be 10be a370 683e a22c a1bd 4a65 27bd
000001e0: 4841 993e 1b67 03be 8bbd 963e 475f 16be
000001f0: 1a9b 86be da59 a2bd fff0 ad3d 75c0 9c3e
-0.12234021 0.02252535 -0.06184995 0.04447607 -0.22138615 -0.19358803 0.02771858 0.19507678
-0.18376777 -0.2735544 -0.02664185 0.17188 -0.07320656 -0.033184327 -0.16508174 -0.24642673
-0.13698928 0.055691946 0.25154567 0.21477978 0.26184162 0.16592196 -0.12271573 -0.23831123
-0.10751985 0.005168161 0.038676225 0.29989612 0.34947178 0.039763205 -0.17900537 0.16619311
0.021663701 -0.19057244 -0.09843209 -0.05715927 -0.18814996 0.13330546 0.3077837 0.20453498
0.1628805 -0.12682556 0.09984363 0.21295437 0.25013763 -0.06672416 0.22025308 0.0660741
0.2451617 -0.07035964 -0.13707486 -0.1259842 -0.12132911 -0.0544576 0.21044658 -0.09087914
-0.32097673 0.26351172 0.3212295 0.2329408 0.22918674 -0.037164647 0.019541059 -0.14969613
0.21747002 0.3844255 0.33878192 0.24263296 0.016170762 0.20816424 -0.07465734 -0.1267167
0.1193245 0.19083756 0.21811906 0.12298935 -0.21755591 -0.026249176 -0.040436447 -0.156495
0.15044862 0.29507008 -0.11004998 0.24970746 -0.29410836 -0.1759846 -0.16805558 -0.015442212
0.059683595 0.029838858 0.074116915 0.3179094 0.08285719 -0.0105154095 0.19714275 0.16804512
0.18883528 -0.1302135 0.03407944 -0.099292465 -0.01716909 0.092852995 -0.048678216 -0.17692612
0.0020704654 0.009603326 0.2562958 -0.0820104 -0.014161214 -0.07605765 0.15165108 -0.15464254
0.15492234 -0.12524374 0.19651568 0.1611167 -0.14135103 0.22699217 -0.07869841 -0.04086808
0.29932618 -0.128323 0.29441485 -0.14684783 -0.26290208 -0.07927294 0.08493232 0.30615583

fc2.weight f4 [64, 128]
00000000: 65a2 223d 6c3c b23c cc51 a5bd 2f4f 84bd
00000010: a12a f33c cead 093d e6cf e03c 0a3f 2dbd
00000020: c78e bc3c bfdd a83d 2758 a7bd ed78 e83c
00000030: 1782 10bd 57d0 68bd 38f2 8e3d 08f4 0f3d
00000040: ad2b 4c3d 2675 c13c 3279 80bd 346f 95bd
00000050: a591 80bd 3ca6 a1bc 2765 58bd c9da a0bc
00000060: 9e5a 18bd d727 a03c 6a69 b1bd aa39 2bbd
00000070: 5ef4 91bd e8fb b83c d55e f63b 3c7d b4bd
00000080: eab9 22bd 3e6f 4f3d 3151 99bd 74e0 fa3c
00000090: 6284 633d 5658 643d 8714 00bd d9e7 233d
000000a0: 8149 5f3d 6ac5 2dbd 0710 c3bd ec90 a5bd
000000b0: 65dd 083d 25d0 3dbd 491d 68bd 77c3 62bd
000000c0: d7a4 47bd 268f e7bc 3fe6 a63d 9113 ccbc
000000d0: 01b5 7d3d eb22 063c ea95 29bd 5514 67bd
000000e0: d9a2 58bd 0f6e d4bd f71c 7cbd f100 1fbc
000000f0: 0aca 08bd dcbf 70bd ba46 c3bc b210 abbd
00000100: dad1 9cbd 45e7 1a3d f197 8dbd dc72 353c
00000110: ba94 153d dcd5 5abc fa23 dc3c 15dd 8e3d
00000120: d835 b4bd 1edc 9b3d c2dd 343d de79 8cbd
00000130: 2d0a 433d 34eb bdbd 93e7 3cbd d015 3d3d
00000140: c2f8 ec3c fd18 b0bb 051b 3e3c b8cf 17bc
00000150: df23 593d c452 76bb 855c 183d 3de1 50bd
00000160: ed51 763d 55ec 0c3d e51c 9b3d b97c c13c
00000170: 518f e4bb bf32 d1bd 7421 5d3c c6e3 4abd
00000180: ae22 623d e19a fc3c abfc 1ebd a0dc acbc
00000190: afd7 0abd 27d4 1abd 44ff 593d 21bf 893d
000001a0: 5334 69bc 24af 133d 33d3 2a3d 0c08 083d
000001b0: 1e6b 543d 4b25 853d 11fa ce3b 0956 a4bd
000001c0: d398 a4bd cd42 48bd 63d4 acbb c466 07bd
000001d0: 9d39 03bd 8602 ac3c 3c91 ae3c bab4 32bb
000001e0: 241b 6abb 8229 9ebc a828 8ebd 30af 13bc
000001f0: 7aba 78bc 6319 c23c b3f4 94bc 24bc 7bbd
00000200: b17f 39be 4f6b d93c bd7b fdbd 2610 c13d
00000210: d7a7 313c 62aa 233e b8c1 8f3e aa70 653d
00000220: 5569 17bd 7116 7abc 7ca9 f1bd 8742 4a3d
00000230: b6f9 60bd e07b 33be 34b6 13be 34aa 2e3d
00000240: 127f 40bd bdcd 1e3e 6acd b63d 1908 94bb
00000250: 7e47 debd d323 ec3d 6102 b1bd 19ab 053e
00000260: bc64 a9bd 5f67 653d 38fb 8ebc 128c 933d
00000270: b871 9d3d 8080 093d 5d59 733e c803 07be
00000280: f9b6 033e 2b61 e33c 8009 9dbd d055 243e
00000290: 1777 6b3e 19ae 4d3d d5aa 853d 192a 29bd
000002a0: da92 7f3e b9b4 043d caa4 17bd a306 633d
000002b0: e542 c5bd ba8b 603e 264e 503c a50e 183d
000002c0: dd49 ebbc 139e bfbc 21c6 1abe 9ecb 3cbe
000002d0: e8e5 423e 8557 723e 7893 14be 28f5 4ebe
000002e0: bbf8 40bd feb2 5e3d f404 e0bc 3e01 26bc
000002f0: 4bff 373e 5087 893d 6bbc bd3c eb53 663e
00000300: 0ba0 8dbc 25a6 0b3e 6b74 b73d 0c70 dc3d
00000310: 233d 0f3c 9437 cabd b78f d83d bcae 67be
00000320: 4398 b63d 732c 1c3e 673e 1abe b133 0f3e
00000330: b22c e93d 2444 283e 8be0 d23d d457 053d
00000340: 29b5 103d dc3b ecbd 88dc 173e 0ded 31be
00000350: 96cc a5bd 3146 dd3d 5d37 8e3d d1f1 da3d
00000360: 6358 c03d 4c67 173b a17e d6bd a4d7 aa3c
00000370: 717a 063e 2998 313e cf3d 11be c81b 3abd
00000380: 67ba d9bc d4a6 db3d edf3 f23d f6f9 b83d
00000390: 959f 693e a67b 8a3d 20db 053e 6360 b8bd
000003a0: 031b bc3d a377 553e d0ba c53d 20b4 9a3e
000003b0: c062 6cbe 5afe fbbd c340 633b d92e 18be
000003c0: 3a86 02be a9b5 49bd 06ad 89bd 6d4f 1d3d
000003d0: 35f7 3ebd 93d4 8d3e 2984 d53d 5daa ad3c
000003e0: f045 c93d 01f7 a13d 0a62 c43d e58a c8bd
000003f0: 80ef a8bd c098 cbbd e4fb 94bd 206d 813d
0.039705653 0.021757327 -0.08072242 -0.064604156 0.029683413 0.03361302 0.027442884 -0.042296447
0.0230173 0.0824542 -0.081711106 0.028377974 -0.035280313 -0.056839313 0.06979793 0.035144836
0.04984634 0.023615431 -0.06273116 -0.07296601 -0.062777795 -0.019732587 -0.05283084 -0.019635575
-0.037195794 0.019550247 -0.08662684 -0.04180304 -0.071266875 0.022581056 0.007518629 -0.08812949
-0.039728083 0.0506432 -0.07486189 0.030624606 0.055546172 0.055748306 -0.031269576 0.04001603
0.05451346 -0.042424597 -0.09524541 -0.08084282 0.033414263 -0.04634108 -0.056668554 -0.05536219
-0.048741188 -0.0282665 0.08149385 -0.024911674 0.061940197 0.008187036 -0.041402735 -0.056415875
-0.05288968 -0.103725545 -0.06155106 -0.009704814 -0.033395804 -0.05877672 -0.023837436 -0.08352794
-0.076572135 0.037818212 -0.06913746 0.011074748 0.03651879 -0.013356652 0.026872624 0.06975762
-0.087993324 0.076103434 0.044156797 -0.06859182 0.047617126 -0.09273377 -0.046119284 0.04616338
0.02892721 -0.0053740726 0.011603122 -0.009265833 0.053012725 -0.0037585953 0.03719761 -0.050996054
0.060136724 0.03440507 0.075738706 0.023619043 -0.0069750925 -0.10214757 0.013496745 -0.049533628
0.055208854 0.03083557 -0.03881518 -0.021101296 -0.0338971 -0.03779998 0.053221956 0.06725908
-0.0142336665 0.0360557 0.04170532 0.0332108 0.051859967 0.06501254 0.0063164313 -0.080242224
-0.080369614 -0.04889183 -0.005274342 -0.03305699 -0.032037366 0.020997297 0.021309488 -0.0027268366
-0.0035721743 -0.019306902 -0.06941348 -0.009013936 -0.015181178 0.023693746 -0.018183088 -0.06145872
-0.18115117 0.026540427 -0.12377117 0.09426908 0.010843239 0.15982965 0.28077483 0.056015648
-0.036965687 -0.0152641395 -0.11799905 0.04937985 -0.054925643 -0.17527723 -0.14424974 0.042642787
-0.046996184 0.1550817 0.089258984 -0.004517567 -0.1085348 0.115302704 -0.08643032 0.1305355
-0.08271167 0.056006785 -0.017453775 0.07204451 0.07687706 0.033569813 0.23764558 -0.13185036
0.12862767 0.027756294 -0.076678276 0.1604836 0.22994648 0.05021486 0.06526724 -0.041299913
0.24958363 0.032398913 -0.03702239 0.05542625 -0.096319 0.21928301 0.012713945 0.03712334
-0.028721744 -0.023390805 -0.15114643 -0.18437049 0.19033015 0.23666199 -0.1450938 -0.20210707
-0.047112208 0.05436992 -0.027346112 -0.010132132 0.1796848 0.06715262 0.023161134 0.2249295
-0.017288228 0.13637598 0.08957752 0.10763559 0.0087426035 -0.09873882 0.105742864 -0.2262525
0.0891576 0.15251331 -0.15062867 0.13984562 0.11385478 0.16432244 0.102967344 0.032554463
0.035329018 -0.11534855 0.1483022 -0.17375584 -0.08095662 0.108044036 0.069441535 0.10690654
0.093918584 0.0023102341 -0.10473371 0.020854779 0.13132645 0.173432 -0.14183734 -0.04543665
-0.026578141 0.10725179 0.118629314 0.09032051 0.22814782 0.06761865 0.13071871 -0.09002759
0.091848396 0.20846419 0.09654772 0.3021555 -0.23084545 -0.12304373 0.0034676052 -0.14861621
-0.12746516 -0.04924551 -0.06722455 0.038405824 -0.046622474 0.27701244 0.10425598 0.0211994
0.09827793 0.079084404 0.09589012 -0.09792117 -0.08248806 -0.09941244 -0.07274607 0.06319642

fc2.bias f4 [64]
00000000: 1dd8 d7bd 5ab5 a0bb 7143 e83d 1210 bebb
00000010: 2dd2 763d f33b adbb 8dad 803c 965f 1cbd
00000020: b4bc 6d3d 33a3 513d b32a 8b3d 2973 99bd
00000030: 60b4 473d b390 7ebc 07b1 1fbd a4cf ce3d
00000040: 1d57 8d3b 28e5 bb3c c4b3 70bd de6c 71bd
00000050: b5f3 e13d 3849 80bd 5199 013e 0b57 f73d
00000060: 07bd 24bd e04b d0ba e631 c83d 87d9 c93d
00000070: f958 3b3d b84e 19bc e861 663d 819a c3bd
00000080: 4c0a 573d 8020 efbc de2e ca3d 7bad 4dbd
00000090: fffd 9abc f66b cdbc e6e8 1b3d dd03 a83d
000000a0: f02a 013c 9f80 a73d f17e 3cbd 9b26 8f3d
000000b0: 5cbb 733d 2a9e d2bc 8f1e 2b3d 6e57 04bc
000000c0: b29b 0d3e 74c8 8cbd c6ff 793d af47 433d
000000d0: 5333 9d3d 680b 7ebc 9984 623c 3370 afbd
000000e0: c225 853d 1005 fbbc d0c9 d2bc 7cc5 aabc
000000f0: a553 a1bd 178c 5cbd 6ca8 ecbc 7418 9d3c
-0.10539267 -0.0049044313 0.113409884 -0.0058002556 0.060259033 -0.0052866875 0.015707755 -0.038177095
0.05804129 0.05118103 0.067952536 -0.07492668 0.048756003 -0.015537429 -0.038987186 0.10098198
0.004313363 0.022936419 -0.058765188 -0.058941714 0.110328116 -0.06263965 0.12656142 0.12077149
-0.040219333 -0.0015891753 0.09775142 0.09855943 0.045739148 -0.009357147 0.056245714 -0.09550954
0.052500054 -0.029190302 0.098722205 -0.050214272 -0.018919943 -0.025075894 0.038063906 0.08203862
0.007883772 0.081788294 -0.0460195 0.06989785 0.05950485 -0.025710184 0.04177719 -0.0080774855
0.13828924 -0.06874171 0.06103494 0.047675785 0.07675805 -0.015505649 0.013825559 -0.08566322
0.06501342 -0.030642062 -0.025730997 -0.020846121 -0.07877282 -0.053844538 -0.028888904 0.0191767

fc3.weight f4 [3, 64]
00000000: bf17 243d fe0c f23d ae4e 1bbc a00b 5ebe
00000010: f9cd 92be 9e6c 82be 1e18 833a 18fd 873c
00000020: c26d 56be 8eb0 283e 814e 68be e59e 1b3d
00000030: 60ef e4bc f77b 94bc 6b13 0d3e 11a0 273b
00000040: bd0d f23d 4190 0d3e 8159 35be 1305 283c
00000050: b626 9abd 7809 c23c d050 973e 65c6 613e
00000060: f554 c63d 1f43 82be a903 473e c0b1 163e
00000070: aa06 47be 47c6 2b3e d77a 763b 6aa7 16be
00000080: ee8f 803d fd0e 363e addd d43c 7a3a dcbc
00000090: 5be9 3e3e bcba 89be 2cd8 17be 77a9 053e
000000a0: a69d ef3d a495 0ebe fb25 c03d 93b5 a7bd
000000b0: 340e 0ebb 8723 f0bb b24f 103e 5e6a bd3d
000000c0: 61e6 643e 029c ffbc 86b2 ea3c 90f1 b5bd
000000d0: a9de cfbd 8bd4 c03d e945 02be d83a 0f3c
000000e0: 510e 31be 2386 80bd ccfe 393d 19dd ce3d
000000f0: d33d 0fbe 50c6 76be 318c 57be beeb d93d
00000100: 659a d3bd 8f13 8c3e 506e a0be 7894 c13d
00000110: 246a 38bd 1f57 773e f218 b6be f877 abbe
00000120: 8b5d aa3d b9a3 a4be f9f2 c6bd cd37 c43c
00000130: 08a4 9dbe 2e50 b6be 6225 a63e 85af b0be
00000140: ccf7 e13d 0c39 b8be c74b 053e fdd4 933d
00000150: 8dd3 6abe 90bc e53c c834 a4be 1ce9 a0be
00000160: 104a aa3c af25 1a3e d5cd babe 4803 91be
00000170: a599 9f3e c254 a6be 9ac6 01bd 0ca8 1e3e
00000180: f425 323e 90e2 bcbe d988 743e 8888 d3bd
00000190: 6391 1b3d 5436 0cbe c37a ab3e e47b e83d
000001a0: b650 a03e 8dd7 84be db67 b73e ca81 7d3e
000001b0: ba1e 6d3e e536 bebd 25ce 9b3e 4c50 133d
000001c0: 22f2 1dbe 7b49 a4bd ba98 61be dfd0 643e
000001d0: b67c 8a3e bdbc bebe 4cbe 423e 9482 093d
000001e0: 8529 5fbd def8 643e 74fd 71be f7f9 9a3e
000001f0: 8ffc 6cba d742 13bd e3d4 c0bc b4a2 993e
00000200: 56ca b8bd 1c2d 98be 8344 923e 635c 5b3d
00000210: 3894 973e 8c0d cdbd 1d1a 8d3e d31e 963e
00000220: f36f 863d f9ce 6a3e e5da 5d3e 3d3c 953d
00000230: cff6 9f3e b080 233e 3796 2ebe 6c20 773e
00000240: e592 a6be 5800 423e f3e3 9bbe ed7d 8ebd
00000250: 8c19 8a3e 9ef1 863d 222e 4abd 6d8f 023e
00000260: cda2 dd3d daaf 88bd 9238 823d dd9c 783e
00000270: e586 ed3b a834 833e 2843 93bc 8944 7e3e
00000280: 427c bfbe f8c3 933e 145f 8ebe f70b 00bd
00000290: 311c b2be 0cba 673e 98bc 94bd f582 b3be
000002a0: e1ca 8abe 8b93 943e 6d31 7cbe ed0f 94be
000002b0: a97b aebe 1de4 c93c 67f2 7abe a33e a8bc
000002c0: 86c6 18be b886 5a3d e63e 9b3e dbb4 b2be
000002d0: c834 cabd 91fc 4abb 6e44 86bd 325a f0bd
000002e0: 57c6 b93d bf1b b6be b434 4f3e 6307 8dbe
000002f0: a09d a53d 648b 3e3e bf11 8c3e 7a5c 98be
0.04006171 0.11818884 -0.009479208 -0.21684122 -0.2867277 -0.25473493 0.0010001694 0.016600177
-0.20940307 0.164736 -0.22686197 0.03799333 -0.027946174 -0.018125517 0.13776939 0.0025577585
0.118190266 0.1382456 -0.17709924 0.010255116 -0.07526915 0.023686156 0.29553843 0.22048338
0.09684173 -0.25441834 0.1943499 0.14716244 -0.19436136 0.16774856 0.003760984 -0.14712301
0.062774524 0.17779155 0.02598461 -0.026883353 0.18643706 -0.2690028 -0.14828557 0.13052927
0.11699991 -0.13924271 0.09382244 -0.081889294 -0.0021675946 -0.007328454 0.14092901 0.092488036
0.22353508 -0.03120232 0.02864958 -0.08883965 -0.10149891 0.09415539 -0.12721981 0.008742057
-0.17290618 -0.062755845 0.04540901 0.10100765 -0.13988428 -0.24099088 -0.21049573 0.106406674
-0.10332183 0.27358672 -0.31334162 0.09452146 -0.0450231 0.24154328 -0.35565907 -0.33489966
0.08318623 -0.3215616 -0.09714312 0.02395239 -0.30789208 -0.35608047 0.32450396 -0.3450891
0.11033592 -0.35981023 0.13017188 0.07218359 -0.22932263 0.028044015 -0.3207152 -0.31427848
0.020787269 0.15053438 -0.36485162 -0.28322816 0.3117191 -0.3248654 -0.03168354 0.15493792
0.1739729 -0.36891603 0.23880328 -0.10328776 0.03798045 -0.136926 0.33492097 0.11351755
0.31311578 -0.25945702 0.35821423 0.24756542 0.23156253 -0.09287814 0.30430713 0.03596525
-0.15424398 -0.08021828 -0.22030917 0.22345303 0.27048272 -0.3725337 0.19017905 0.033571795
-0.054482955 0.2236056 -0.23631841 0.30268833 -0.000904032 -0.035952415 -0.023539012 0.30006945
-0.090229675 -0.29721916 0.28567895 0.053554904 0.2960527 -0.100123495 0.27558985 0.29320392
0.06564321 0.22930516 0.21665533 0.0728688 0.31242988 0.15967059 -0.1704949 0.24133462
-0.32533947 0.18945444 -0.3044735 -0.06957612 0.26972616 0.065890536 -0.049360402 0.12750025
0.108220674 -0.06674166 0.06358446 0.24278589 0.0072487467 0.2562611 -0.017976359 0.24830832
-0.3739949 0.2886045 -0.27806914 -0.03126141 -0.34787133 0.22629565 -0.07262534 -0.3506085
-0.2710791 0.29018816 -0.2462823 -0.289184 -0.3407872 0.024644906 -0.24506532 -0.02053768
-0.1491948 0.053351134 0.30321425 -0.34903607 -0.098733485 -0.0030973295 -0.06556021 -0.117359534
0.090710334 -0.35568044 0.20234948 -0.27544698 0.08086705 0.18607861 0.2735729 -0.29758054

fc3.bias f4 [3]
00000000: b2c6 193e 2f2b 08bd 8bb2 393d
0.15017202 -0.033244308 0.045336287
