weights/agent_pytorch.pt (torch, 42628 bytes, 6 tensors)

fc1.weight f4 [128, 11]
-0.24922104 -0.2173657 0.21406533 -0.2447583 -0.30342114 0.16986439 0.10313399 -0.11899213
0.274217 0.18364495 0.0042066523 0.2856478 0.2799082 -0.2715093 0.04720654 0.06899497
0.2183263 -0.061343513 -0.14798094 -0.12691155 -0.26545608 -0.2791645 0.07177653 -0.11535704
-0.24410164 -0.13855919 -0.030556146 0.051551934 -0.0839571 0.2175597 -0.1866637 0.25126037
-0.29695866 -0.05323658 -0.11180103 -0.2934538 -0.033050552 -0.058323674 0.16804901 -0.17584372
-0.18139264 -0.07744176 -0.18363126 0.07520382 0.10491378 -0.2036558 0.2533043 0.28920692
-0.09508816 -0.26491204 0.15316407 -0.29155728 -0.118997514 -0.25839522 0.19610906 0.12485572
0.06945797 -0.03189585 -0.26296282 -0.2096353 0.118181184 0.18328764 -0.017364545 0.077776395
-0.17782488 0.11604148 0.01591633 0.16760443 -0.1299459 0.03859443 0.029739633 0.115953475
-0.1097719 -0.28034586 -0.21496814 0.18084429 0.040001106 -0.128722 -0.0953131 0.13534798
-0.05162713 0.0921849 -0.19360888 -0.06863519 0.21723811 -0.030604092 0.2704653 0.1346448
-0.22051114 -0.23946731 -0.281462 0.045881577 -0.17928176 -0.016587637 -0.23796585 -0.057184234
-0.13728333 -0.27403626 -0.0129063595 -0.23092362 -0.28965253 0.10585021 0.1749194 0.092587166
0.0375105 0.053511005 -0.2557739 -0.076338835 -0.16215345 0.003784895 -0.17746955 0.03816128
0.083867565 -0.07729647 -0.14051183 0.06984115 0.17695574 -0.053201716 -0.03878453 -0.29004884
0.10521843 0.28588167 0.16890517 0.23383489 -0.17935458 -0.20260262 -0.17721336 -0.26887274
0.09050658 0.23214906 -0.27004358 -0.04733766 0.087700486 -0.007248328 0.14073768 -0.049344283
-0.03827178 -0.12619628 -0.27440745 0.22636433 -0.22757027 0.2896143 -0.27076146 0.11043465
0.092498325 -0.13567017 0.02845219 -0.1818688 -0.14151233 -0.060989406 -0.05057619 0.0996912
0.13903081 -0.12276765 0.22048166 0.25640076 -0.19014388 -0.045720875 0.27705175 0.13292713
0.016858216 0.14047687 0.18822198 -0.16552529 0.2771472 -0.1585227 0.06128865 -0.19548742
0.15957215 -0.100627504 0.24709477 -0.25269493 0.2581684 0.22838642 0.14595746 -0.18103495
-0.15052114 0.19918607 -0.2980967 0.112043746 -0.092400156 -0.27592835 0.019875338 -0.15621565
0.097611226 0.2897656 -0.25316003 -0.08784994 0.25167197 0.24878831 -0.14748192 0.17446525
-0.287346 -0.11987496 -0.08668256 0.1781559 0.24006651 -0.2783847 0.161691 -0.19227958
-0.11121331 -0.09159688 0.2351017 -0.2002103 -0.29877698 -0.22176164 0.09276095 -0.012360466
-0.18267125 0.10387197 0.28284404 -0.011202682 0.12739225 0.17930362 0.092911206 0.0456813
0.19429088 -0.09727036 -0.27040383 0.15829095 -0.041531615 0.14686601 0.090492085 0.10626405
0.20471688 -0.038454756 -0.09958531 -0.009307284 0.10873915 0.040482763 -0.1606033 0.28885788
0.22902986 -0.12048144 0.09914882 0.122480765 -0.30103287 0.0061356057 -0.20140317 0.23580162
-0.11034538 -0.07985816 -0.24093808 0.23605672 -0.052977744 0.24859366 0.037217896 -0.09819583
0.14126727 -0.023058336 0.3009739 -0.028342584 0.2744314 -0.059581198 0.0851136 0.2646465
00000000: cd33 7fbe 1d95 5ebe f133 5b3e eba1 7abe
00000010: 045a 9bbe eef0 2d3e ea37 d33d 25b2 f3bd
00000020: 2c66 8c3e 6c0d 3c3e f5d7 893b 6e40 923e
00000030: 2150 8f3e 4403 8bbe a55b 413d 3c4d 8d3d
00000040: ee90 5f3e 5643 7bbd 5188 17be 1af5 01be
00000050: dce9 87be a6ee 8ebe 93ff 923d 5040 ecbd
00000060: c8f5 79be 76e2 0dbe e250 fabc 1f28 533d
00000070: b3f1 abbd f8c7 5e3e c524 3fbe 33a5 803e
00000080: f70a 98be 9a0e 5abd f0f7 e4bd 943f 96be
00000090: 0460 07bd cee4 6ebd 0a15 2c3e 6010 34be
000000a0: febe 39be c999 9ebd d509 3cbe 7604 9a3d
000000b0: 09dd d63d 258b 50be 1ab1 813e ee12 943e
000000c0: 95bd c2bd 8da2 87be 0bd7 1c3e ff46 95be
000000d0: f8b4 f3bd 614c 84be d0d0 483e 5bb4 ff3d
000000e0: fb3f 8e3d 39a5 02bd 10a3 86be a3aa 56be
000000f0: fa08 f23d c1af 3b3e 1740 8ebc 3b49 9f3d
00000100: ba17 36be 28a7 ed3d f762 823c 7fa0 2b3e
00000110: 8a10 05be 3115 1e3d 88a0 f33c 0479 ed3d
00000120: 17d0 e0bd 7e89 8fbe 9c20 5cbe 3f2f 393e
00000130: 33d8 233d b3cf 03be 8433 c3bd a998 0a3e
00000140: f876 53bd 70cb bc3d 6841 46be 9b90 8cbd
00000150: ab73 5e3e 6fb5 fabc 6e7a 8a3e 54e0 093e
00000160: accd 61be eb36 75be ca1b 90be 52ee 3b3d
00000170: a395 37be cce2 87bc 52ad 73be 043a 6abd
00000180: 0094 0cbe 7b4e 8cbe 3275 53bc 3e77 6cbe
00000190: 564d 94be ffc7 d83d 121e 333e 579e bd3d
000001a0: 9ca4 193d 5b2e 5b3d ccf4 82be 8957 9cbd
000001b0: 8e0b 26be 000c 783b 94ba 35be 014f 1c3d
000001c0: c2c2 ab3d 9d4d 9ebd 55e2 0fbe e008 8f3d
000001d0: e333 353e 0bea 59bd 87dc 1ebd 4881 94be
000001e0: c37c d73d 155f 923e 7af5 2c3e 6a72 6f3e
000001f0: baa8 37be 1077 4fbe 6b77 35be b0a9 89be
00000200: 845b b93d 7cb8 6d3e 2743 8abe 22e5 41bd
00000210: 509c b33d 6283 edbb 8a1d 103e 3b1d 4abd
00000220: dfc2 1cbd 9939 01be 227f 8cbe 0dcc 673e
00000230: 2e08 69be 5348 943e 3fa1 8abe 902b e23d
00000240: c36f bd3d 1fed 0abe 9114 e93c d13b 3abe
00000250: 9ce8 10be 07d0 79bd fb28 4fbd e62a cc3d
00000260: 185e 0e3e 9b6d fbbd f2c5 613e f646 833e
00000270: 14b5 42be d045 3bbd bad9 8d3e 0d1e 083e
00000280: 3e1a 8a3c 2bd9 0f3e 43bd 403e 767f 29be
00000290: 3de6 8d3e c653 22be cf09 7b3d db2d 48be
000002a0: e266 233e cb15 cebd 6906 7d3e 3b61 81be
000002b0: a62e 843e 21de 693e df75 153e 3a61 39be
000002c0: 3722 1abe 6ff7 4b3e 21a0 98be 3177 e53d
000002d0: 4b3c bdbd 7b46 8dbe 9bd1 a23c fff6 1fbe
000002e0: 65e8 c73d 285c 943e 319e 81be abea b3bd
000002f0: 26db 803e 5dc2 7e3e 8005 17be 05a7 323e
00000300: 041f 93be 0181 f5bd a086 b1bd 806e 363e
00000310: ffd3 753e 7088 8ebe 5392 253e f0e4 44be
00000320: cec3 e3bd 2597 bbbd 80be 703e ee03 4dbe
00000330: 4cf9 98be 7c15 63be 74f9 bd3d 8d83 4abc
00000340: 2c0e 3bbe d4ba d43d efd0 903e 748b 37bc
00000350: 1d73 023e 5e9b 373e 3b48 be3d 511c 3b3d
00000360: 30f4 463e af35 c7bd 5f72 8abe 0617 223e
00000370: 0e1d 2abd 0b64 163e ea53 b93d f7a0 d93d
00000380: 4da1 513e bc82 1dbd 62f3 cbbd 947d 18bc
00000390: a2b2 de3d 41d1 253d 3175 24be 2ee5 933e
000003a0: ce86 6a3e f9be f6bd 890e cb3d 32d7 fa3d
000003b0: fb20 9abe 310d c93b a23c 4ebe fb75 713e
000003c0: c2fc e1bd ad8c a3bd 79b8 76be dab8 713e
000003d0: 31ff 58bd 568f 7e3e cb71 183d e51a c9bd
000003e0: 5ea8 103e d6e4 bcbc 4019 9a3e b52e e8bc
000003f0: 4682 8c3e 6a0b 74bd 0a50 ae3d bf7f 873e

fc1.bias f4 [128]
-0.076396905 -0.13010779 0.20813404 0.2299923 -0.17557436 -0.027707864 0.2989292 -0.19132756
0.018388344 0.26768357 -0.1598708 -0.29744238 -0.12776613 -0.011759815 -0.29485834 0.100484855
0.2541979 0.07303715 0.1914616 -0.19561003 -0.051873535 -0.19082032 -0.11785421 -0.10698639
-0.12920822 -0.07751989 -0.06704428 0.10905279 -0.056596074 -0.27133563 -0.011059593 -0.07652075
-0.23053543 -0.2123726 0.27644393 0.11343165 -0.10558952 0.06450232 -0.12604597 0.1919325
0.078336336 -0.29283828 -0.17582096 -0.16316493 0.2551776 0.122693956 0.28415838 -0.09800318
-0.18456401 0.24231233 -0.17706774 0.010621579 -0.050153423 0.26837865 0.010859263 -0.14855178
-0.14258806 0.06993175 0.086659364 -0.15491326 -0.27322963 0.21142842 -0.12958997 -0.10906634
-0.09139338 0.14007373 0.19481789 0.168523 -0.066171445 -0.123365924 -0.27571258 0.2633598
0.09032203 -0.10910994 0.13045955 0.12589096 -0.2980494 0.11224962 -0.29649684 -0.075041614
-0.285288 0.12055756 -0.13829537 -0.025440302 0.1770556 -0.26448122 -0.1820345 0.109418504
0.09353712 -0.10047884 0.10941657 -0.15220249 -0.13340698 -0.13855729 -0.24142282 -0.09770151
0.10156023 -0.013672755 -0.026320634 0.019053055 -0.14165056 0.1661693 -0.048752747 0.025409274
-0.20400143 0.081929676 0.21133988 -0.0057415175 -0.28471747 0.16081387 0.027380545 0.03364371
0.048633594 0.085329585 0.008439042 -0.28009662 -0.1916232 0.091093235 0.0007930293 -0.23586345
0.25946248 -0.04569406 -0.0059045344 -0.1257877 0.060764458 -0.063999936 -0.28843638 0.19763112
00000000: fb75 9cbd fa3a 05be 1721 553e 1a83 6b3e
00000010: c4c9 33be 9afb e2bc 400d 993e 5feb 43be
00000020: 27a3 963c d20d 893e 2cb5 23be 5e4a 98be
00000030: 20d5 02be 3dac 40bc acf7 96be 01cb cd3d
00000040: 3a26 823e 8094 953d 820e 443e ff4d 48be
00000050: 5879 54bd 6766 43be 8c5d f1bd ae1b dbbd
00000060: 294f 04be c0c2 9ebd 834e 89bd 1257 df3d
00000070: 49d1 67bd 81ec 8abe 4c33 35bc e9b6 9cbd
00000080: 7b11 6cbe 3478 59be 0f8a 8d3e da4e e83d
00000090: 513f d8bd cb19 843d 3212 01be f489 443e
000000a0: cd6e a03d e6ee 95be 690a 34be b514 27be
000000b0: a3a6 823e f846 fb3d 357d 913e e4b5 c8bd
000000c0: 59fe 3cbe b920 783e 3f51 35be 2206 2e3c
000000d0: ad6d 4dbd ed68 893e 0deb 313c f51d 18be
000000e0: 9b02 12be 6138 8f3d 777a b13d 95a1 1ebe
000000f0: c1e4 8bbe b180 583e 3cb3 04be 2c5e dfbd
00000100: 742c bbbd 7d6f 0f3e 577e 473e 4b91 2c3e
00000110: e584 87bd 46a7 fcbd 332a 8dbe 19d7 863e
00000120: c2fa b83d 0875 dfbd 3097 053e 8fe9 003e
00000130: ee99 98be 21e3 e53d 6fce 97be 6baf 99bd
00000140: 4511 92be e2e6 f63d 4d9d 0dbe 2e68 d0bc
00000150: 104e 353e 156a 87be 4167 3abe cf16 e03d
00000160: 6490 bf3d dac7 cdbd cb15 e03d f8da 1bbe
00000170: d79b 08be f6e1 0dbe 8b37 77be bb17 c8bd
00000180: cffe cf3d b103 60bc 5f9e d7bc 2715 9c3c
00000190: d80c 11be 4928 2a3e f6b0 47bd 1c27 d03c
000001a0: c0e5 50be bfca a73d 7b69 583e 5723 bcbb
000001b0: 7dc6 91be 64ac 243e 2a4d e03c fdcd 093d
000001c0: 0534 473d 47c1 ae3d e843 0a3c d368 8fbe
000001d0: df38 44be 178f ba3d 4ce3 4f3a 3086 71be
000001e0: 44d8 843e b229 3bbd d37a c1bb 7ece 00be
000001f0: 27e4 783d 6612 83bd efad 93be d05f 4a3e

fc2.weight f4 [64, 128]
-0.010064529 -0.06654569 -0.05963016 0.057884064 -0.01387603 0.011220239 0.007530963 -0.06812051
0.055622913 -0.06898153 -0.068909414 0.055405814 0.052819353 -0.08224693 -0.026141865 -0.064639285
-0.039077643 -0.061571322 0.008277845 0.015641578 0.04520036 -0.0015892573 -0.08315928 -0.039808493
-0.0037486723 0.07859304 0.0065845177 0.03214199 0.018111195 0.013127122 -0.03738907 0.070978075
0.0060819695 -0.067263186 0.0512847 0.0390089 -0.027252758 -0.029771922 0.035643116 -0.012889322
-0.052749984 0.030301364 -0.04469686 0.07923201 0.090369694 -0.041261487 0.043448716 0.042871393
-0.050322168 0.050966147 -0.0594945 0.06304184 -0.022935603 0.08273885 -0.0811467 0.030882297
-0.06930258 0.05745094 0.09127414 -0.023540236 -0.07200877 0.04612755 -0.0032775647 0.05182542
-0.059316017 -0.05627168 0.04380399 -0.022534633 -0.041015923 0.00010200657 -0.061986875 0.07207297
0.0748939 -0.00085070555 0.020245822 0.07080907 0.018190674 0.056780037 0.021229638 0.03361193
0.008326684 0.039184816 -0.031538174 -0.045058943 0.088550285 0.055221643 0.049847644 -0.01953773
0.023254927 -0.063416906 -0.04201669 -0.016132727 0.037609458 0.081332244 0.07774756 -0.07821867
-0.06537834 0.05962498 -0.039877176 0.08475992 0.0670552 -0.030085381 0.038004167 -0.023963794
0.005014137 -0.0268279 -0.06069134 0.05347512 0.06012304 0.009030553 -0.06977773 0.025881013
-0.0032750033 -0.0056950673 -0.046269007 0.016375799 -0.06501537 -0.073088065 0.075898476 -0.0673777
0.009719894 0.02014299 0.053749993 0.056620754 -0.067436874 -0.060021255 0.059557877 -0.022969471
-0.05115117 0.0192383 -0.026141087 -0.05927776 -0.032442775 0.007959052 0.08042434 -0.053051174
-0.034174297 0.087669455 0.05052478 -0.016989816 0.050800093 0.007086297 0.075299196 -0.024489056
-0.068142414 -0.040187206 -0.017549066 0.0028216734 -0.028449498 0.085476786 -0.00972646 -0.006687505
0.074025325 -0.052134406 0.017085215 -0.0035572748 -0.0077883275 0.006562175 -0.0020563286 -0.0066639963
0.0753622 -0.0032143677 0.08359835 -0.069318555 0.031001726 -0.01691746 0.07294227 0.012358168
0.017032394 0.027823891 -0.001378655 -0.06647681 0.07547363 0.08873 0.06989084 0.08864023
0.0010705931 0.05528003 0.065790094 -0.07877918 0.064866126 0.0045226878 0.04763599 0.043520138
-0.060573164 -0.047435537 -0.028207062 0.049758717 0.009360728 -0.028554114 0.043371398 -0.04335405
0.025566287 -0.01790331 -0.071029104 -0.06386085 0.0016358139 -0.010938809 0.03871898 -0.07806619
-0.055415753 0.08578835 -0.08412415 -0.036437985 -0.0032416615 -0.059049755 -0.058497913 -0.07007851
0.07448001 0.030746205 -0.04051228 -0.07567719 -0.07566327 -0.026841836 -0.080221295 -0.0468921
0.025744664 -0.041360307 0.020969553 0.08104665 0.08896812 0.01153613 -0.006142197 0.015004767
0.033009984 -0.066161536 -0.024715878 0.0050628725 0.065459184 -0.01356863 0.078077964 -0.034403525
0.031835865 0.024618903 -0.0214338 -0.062535025 -0.08080572 -0.04783003 -6.3483574e-05 -0.0077385046
-0.019228447 -0.040509563 -0.04956459 0.02468368 -0.06014964 -0.058971953 -0.04873241 0.01254541
0.07253707 -0.080296665 0.07340334 0.02410821 0.053356953 -0.068163045 -0.048467167 -0.0038299265
00000000: b2e5 24bc 1b49 88bd c13e 74bd d717 6d3d
00000010: 4a58 63bc 18d5 373c 4cc6 f63b c482 8bbd
00000020: dad4 633d 3046 8dbd 6120 8dbd 35f1 623d
00000030: 1b59 583d 1471 a8bd 7727 d6bc 9a61 84bd
00000040: e10f 20bd 3632 7cbd cc9f 073c c422 803c
00000050: 0324 393d a04e d0ba 6a4f aabd 3b0e 23bd
00000060: 49ac 75bb 63f5 a03d f0c2 d73b 52a7 033d
00000070: ee5d 943c 2413 573c 4825 19bd f45c 913d
00000080: 424b c73b 48c1 89bd e80f 523d ccc7 1f3d
00000090: 2d41 dfbc 3fe4 f3bc 84fe 113d bc2d 53bc
000000a0: 5e10 58bd 913a f83c 0e14 37bd 6444 a23d
000000b0: bf13 b93d ce01 29bd 48f7 313d ea99 2f3d
000000c0: 9e1e 4ebd e1c1 503d 81b0 73bd 151c 813d
000000d0: 72e3 bbbc fc72 a93d 3e30 a6bd dffc fc3c
000000e0: 83ee 8dbd ad51 6b3d f0ed ba3d 74d7 c0bc
000000f0: 5679 93bd 3ef0 3c3d 69cc 56bb e446 543d
00000100: 5af5 72bd 227d 66bd d06b 333d 8d9a b8bc
00000110: 5000 28bd 5cec d538 f3e5 7dbd fe9a 933d
00000120: f961 993d e201 5fba 91da a53c 5804 913d
00000130: 9c04 953c 2f92 683d c7e9 ad3c aaac 093d
00000140: a56c 083c 4280 203d 2c2e 01bd ba8f 38bd
00000150: da59 b53d 1730 623d 0b2d 4c3d 970d a0bc
00000160: 1e81 be3c b9e0 81bd b119 2cbd c828 84bc
00000170: 600c 1a3d 8591 a63d 1d3a 9f3d 1c31 a0bd
00000180: 14e5 85bd 5339 743d 4056 23bd 9c96 ad3d
00000190: 3d54 893d 9e75 f6bc 42aa 1b3d b84f c4bc
000001a0: a14d a43b 2fc6 dbbc 7c97 78bd ba08 5b3d
000001b0: 9443 763d e2f4 133c a0e7 8ebd 6b04 d43c
000001c0: 70a1 56bb b09d babb 9284 3dbd 8a26 863c
000001d0: c726 85bd 32af 95bd a970 9b3d 52fd 89bd
000001e0: 3140 1f3c e902 a53c f428 5c3d 2aeb 673d
000001f0: 581c 8abd d9d8 75bd f6f2 733d 792a bcbc
00000200: e483 51bd a499 9d3c d525 d6bc 3dcd 72bd
00000210: b7e2 04bd af66 023c 84b5 a43d 304c 59bd
00000220: 59fa 0bbd 0b8c b33d 12f3 4e3d 3a2e 8bbc
00000230: c213 503d 2b34 e83b 7736 9a3d 469d c8bc
00000240: 408e 8bbd 579b 24bd 0fc3 8fbc d3eb 383b
00000250: ec0e e9bc 740e af3d bb5b 1fbc dc22 dbbb
00000260: 979a 973d e38a 55bd 4bf6 8b3c 2b21 69bb
00000270: 3a35 ffbb 8407 d73b 78c3 06bb a75d dabb
00000280: 7f57 9a3d 24a8 52bb 9d35 ab3d e3f6 8dbd
00000290: 55f7 fd3c 7c96 8abc c262 953d ea79 4a3c
000002a0: 8587 8b3c eeee e33c fcb3 b4ba fe24 88bd
000002b0: eb91 9a3d 13b8 b53d ee22 8f3d 0289 b53d
000002c0: 2553 8c3a 506d 623d f5bc 863d fb56 a1bd
000002d0: 88d8 843d 0e33 943b f51d 433d 2c42 323d
000002e0: 911b 78bd c44b 42bd 7f12 e7bc cccf 4b3d
000002f0: bd5d 193c 51ea e9bc 35a6 313d 0494 31bd
00000300: 6470 d13c f6a9 92bc b577 91bd 7ac9 82bd
00000310: ce68 d63a b138 33bc cb97 1e3d 2be1 9fbd
00000320: a1fb 62bd cdb1 af3d 4849 acbd ff3f 15bd
00000330: 0e72 54bb 28de 71bd 829b 6fbd 5285 8fbd
00000340: fa88 983d 77df fb3c 34f0 25bd a5fc 9abd
00000350: 58f5 9abd 69e3 dbbc 104b a4bd ee11 40bd
00000360: 79e6 d23c 6d69 29bd 57c8 ab3c c9fb a53d
00000370: eb34 b63d 0902 3d3c 7c44 c9bb 8ed6 753c
00000380: 7a35 073d b37f 87bd f478 cabc 74e6 a53b
00000390: 770f 863d f64e 5ebc 57e7 9f3d b6ea 0cbd
000003a0: 5366 023d 95ad c93c f095 afbc 5d12 80bd
000003b0: 787d a5bd 6ce9 43bd 7c22 85b8 4893 fdbb
000003c0: fa84 9dbc 5bed 25bd 3d04 4bbd 6e35 ca3c
000003d0: 785f 76bd 938c 71bd a39b 47bd 438b 4d3c
000003e0: 518e 943d 9472 a4bd 7e54 963d 957e c53c
000003f0: d28c 5a3d 1199 8bbd 8285 46bd 81ff 7abb

fc2.bias f4 [64]
-0.046448763 0.055895273 -0.073592745 0.024211753 -0.029406562 -0.08150574 0.031831715 -0.021263031
-0.038440846 0.0431956 0.04085085 -0.06306587 -0.032844864 -0.054395188 0.06791309 -0.013538558
0.024707071 0.08739263 -0.06916002 -0.03258001 0.09032734 -0.012206725 -0.032638565 0.0064442772
0.07548834 -0.004683654 -0.014092262 0.0022256542 -0.012791424 0.07357161 -0.05321869 0.078699514
0.03670382 0.034061015 0.05186002 0.0055496916 0.054145474 -0.011007089 -0.05061144 0.0121656265
-0.02041747 -0.05021183 0.027640417 -0.059722308 0.05943049 -0.0012793391 0.014480677 -0.0723561
0.07113141 -0.032647815 -0.033755936 0.036375202 -0.04748722 0.030110426 -0.013033002 -0.043777287
-0.035786826 -0.0507748 -0.05963435 -0.023500934 -0.022425437 0.07021377 0.09263097 -0.021157991
00000000: 0f41 3ebd 71f2 643d cbb7 96bd ba57 c63c
00000010: 08e6 f0bc 7bec a6bd f961 023d cf2f aebc
00000020: 2674 1dbd dfed 303d 3953 273d ae28 81bd
00000030: 5688 06bd 7dcd 5ebd 0516 8b3d d4d0 5dbc
00000040: 7c66 ca3c e8fa b23d c5a3 8dbd 9e72 05bd
00000050: 8afd b83d b7fe 47bc 04b0 05bd 842a d33b
00000060: a199 9a3d 5679 99bb 3be3 66bc 48dc 113b
00000070: 1f93 51bc b6ac 963d d7fb 59bd 362d a13d
00000080: bf56 163d 9083 0b3d 2c6b 543d 30da b53b
00000090: a5c7 5d3d 1457 34bc f14d 4fbd 5652 473c
000000a0: 8a42 a7bc ebaa 4dbd 286e e23c 619f 74bd
000000b0: 636d 733d 7faf a7ba 5d40 6d3c 6f2f 94bd
000000c0: 58ad 913d b7b9 05bd aa43 0abd 2afe 143d
000000d0: f681 42bd 24aa f63c 5f88 55bc d04f 33bd
000000e0: 3595 12bd 3df9 4fbd 2643 74bd 0885 c0bc
000000f0: 8db5 b7bc 3dcc 8f3d 4eb5 bd3d 8653 adbc

fc3.weight f4 [3, 64]
0.08335237 0.043555204 0.111373045 0.119691126 -0.092592135 -0.055332806 0.082197905 0.11737949
0.060065344 0.117505684 -0.061943516 -0.030502662 -0.0025124357 -0.008320432 0.028683195 0.038210988
0.02477397 0.1083324 -0.11300944 0.07107028 0.03628262 -0.06736345 -0.014607294 0.03891562
-0.11558808 -0.031953596 -0.053631216 0.077706955 -0.01932368 -0.062237296 0.037015103 0.099564865
0.10246614 0.11759296 -0.04936668 -0.084361196 -0.064798035 -0.00892284 -0.04110971 0.059140213
0.06390089 -0.045340795 0.028606465 0.027382668 -0.10693612 0.11406519 0.09132828 0.0035236194
-0.084479 0.110871464 -0.047695577 0.071724184 0.09510571 0.044734716 0.10854703 -0.05605766
0.116700545 0.0067267995 0.119173706 -0.094431564 0.01733022 0.02647378 -0.097914375 -0.0376248
-0.01626515 0.07053396 -0.098244615 -0.024310734 -0.0072772205 -0.047456603 0.059376955 -0.09351774
0.05673476 0.011871355 -0.04539217 -0.09762312 -0.10961869 -0.034870546 -0.003793325 -0.03784907
0.0938354 0.10972761 -0.07558398 -0.0220023 0.044574644 0.06908959 -0.027567549 -0.021155637
-0.016453298 0.06005003 -0.112096265 0.022688726 -0.08844086 -0.06396219 0.06331062 -0.12152139
0.09735284 0.08378381 -0.050664578 0.12676677 0.11149792 0.044279303 -0.06622982 -0.0027240852
-0.048328757 -0.00024816144 -0.030464917 0.105355285 -0.011546626 0.12370063 0.03898778 0.05063914
-0.08375237 -0.009530004 0.08961959 -0.07017449 -0.053717833 -0.0002805445 0.09061399 0.0526679
-0.0578171 -0.054682977 0.02917888 -0.039188027 0.08071896 -0.060970433 0.07193553 -0.11773564
0.012865998 -0.12287929 0.11438139 0.013959453 -0.099609286 0.018057706 -0.09709645 -0.06306247
-0.057376657 -0.058136247 -0.050849363 0.05514647 -0.063292086 0.04984701 0.043321524 -0.046584904
-0.012170613 0.09849357 0.08013327 -0.01052581 -0.12601799 -0.0013158233 0.020276519 -0.10236275
0.039651528 0.058625955 0.11807524 -0.017443946 0.011682194 -0.107365176 0.043812796 0.0007852098
-0.10464291 -0.090735614 0.042230397 0.009664774 -0.014607742 0.01896579 0.04354036 0.035058796
-0.122991174 0.062153768 -0.10117171 -0.03403842 -0.057531264 -0.025763405 -0.11560447 -0.11289267
0.06481001 0.095335804 0.11114903 0.1131493 0.11062001 0.09558258 -0.089232765 -0.07643482
-0.053846598 0.11608703 -0.09207605 -0.05708246 -0.006429693 -0.0341947 -0.12897432 0.03823448
00000000: a6b4 aa3d f166 323d 8d17 e43d 9f20 f53d
00000010: f2a0 bdbd a7a4 62bd 6057 a83d a864 f03d
00000020: 1407 763d d2a6 f03d 7cb8 7dbd b8e0 f9bc
00000030: ada7 24bb 6c52 08bc 05f9 ea3c 2083 1c3d
00000040: c8f2 ca3c 61dd dd3d 7e71 e7bd 4c8d 913d
00000050: 169d 143d d9f5 89bd 6f53 6fbc fc65 1f3d
00000060: 71b9 ecbd c6e1 02bd 68ac 5bbd d324 9f3d
00000070: b24c 9ebc 89ec 7ebd 269d 173d aae8 cb3d
00000080: c5d9 d13d 94d4 f03d b734 4abd 90c5 acbd
00000090: d5b4 84bd 1a31 12bc a862 28bd 023d 723d
000000a0: 78de 823d 45b7 39bd 1b58 ea3c 9e51 e03c
000000b0: 5301 dbbd 039b e93d 520a bb3d 86ec 663b
000000c0: 5303 adbd 9410 e33d 705c 43bd 21e4 923d
000000d0: c8c6 c23d c03b 373d e84d de3d b89c 65bd
000000e0: b200 ef3d 7c6c dc3b 5811 f43d 5665 c1bd
000000f0: 1bf8 8d3c 8adf d83c 5587 c8bd 761c 1abd
00000100: 7e3e 85bc 1c74 903d 7934 c9bd 4e27 c7bc
00000110: c075 eebb db61 42bd 4035 733d 3b86 bfbd
00000120: b562 683d 1280 423c 24ed 39bd a1ee c7bd
00000130: c47f e0bd 6bd4 0ebd 6f99 78bb a007 1bbd
00000140: c62c c03d dfb8 e03d c6cb 9abd 2b3e b4bc
00000150: e793 363d d87e 8d3d 57d5 e1bc 964e adbc
00000160: 11c9 86bc 05f7 753d ba92 e5bd b5dd b93c
00000170: 7b20 b5bd 9cfe 82bd 00a9 813d 35e0 f8bd
00000180: ed60 c73d d996 ab3d a985 4fbd 26cf 013e
00000190: 0559 e43d 375e 353d 80a3 87bd 9186 32bb
000001a0: 60f4 45bd aa1b 82b9 9091 f9bc 83c4 d73d
000001b0: 0f2e 3dbc c256 fd3d a7b1 1f3d fd6a 4f3d
000001c0: 5d86 abbd bc23 1cbc 7a8a b73d a5b7 8fbd
000001d0: 3b07 5cbd 0c16 93b9 d493 b93d 4cba 573d
000001e0: a0d1 6cbd 42fb 5fbd 8c08 ef3c a083 20bd
000001f0: fb4f a53d 22bc 79bd ef52 933d 621f f1bd
00000200: e8cb 523c 23a8 fbbd ca40 ea3d 31b6 643c
00000210: f4ff cbbd c1ed 933c 81da c6bd e526 81bd
00000220: c903 6bbd 4620 6ebd 6c47 50bd 44e1 613d
00000230: 489f 81bd 612c 4c3d e971 313d d0cf 3ebd
00000240: 4067 47bc ffb6 c93d e91c a43d 7274 2cbc
00000250: dc0a 01be b477 acba f11a a63c 90a3 d1bd
00000260: a469 223d c521 703d 6ed1 f13d 9be6 8ebc
00000270: ac66 3f3c 46e2 dbbd 0c75 333d 8ad6 4d3a
00000280: 064f d6bd 98d3 b9bd c8f9 2c3d 0059 1e3c
00000290: 5055 6fbc 255e 9b3c 6057 323d d099 0f3d
000002a0: cce2 fbbd f394 7e3d 1d33 cfbd df6b 0bbd
000002b0: e7a5 6bbd c70d d3bc 09c2 ecbd 4634 e7bd
000002c0: 1cbb 843d 6b3f c33d 1aa2 e33d d2ba e73d
000002d0: be8c e23d cdc0 c33d abbf b6bd dc89 9cbd
000002e0: 408e 5cbd 09bf ed3d 5e92 bcbd 4ccf 69bd
000002f0: 2db0 d2bb be0f 0cbd d811 04be c29b 1c3d

fc3.bias f4 [3]
-0.050160356 -0.015611421 -0.08346857
00000000: f274 4dbd 0cc7 7fbc 92f1 aabd
